model/combine_model.pt (torch, 142817 bytes, 15 tensors)

sub_net.layers.0.weight f4 [64, 16]
00000000: e790 a5be e274 8c3e 4599 eabc e5b1 c93e
00000010: f3b0 d6be 4a10 84be a727 c13e 1385 8bbc
00000020: a762 a1be 0d4a d3be 2ce2 853e eb66 ac3d
00000030: 5cd7 ac3e 5e81 803e b9d7 7e3e 6de8 073e
00000040: 0d50 02bf 064a 343c 1a34 a5bd 202b 4ebf
00000050: b546 25bd bc7a e1be b7a9 7d3e 8772 da3e
00000060: 92e7 d0bd 0426 5abe adfe 673d c420 263e
00000070: 5d80 b9bd 006e 53be d1ba 803d 4fc1 153e
00000080: 9b14 64bd 0342 3dbf 1fa9 e13c ee35 8e3e
00000090: 0b8b eebe deb2 813e 1680 92be d14f 263e
000000a0: f583 cdbe 7dc4 b7bd 0864 ee3e 5870 993e
000000b0: 9536 e6be 61da e53d 71ad ce3b 1cfc 05bf
000000c0: 1e7e 543e 1b9e 013e 3643 9fbe edf1 5abe
000000d0: 0d97 953c 285f 233e e4aa 15bd e23d c33e
000000e0: 1829 0fbf 240f 903e 89cd ac3d 6020 613e
000000f0: 2d9c 393e e3f3 1fbf 7729 5e3e c0e6 e8be
00000100: dc9a eb3d 8068 ff3b f79a e5bd ab51 21bf
00000110: c6f2 d83b 9f76 a53d 50bb a4be d6d0 8dbe
00000120: bc63 7f3e 9d80 c43e c915 eabd db19 2cbf
00000130: 9c0d 893d 1f53 d53d e5ed 423e 691b ec3d
00000140: 7a6d 21bf d041 43bd ed8c 7ebe 092b 043f
00000150: 6f2c 5fbd 836f 31bf eb2f 453e 37a0 053d
00000160: d17a aa3e 5f56 e8bd 4754 6cbe a254 8bbe
00000170: 5f30 cbbd 8bb8 43bf 1a6b d63d 4a77 8ebe
00000180: 6c6f f43e 5b3b 283e 5e26 60be 58e8 123d
00000190: 3d67 843e 9afd 63bc 63cf 86be d308 1ebf
000001a0: beda 2fbe 2372 c83c 084d 263e c300 30bf
000001b0: 9943 cb3e 881a 2f3e 111d 5ebd 14e0 6fbe
000001c0: 875f 2fbe ca68 ba3e a78c 9a3e 15a3 febd
000001d0: 1eaf 0dbe b375 403e 5492 113f 5bca 9fbe
000001e0: adc1 3bbe c78e 0b3e 7b3c 8cbe 7eb3 a73e
000001f0: 130d 57be 8429 8b3e 5718 7fbe 44ff 9bbd
00000200: bd90 003e ae86 a63e 639e 50be 09ea 163e
00000210: d3ec b13e 20d1 73be 0504 023f b4ba 2b3d
00000220: 66c5 a1bc f9d8 47bf 9827 41be 3a05 8fbe
00000230: d94d c5be a63d 183e 5422 5fbe 2d9a 04bf
00000240: c015 f23d 4a3b 9dbe 8fc8 833e 1584 893e
00000250: 7b1c f1be 7c8f fabe a549 b13e 8afe 0abe
00000260: 0e23 963d 9a42 c1be c19a 41bd 68bd 17bf
00000270: e7d1 89bd 38b4 b93e 0ddf 8fbe cbcb e73c
00000280: 043b 6a3e 0245 a2be 73c4 b83e cd43 5d3e
00000290: 510c af3d 5684 8dbe e66c 16bf 5417 bdbe
000002a0: d9b3 2f3d 00c5 25bf ba3e 78bd 1d6e 383e
000002b0: a979 67be 536e 023e 9757 613e 5c55 cbbe
000002c0: 16ea 86bb d7c9 323e a523 62bd 5875 a63e
000002d0: 3f7c 76be 6095 903e 93c4 00be 2a72 76be
000002e0: 78c1 7c3e 8a55 013e be3b 993d 916e 89bd
000002f0: 7289 373d be4c d33e eb07 583e 3706 733e
00000300: cc28 9e3e 5458 86be 4afa ae3e c93b 043e
00000310: 8839 1fbb 6a80 8f3e 8f18 22bd 0334 ccbe
00000320: 934b 03bf 32d7 4fbf 4491 a0be 0a46 57be
00000330: 2330 5bbc 0986 24be 2c3d 373e fd95 7f3e
00000340: a1ba 1abe ff56 0abf 9df4 a73e 29a6 6ebe
00000350: 65e6 58be 7eb8 4f3e 8b8a efbd 5b26 823e
00000360: 8d65 48bf d6b9 d73e b14c 0cbf 3640 64be
00000370: 7340 7cbe 3ae7 80be c02e 08be 3f28 393e
00000380: 3e72 0e3e 2355 e13e cf48 90be a830 2a3e
00000390: 095e e03e 8ec9 0fbf c7bf a4bd ca9b 763e
000003a0: 3729 593d 6d71 85bd 764c b3be 2b27 623e
000003b0: 2a6d 9ebd 7cdb 62be 535e 03bf 2854 08bc
000003c0: 93f0 473e d5e1 a8be 65a3 23be b71d ab3e
000003d0: 953b c5bd 532d ae3e a9d6 863e 66c1 15be
000003e0: f69d 273e 20fc 8d3d 402b 763d cb60 42be
000003f0: 8f46 dfbd 8c23 22be f770 ae3e b064 5bbe
-0.32337114 0.27432925 -0.028637538 0.39393535 -0.41931877 -0.25793678 0.37725565 -0.017031228
-0.31520578 -0.41267434 0.26149118 0.084180675 0.33758056 0.250987 0.24886979 0.13272257
-0.509034 0.011003977 -0.08066578 -0.80534554 -0.040350635 -0.4403895 0.24771772 0.42665502
-0.102004185 -0.21303564 0.056639362 0.16223437 -0.090576865 -0.2064743 0.062856324 0.14624523
-0.055683713 -0.7392885 0.027546464 0.2777552 -0.46590456 0.25331777 -0.28613347 0.16241385
-0.40139738 -0.08973024 0.46560693 0.29968524 -0.44963518 0.11223293 0.006307297 -0.52337813
0.20751235 0.12657969 -0.31105965 -0.2138135 0.018260503 0.15954268 -0.036539927 0.3813315
-0.5592208 0.2813655 0.0843764 0.21985006 0.18125983 -0.62481517 0.21695505 -0.45488548
0.115041465 0.00779444 -0.11211198 -0.6301524 0.0066207377 0.08079266 -0.32174158 -0.27698392
0.2494039 0.38379374 -0.114299364 -0.6722695 0.06692049 0.10416245 0.19036062 0.115286656
-0.6305767 -0.047670186 -0.24858446 0.51628166 -0.054485735 -0.6931078 0.1925656 0.032623496
0.33296826 -0.11344599 -0.23079024 -0.27213007 -0.099213354 -0.76453465 0.10469647 -0.27825385
0.47741258 0.16428892 -0.21889636 0.03586611 0.25860015 -0.013915444 -0.26330099 -0.61732215
-0.17173287 0.024468487 0.16240323 -0.6875116 0.3970001 0.17099965 -0.05422694 -0.23425323
-0.17126285 0.36408073 0.30185434 -0.12433449 -0.13836333 0.18794899 0.56863904 -0.31209072
-0.183356 0.13628684 -0.27389893 0.3275413 -0.21001081 0.2718011 -0.24911629 -0.076170474
0.12555213 0.32524627 -0.2037292 0.14737715 0.34750995 -0.23810244 0.50787383 0.0419261
-0.019747447 -0.7806545 -0.1886276 -0.27933675 -0.38535956 0.14867267 -0.21790439 -0.51797754
0.11820555 -0.30709296 0.25738952 0.26858583 -0.4709204 -0.48937595 0.346265 -0.13573661
0.07330905 -0.37746125 -0.047266725 -0.59273386 -0.06729489 0.36270308 -0.28099862 0.028295418
0.22874075 -0.31693274 0.3608738 0.21607895 0.08547271 -0.27640027 -0.58759916 -0.3693186
0.042896125 -0.64753723 -0.060606696 0.18010755 -0.22605003 0.12737398 0.22006069 -0.39713562
-0.0041172607 0.17459808 -0.055209775 0.325114 -0.24070834 0.28238964 -0.12574987 -0.24066988
0.24683177 0.12630287 0.07482098 -0.06710542 0.044808812 0.41269487 0.2109677 0.2373284
0.308905 -0.26239264 0.3417533 0.12913431 -0.0024295766 0.2802766 -0.039574202 -0.39883432
-0.5128719 -0.81187737 -0.3136083 -0.21022812 -0.013378176 -0.16066755 0.17894429 0.2495956
-0.15110256 -0.54038996 0.32803813 -0.23305573 -0.21181639 0.20285222 -0.11696347 0.25419888
-0.78279954 0.4213397 -0.5480452 -0.2229012 -0.2463396 -0.25176412 -0.13299084 0.18081759
0.13910767 0.44010267 -0.2818055 0.16620123 0.43821743 -0.56166923 -0.08044391 0.24082866
0.05301782 -0.06515775 -0.35019273 0.22085254 -0.07735665 -0.22154039 -0.513158 -0.008320846
0.19525366 -0.32984796 -0.15980299 0.33421108 -0.09630505 0.34018955 0.26335648 -0.14624557
0.16368851 0.06932855 0.06009984 -0.18982236 -0.1090213 -0.15833873 0.3407056 -0.21425128

sub_net.layers.0.bias f4 [64]
00000000: 44f2 dabe faf3 f83c fdb7 59be ea7c a2be
00000010: 5f2b 8d3d e97a 823d bcb4 0bbe 04fd 07bd
00000020: afbb 113e dad7 2cbe 72f3 16be 7cf1 bfbe
00000030: 24ed 4cbe 79ac a23c 4656 d23c d74a babc
00000040: f5f1 20bd e425 adbd b309 b03c cd09 18be
00000050: b497 8c3e 5d97 483e 07a0 f4bd 8529 3cbe
00000060: 728c 5e3a 8aa3 81be 5d3f 043e 063f 56b9
00000070: 28c8 d63d 00e2 cabd bcb9 85be 1dfe 6dbe
00000080: 6a47 38be 0825 5d3d 68a2 c4be a40c 003d
00000090: fb1f 0ebe 33f4 863d 26ed 2abe ae77 bf3d
000000a0: 9748 20be 3dfa c1be 42c0 c8bd 7c38 57be
000000b0: 4d9f 80be a4f6 3cbe 09fc 8dbe 4453 c2bd
000000c0: 59b8 b6bd e5a8 593e 64b1 84bd 79ec 203e
000000d0: bab1 2dbe b972 4cbe dd69 3abc 3d49 d23d
000000e0: 1f06 2bbe 466e 153d 8408 773d a701 95bc
000000f0: 3a51 3c3e 608a 4bbe d50f 223e 00ca bd3d
-0.4276296 0.030389775 -0.21261592 -0.31735927 0.06893038 0.063710995 -0.13643163 -0.03320028
0.14231752 -0.16879216 -0.14741305 -0.37488925 -0.20012337 0.019857632 0.025675904 -0.022740765
-0.03929325 -0.08454493 0.021489 -0.14847489 0.2745949 0.1958899 -0.11944585 -0.18375213
0.0008489556 -0.25320083 0.12914796 -0.00020432108 0.104873955 -0.09906387 -0.26118267 -0.23241468
-0.17995992 0.053990394 -0.38405156 0.031262055 -0.13879387 0.06589546 -0.16692027 0.09348999
-0.15652691 -0.3788623 -0.09802295 -0.21017641 -0.25121537 -0.18453461 -0.2773135 -0.09488538
-0.0892188 0.21255834 -0.06479147 0.15715207 -0.16962329 -0.19965638 -0.011377779 0.10267875
-0.16701554 0.036482118 0.060310856 -0.018189264 0.1839036 -0.19877005 0.15826352 0.09267044

sub_net.layers.2.weight f4 [64, 64]
00000000: 695a 2bbf 8259 e03d 5dc3 a23e 7e85 833e
00000010: 96d2 a63d 0356 a6bd def9 dabe 6764 a93e
00000020: fdfb 8f3e 94c8 bcbe ccc4 633e 321c 0ebe
00000030: 3250 063d 1d33 8e3e 98d5 3cbe e397 863c
00000040: 5f51 d8be 5e72 60be d6c5 c73e 68f0 b3be
00000050: b0f9 30be 592d 8cbe de9c 843a 1590 a8be
00000060: 504f ca3c f98c 82be 33d7 af3e 0a55 1b3d
00000070: f2ba d33e 84b9 e43c a132 04bf 3915 94bd
00000080: 2dd8 363e a2ef 66be 626f 043e 9306 5f3d
00000090: be22 803e 135f e83e f720 c3be f609 82be
000000a0: 4c61 92bb 66ca 8dbe d79d fabd 093d 5bbe
000000b0: ee98 b6be 1a70 0f3e 9018 4cbe 7369 843e
000000c0: b694 b43d 99e8 003e f18c 27bf 8cc7 ee3d
000000d0: 4cac 2b3e 5c81 cabe 3739 76bd 7792 d9be
000000e0: 5296 4c3e 1e52 c3be c30b 923d 2f2a 6e3e
000000f0: 455c 0cbe fcaa e6be e67d 9cbe b418 13bd
00000100: 8ef2 d13e d76d e1be d430 50bf 5651 a3be
00000110: b9ca 87be eee9 de3e 5ef4 fbbc 1d6f 83be
00000120: 90b8 333d 8d7a 86be 5e85 1abf 421b 9e3d
00000130: a1f4 593e 70e2 d73d 268e b63d ef5c 71be
00000140: 375a 293e 8f7f 343e 641f 8f3d 6793 8ebe
00000150: 2244 7cbe 1129 edbd 2b09 f2bd 5b80 8e3d
00000160: 4c09 ac3d ffb5 873e be03 b3be 73a1 05be
00000170: 07cd b8bd 1bc6 bc3c 79a3 c23d d015 30be
00000180: 69ee fbbe c181 083d cb9d 41bd 96e1 1b3e
00000190: d9d8 03bd ca32 94be eea2 bd3e 50c8 d4be
000001a0: 816c 34be 62d9 dd3a e151 38bd 609c a93e
000001b0: 1ef9 cfbe b2bc d7be 0362 5dbf 2474 c2bd
000001c0: 8415 3cbe 545a 183c 047d 703d d565 103e
000001d0: 2d67 bb3e 4d97 9e3d 1158 0e3d 6633 553d
000001e0: d4ae 71bc b58d edbd 11a4 cbbe 5ebc ecbc
000001f0: db4c aabd 3b22 da3e 127f aa3d c5b4 c2be
00000200: 439d c53e 4feb 1d3e bc57 a13d d458 67bd
00000210: 1cb6 083e 24b3 babe 53b6 8bbe e993 263e
00000220: 8498 08be 8c6a ccbd c969 563e 2b02 39bd
00000230: 8168 513e 1a8e 68be 57d0 7a3d 7fa0 02be
00000240: d55e 7c3a 58d5 883d a36d a8be 8a0e 95bd
00000250: 43fc 25bf 366a 73be 1a8e 1ebe 6631 513e
00000260: c4b7 85be 0cb3 a1be 20e0 f73d 3c3c 323e
00000270: 8e3f d0bd 69bc c73d db2d 093f 00be 623e
00000280: 494d 30be 8d4b 78be 4d86 81be 2179 b6be
00000290: e01f c3be 5fea cdbe e7c8 39be 59c6 46bd
000002a0: 47fb 82be 3437 343e 4f45 4dbf 024d 6cbe
000002b0: 8f41 a23e 3e39 8e3e c6f9 033f ecad 903e
000002c0: 55d5 573e 13cb 933e 2af6 d63c 0a89 3dbe
000002d0: 7e4d d03d 3df2 6d3f f5cf 693e 1852 c83d
000002e0: d8bf b83e 3421 a6bd 098e b23d b5d5 bfbe
000002f0: d1f9 2cbe 297e 8a3e 8127 893e e7b8 03bd
00000300: a0cc 42be 20b2 2b3d 5e49 dd3d a4e7 67bd
00000310: 1579 4fbe b800 303e f6d2 df3d c6a4 72be
00000320: 45f1 5cbd 93e2 f93d c669 d73c a4b6 4ebe
00000330: 19c5 54be 1836 3dbe 123e d7bd 8106 a4be
00000340: 5e49 73bd 0b38 ef3d 3608 c23d 0ae5 01be
00000350: e497 5e3e 6918 74bc 1238 f73d f3cd fa3d
00000360: 1556 913e e4c3 c0bd 1d93 41bd e9fd 00be
00000370: 7b3a 433e 25ec 15bd 4d49 adbd 811c 42bd
00000380: 8678 6fbe 7d37 a53d 3464 633e cb8c d53c
00000390: f401 4fbd 14f3 c6bd 7d3a ed3d 50ca 773e
000003a0: d8e6 f3bc c4cf b63c 5bde 873e 797a 03bf
000003b0: 23d2 93be 0c51 59be bcd9 98bc 796c 263e
000003c0: 6192 a33d 8703 643c ff16 db3d 5527 87be
000003d0: 47a4 a7bc 6e69 813e 2f8e b9bd b450 1fbe
000003e0: 4c9f d3be 87a4 1bbe 1f8c 8fbd a642 993e
000003f0: c99b 26be 833f 393c 1776 af3d 4ba1 83be
-0.6693483 0.10954572 0.31789675 0.25687784 0.08145635 -0.08121874 -0.4276876 0.33084413
0.2812194 -0.3687178 0.22243041 -0.13877943 0.032791324 0.2777337 -0.18440855 0.016429847
-0.4224958 -0.21918628 0.39018124 -0.35144353 -0.17282748 -0.27378348 0.0010117551 -0.32922426
0.024696022 -0.2549818 0.3434387 0.037922896 0.41353565 0.027920492 -0.51639754 -0.072306104
0.17855902 -0.2255235 0.12933114 0.05444963 0.25026506 0.45385036 -0.38111088 -0.25398225
-0.004467165 -0.2769348 -0.12237137 -0.21410002 -0.3566355 0.14007607 -0.19931245 0.258617
0.08817427 0.12588729 -0.65449435 0.11659154 0.16764945 -0.39551818 -0.060113158 -0.42494556
0.19979218 -0.38148588 0.071311496 0.2325828 -0.13707073 -0.45052326 -0.30564803 -0.03591223
0.41005367 -0.44029114 -0.81324506 -0.31897992 -0.26521853 0.4353785 -0.030756172 -0.2567071
0.043877184 -0.26265374 -0.6035975 0.07720043 0.21284725 0.105412364 0.089138314 -0.23570608
0.1653832 0.17626785 0.06988409 -0.27846834 -0.24635366 -0.115800984 -0.11818155 0.069580756
0.08400211 0.2650604 -0.34963793 -0.13049869 -0.09023481 0.023043683 0.09503836 -0.17195821
-0.4920533 0.033326868 -0.047269624 0.15222773 -0.032189224 -0.28945 0.37038368 -0.41559076
-0.17619516 0.0016925747 -0.04499996 0.33127117 -0.4061975 -0.4213615 -0.8647768 -0.09494808
-0.18367583 0.00929888 0.058712974 0.14101346 0.36602154 0.07743702 0.034751955 0.05205097
-0.014751155 -0.11599294 -0.3977361 -0.028898414 -0.0831544 0.4260424 0.08325018 -0.3802854
0.38596544 0.15421794 0.07878062 -0.056481197 0.13350719 -0.36464798 -0.2728754 0.16267361
-0.1333943 -0.0998126 0.20938791 -0.045168083 0.20450021 -0.22710457 0.061233845 -0.12756537
0.0009627168 0.06681317 -0.32896146 -0.07278164 -0.64838046 -0.23770985 -0.15483895 0.20429
-0.26116765 -0.31581914 0.12103295 0.1740579 -0.10168372 0.09752733 0.53585595 0.22142792
-0.17216982 -0.2424757 -0.25297776 -0.3563929 -0.38110256 -0.40217873 -0.18143044 -0.048529003
-0.25582334 0.17599183 -0.8018388 -0.23076251 0.31690642 0.27778047 0.51553 0.28257692
0.21077473 0.2886587 0.026240427 -0.18509308 0.101710305 0.9294775 0.22833236 0.09781283
0.36083865 -0.08111802 0.08718497 -0.37467733 -0.16892172 0.27049378 0.26787952 -0.03215876
-0.1902337 0.04191792 0.10805009 -0.056617394 -0.20261033 0.17187774 0.109289095 -0.23695669
-0.05394103 0.12201419 0.026295554 -0.2018686 -0.20778312 -0.18477666 -0.10509886 -0.32036212
-0.05939614 0.11680611 0.09474222 -0.12685028 0.21737629 -0.014898398 0.120712414 0.12246313
0.28385988 -0.09412363 -0.04725944 -0.12596859 0.19065277 -0.036602158 -0.08461247 -0.047390465
-0.2338582 0.08067224 0.22206193 0.026068112 -0.050538972 -0.09714332 0.115834214 0.2419827
-0.02977316 0.022315867 0.2653683 -0.51358753 -0.2887126 -0.21222323 -0.018658511 0.16252317
0.07986904 0.013916857 0.106977455 -0.26397195 -0.020464076 0.2527575 -0.090603225 -0.1555813
-0.4133247 -0.15199481 -0.07009148 0.2993366 -0.16270365 0.011306646 0.08567446 -0.25708994

sub_net.layers.2.bias f4 [64]
00000000: 18f2 b0bd 0a44 953d a69d 003d ec92 c2bd
00000010: 437f 3ebe f921 6bbe 20d2 e1bd 8a20 abbd
00000020: 3a95 4fbe 88e6 0fbe 056e 1b3e e67a f8bd
00000030: a459 15bd d35c bfbd 4726 81bc baf8 b6bd
00000040: eccc d43a 058f 64bb fa9e 26bc c1a6 46be
00000050: 5527 babd 973c b33c 274e b6bd a851 d93c
00000060: fab0 fdbd f498 4abe 300b 403d 2242 a0bd
00000070: 92e6 13be 4c50 24be 5382 5a3d 5041 99bd
00000080: e8e1 84bb 58d8 15be 55ef b9bd a6d2 93bc
00000090: aefe 8f3d 056e 55bd 4fe5 e53c eecb 2ebe
000000a0: 4d63 c5bc 7b84 21be 24f7 94bd 72d7 8dbc
000000b0: 891f b1bd 0b29 d5bc ac3e 12be c5eb 1d3c
000000c0: 1682 17be d215 f4bc c097 12be 7f04 c53c
000000d0: 5997 07be b7f0 a2bb c746 c4bb c119 67bd
000000e0: 4d81 1fbe 8121 7ebd 1e94 493d 089d c13d
000000f0: 0414 033e 9b54 dcbb 2c9d 16be f5db 363a
-0.08639926 0.07288368 0.031400345 -0.095006794 -0.18603234 -0.22962178 -0.11026406 -0.08355816
-0.20271769 -0.14052784 0.15178688 -0.12132816 -0.03646244 -0.09343877 -0.015765322 -0.089341596
0.0016235388 -0.0034875285 -0.010169739 -0.19399549 -0.09089533 0.021879477 -0.08901625 0.026528195
-0.12387271 -0.1978491 0.04688567 -0.07825114 -0.14443424 -0.16046256 0.053346943 -0.074831605
-0.0040552504 -0.1463331 -0.09078852 -0.018044781 0.07030998 -0.052106876 0.028063444 -0.1706998
-0.024095202 -0.15773194 -0.07273701 -0.017314646 -0.08648593 -0.026020547 -0.1428172 0.009638731
-0.14795718 -0.029795561 -0.143157 0.024049995 -0.13241328 -0.004972543 -0.0059898826 -0.056421045
-0.15576668 -0.06204367 0.04921352 0.094537795 0.12800604 -0.006723953 -0.14708394 0.0006975525

sub_net.layers.4.weight f4 [64, 64]
00000000: 6192 60bf 3be0 c83d fb6a 873d f720 f63d
00000010: 65cf 84bd b646 38bf dae9 15be a37c 27be
00000020: 9634 5bbe ab70 a53d fd91 0d3d 7aef c0bd
00000030: 4ddc 16bf c1de 08be 2cfb 34be 3737 8d3e
00000040: 4439 7ebd 4aed 6bbc 2469 e8bd c929 38be
00000050: 1ce4 82be 58a6 a7bc 9859 923d 6ae5 6cbd
00000060: 6e81 073d 22f3 76be a09d 3e3e 0194 aa3d
00000070: 7e9b d43c 20b1 a8bb 5f23 19bd 7a12 a43d
00000080: dc92 02bf d41d cc3e 3425 ff3d 62bf 09bf
00000090: b7c8 d2be 2d01 963d 40fe 7bbe 5f1a d3bd
000000a0: 4d84 b9be e0e5 0ebd 6347 253e 5eff 3b3e
000000b0: 29ae 853c 4641 bc3d d725 b3be 04ca 29bd
000000c0: cbc1 af3d 49ff 533d 358b d73e 1593 593e
000000d0: 0a46 2ebd 2f24 8ebe 82fb a33e e1ec b7be
000000e0: 9fe8 a73d a0da 00bf e7a8 86bd e875 0dbc
000000f0: c70c 8ebe 18b2 3d3e 7f24 5a3e 7378 663e
00000100: cfdf cbbe a72f cabd 3060 f1bd c36a 963e
00000110: 611d a83d b6a8 6abe e977 48bc c885 b2be
00000120: 119f fe3b 2e3f 07bd 99cb a7be 3d92 97bd
00000130: 8410 053d 139f ecbb c320 fbbe ba48 853e
00000140: 494c 34be 5f79 abbe ebff 3dbe 588a 353e
00000150: 2898 b23d 1749 3abe bf28 5e3d c438 bd3d
00000160: fd12 1b3d b7e2 59be 378e 02bf 6963 093e
00000170: 2677 0b3d 4385 00be a529 1fbf 26be be3a
00000180: c410 083f 00ab ba3e 0d23 b3be ce07 14be
00000190: f2d8 d0be 053f 11bd 506f 15bd fa9d bcbd
000001a0: 8d36 f4bd 2c93 df3d fc86 a23e 3217 573c
000001b0: 25a7 a7be 8c83 863e 7f6e 07bf cdbc 1f3e
000001c0: e2ed 4f3e ec7e 973c 6fa0 833e 2179 583e
000001d0: 5360 7cbd 3356 a7be 7af0 803e 4113 d1be
000001e0: de08 ce3d cace 7dbe 61f1 1dbe c73e 6dbe
000001f0: 20fd 8cbe 7d38 1fbe 2f55 6cbc d141 dc3d
00000200: 8020 09bf fe35 01be 7768 b9bd c4a5 063e
00000210: 1d44 2d3d 882a c0be 463a f23c bfe9 babe
00000220: d01e a8bb 3f2c bebd 9d1f 97bc 75f1 2cbd
00000230: 400d d83d 5362 a33d eb4a b3bd 7e02 bf3d
00000240: 8da6 eebd 29fd adbc 16a6 8abe b4ae 3c3d
00000250: d8ae c9be c55b a3be eb90 5fbd a284 773d
00000260: 3080 15bc bcee 80be 0207 dbbb 22d0 25bf
00000270: aee1 72bd 6162 993e d7f2 7abe 55e5 c3bc
00000280: 2be2 073e e36c 343f 748c 27bf 9070 3abf
00000290: 4860 28bf 266a e73d 87b7 563e 97e3 223d
000002a0: 07ee 41be 9ddc 60bd 3bf5 49be 6374 113e
000002b0: fef5 c0bd b8a0 963e 0f21 94bc 6142 18bc
000002c0: 56ba 033e b588 cf3d acd4 1b3d bf0a d83d
000002d0: c6bb efbd b77b 7b3d c28f ee3e e893 77be
000002e0: 1ab8 7ebe be0b 8a3e 9e14 35bf 8656 a93c
000002f0: 9631 a1be e711 abbe 4b84 473e 670f f33e
00000300: 64f5 10be 782f 743c 56fe eabd f45f 33bd
00000310: 8c72 91bd dc74 e4bd 703a 2d3c 766b 303c
00000320: 3c1b 82bd e0b3 81bb e0ec 7dbc c097 33bb
00000330: ec8c 07be 206d 7c3d 7288 3c3d 9a29 843d
00000340: 3067 87bd 8052 16be 7908 d03c dc91 efbd
00000350: 04b5 cfbd 199e f43c 88cb d7bd 2812 df3c
00000360: 00d9 c6ba abc2 14be 819f 24be a03f 5ebd
00000370: 10d6 4e3c 6c40 3e3d 40f6 80bd 5ae1 9cbd
00000380: a1c6 b93d 88bf 113d 8cb0 d6bc 10dd 86bc
00000390: e8e3 c6bd aa1e d0bd 4cee cb3c d8a4 e1bc
000003a0: 3419 57bd f035 dd3d 55ff 803d 1408 fdbd
000003b0: 36c5 e03b e680 b1bd 0c4c cfbd a15d 813d
000003c0: d0c9 653d da1d b03c 802a e73d 2056 9dbc
000003d0: 6694 f0bd 5240 a33c e160 0abd f56f 22bd
000003e0: 3640 9fbd 0b99 16bd 7b6e 4abc cb2e 08bd
000003f0: 5e70 353d 17f0 953d 84b7 90bd 641f 203d
-0.87723356 0.098083936 0.06612202 0.12018006 -0.0648487 -0.71982896 -0.14639989 -0.16356139
-0.21406779 0.0807813 0.034563053 -0.094206765 -0.589299 -0.13366224 -0.1767394 0.27581188
-0.06206633 -0.014399836 -0.11348179 -0.1798469 -0.2556466 -0.020465061 0.07145995 -0.057835974
0.03308242 -0.24116185 0.18614817 0.08329011 0.02595305 -0.005148068 -0.037387248 0.080113366
-0.5100534 0.39866507 0.12458268 -0.5380765 -0.41168758 0.07324443 -0.24608707 -0.10307764
-0.3623375 -0.034887195 0.16140513 0.18359134 0.016318398 0.091921374 -0.34989807 -0.041452423
0.08581885 0.05175713 0.42098394 0.21247514 -0.042547263 -0.2776198 0.32027823 -0.35922912
0.08198666 -0.50333595 -0.06575184 -0.008634068 -0.27744123 0.18524969 0.21302985 0.22506885
-0.3981919 -0.0987237 -0.117859244 0.29378328 0.082087286 -0.2291592 -0.01223562 -0.34867692
0.007770427 -0.033019237 -0.3277252 -0.074009396 0.032486454 -0.0072211116 -0.49048433 0.26032048
-0.17607225 -0.33491036 -0.18554656 0.17728555 0.08720428 -0.18191944 0.054238077 0.09239343
0.037859906 -0.21277891 -0.5099825 0.13416828 0.034049176 -0.12550835 -0.6217292 0.0014552518
0.5315058 0.36458588 -0.3498768 -0.14456102 -0.40790516 -0.03546049 -0.03648311 -0.09209819
-0.11924467 0.10916743 0.3174361 0.013128089 -0.3274471 0.26272237 -0.5290298 0.15599366
0.20305589 0.018493138 0.2570834 0.21139957 -0.0616153 -0.32682952 0.2518347 -0.40835002
0.10060285 -0.24785915 -0.1542411 -0.23168479 -0.2753687 -0.15548892 -0.014424606 0.10754741
-0.53565216 -0.12618253 -0.09053128 0.13149172 0.042301286 -0.3753245 0.029568803 -0.3650646
-0.0051306263 -0.09285783 -0.018447692 -0.04222246 0.10549402 0.07977738 -0.08754524 0.09326647
-0.11652861 -0.02123888 -0.2707984 0.046065047 -0.39391208 -0.31905952 -0.054581564 0.060429223
-0.009124801 -0.2518214 -0.006684185 -0.6477071 -0.059297256 0.2995787 -0.24506699 -0.023913065
0.1326987 0.7047865 -0.6544869 -0.72828007 -0.65771914 0.11299543 0.20968448 0.039767828
-0.18938456 -0.054897893 -0.19722454 0.14204554 -0.09421919 0.29419494 -0.01808217 -0.00929317
0.1286405 0.10133497 0.038044617 0.10548925 -0.11705737 0.06139728 0.46594054 -0.24177516
-0.24874917 0.26962084 -0.70734584 0.02067114 -0.31483144 -0.33412096 0.1948406 0.4747269
-0.14156109 0.014903896 -0.11474292 -0.04379268 -0.07101926 -0.11155102 0.010573015 0.010767808
-0.06352851 -0.0039582103 -0.01549837 -0.0027403682 -0.13237351 0.061627507 0.046028562 0.06453247
-0.06611478 -0.14679909 0.025394665 -0.11697742 -0.10141948 0.029860543 -0.105368674 0.027230337
-0.0015170872 -0.14527385 -0.16076471 -0.054259896 0.012624279 0.046448156 -0.062969685 -0.0766017
0.090710886 0.03558305 -0.026207231 -0.016462833 -0.097114384 -0.10162099 0.024893902 -0.027544424
-0.05251427 0.108013034 0.06298701 -0.123550564 0.006859447 -0.086671636 -0.10121927 0.063166864
0.056100667 0.02149861 0.11287403 -0.019206107 -0.11747055 0.019928131 -0.033783797 -0.03965755
-0.07775919 -0.036767047 -0.012355442 -0.03324775 0.044296615 0.07321184 -0.07066253 0.039092436

sub_net.layers.4.bias f4 [64]
00000000: 8a0e d53d 20ea 5a3e 7daf 7f3d f216 32be
00000010: ece8 42be 1c5d 393c 094d f5bc 75b0 bd3d
00000020: 1a05 0ebd 25ef 24be 181c dc3d 41e5 eabd
00000030: 6451 473e e9fc 90be 3332 8fbe 6b51 3e3d
00000040: b981 0bbe 1d0e 02be 3f1d bfbd 8a59 d23b
00000050: e9ba 623d a3c7 9cbd b3b5 c3bc 03dc 86bd
00000060: 60c6 a23d 415e 4abe 1208 a6bc f962 a8bd
00000070: 7f55 7c3b 4070 cfbd 9266 4ebd 2a45 fbba
00000080: f8f9 353d 9fa3 1cbe ee39 893d 35c8 263e
00000090: 87f3 01be 1ce3 12bd 2edc 28be 8b7f bc3d
000000a0: 12e0 16be b62a 283d 49a5 b5bd c909 98be
000000b0: 905b cb3d 8f56 c5bd da3f 283e efec ca3b
000000c0: 3b4d c93b e032 c5bd 8a96 6f3d 23e1 3cbe
000000d0: 8b97 0abe 327c 843d 6c30 6dbe cd66 0ebe
000000e0: b973 dabc f01c bdbd 4036 d6bd a556 85bd
000000f0: 8979 6cbd 29c8 5c3d 2f02 adbd ac31 d03d
0.10403164 0.21378374 0.062423218 -0.17391565 -0.19034165 0.011313703 -0.02994396 0.09262172
-0.034672834 -0.16106851 0.10747546 -0.11469508 0.19464642 -0.28317955 -0.27967986 0.046464365
-0.13623704 -0.12700696 -0.0933175 0.0064193653 0.055354033 -0.07655265 -0.023890352 -0.06584933
0.07947993 -0.19762518 -0.02026752 -0.082220025 0.0038503108 -0.10128832 -0.050390787 -0.0019170393
0.044427842 -0.15296791 0.06700502 0.1628731 -0.12690555 -0.03586112 -0.16490242 0.092040144
-0.14733914 0.041056357 -0.08869416 -0.29694965 0.099295735 -0.0963565 0.16430607 0.0061927955
0.00614324 -0.09628844 0.058493175 -0.18445258 -0.13534372 0.06469001 -0.23163003 -0.13906403
-0.026666509 -0.09234035 -0.10459566 -0.06510667 -0.057733092 0.053901825 -0.08447682 0.10165724

sub_net.layers.6.weight f4 [64, 64]
00000000: c2fb cabc 1704 5b3c a77b b6bd 4c70 f03d
00000010: 0a18 ab3d 1821 93bd f135 dbbd df11 b83c
00000020: 4ba4 973d 75fd 58bc 3445 6abd f0eb fabd
00000030: 2644 eabd 681a afbd 2c99 6c3d d279 17bc
00000040: 520a dfbd 60ee 5a3c 8085 41bb b882 e8bc
00000050: a0ff a73d c4ea 9abd 50dc 1d3d fd1f a6bc
00000060: b60b b33d 12c8 9ebd 24fc dcbb 1c0d 8cbd
00000070: 2570 33be 8070 ffbd 8515 85bd 765a adbd
00000080: f403 4abd 7c29 b03d ed55 75bc f82e d6bd
00000090: fb0a abbd e13e b33c 761a f5bd f9c3 b33b
000000a0: 7040 d43c f3a7 d8bc e1b5 c4bd 22dc a0bd
000000b0: 7d22 9a3d a750 263d f4b1 b03d d5bc 1abe
000000c0: d5de b1bd 1f66 0bbd 4409 b2bd 4404 ccbd
000000d0: 2835 043d bd26 883b 20bf d53d 198d 6bbd
000000e0: 4f57 2b3d dc21 ec3d 34d5 9abd b80f fd3c
000000f0: 9cba 2abd 50a6 c5bd e3e8 53bc ec55 8e3d
00000100: 27b2 93be 5de7 14bf b079 3fbe adbc b3bc
00000110: 9629 0a3b 5c56 1dbf e21b 033f 800d b93d
00000120: 0fff 133d adde b3bd 0be9 7dbe b826 aa3d
00000130: d315 fdbe e81e 713d 9f16 a33e f1e4 a03d
00000140: bbec e23c 8204 713d 48f8 2ebe fe82 ab3d
00000150: d517 43bf d4b6 db3d fd9d a5be 620d 20bf
00000160: 0542 80be 77a3 23bf 550a 4f3e 7b4f adbe
00000170: fb1b 573d 617c 6abd 3776 c63d e240 1e3e
00000180: f9ab 033e 9c2a 163d 44b8 033e cfe9 273e
00000190: 6dd9 cebe b279 e13e f25b 93bd 1942 b33d
000001a0: b01c 493b e68d 44bf 0617 a23d cf36 f23e
000001b0: 343c 8ebe ec90 00be ebec 3f3e bb75 ccbd
000001c0: 95e4 703d 18fb 883e eb0e 0d3e 8003 a3bb
000001d0: 8f65 323e 47e8 10be 6d60 b6be d0e0 d23e
000001e0: 6f7c 7a3e d358 d73d b64b ccbe 0eb3 083b
000001f0: 4134 15bd 5f4b 13be fb3e a2be e3b1 e03e
00000200: e85e 56bd 660a 133e bbdc 8a3e a47a c33d
00000210: f268 eebd da34 ccbe 7b9c 49be 10ec 0b3d
00000220: d3e8 a8be 0205 b8be 137f ddbd 0c4f f83c
00000230: fed5 bc3b 235b 013e 60cf 3d3e 9229 d4bd
00000240: c0a3 263d 0fdc 08bd 26a6 943e 32eb 253e
00000250: 8ac5 20be 8395 d9bd deed 58bb 662e f13e
00000260: 2da5 f03b 1a96 dc3d f484 c2be dc3f b63e
00000270: 5bfe 0abf d27d 893c ab9f 6fbe 3f14 a6bd
00000280: 1453 3e3d d057 47bc ab28 6cbe c3b1 243f
00000290: af0a 6d3d ea0e 9d3e 1eb0 fabd cfb4 fd3d
000002a0: fcdb 723d ad5a d8bd cb88 feba 5766 953d
000002b0: 0117 983e 1b65 9ebd abc9 d6bd 388b cf3e
000002c0: c28b 76be 5cdb 43be ff64 56bd 8239 c33d
000002d0: 22b8 993e d79b 173f 3795 643e ce56 eebd
000002e0: 5e6b 15bf 9f5c d0bd 23fb 0abd f0d1 af3e
000002f0: 7e03 e0bc 930b 29bf 38ae 56be b9de f9be
00000300: 9018 4abe 0ca6 93be e623 08be d064 debc
00000310: ed9e 94bd 57bc 36bf eef6 2f3e e2eb a6bd
00000320: 5fc3 cbbb daf1 9bbe f5d7 14bf 045e cdbc
00000330: f02d f5be 1979 773e 4574 d53e 0007 6b3e
00000340: d7cb 563e 6eb3 d1bd a088 8ebe d86d 173f
00000350: 5465 5b3d 0744 01bd 684e 3fbe caa4 b1be
00000360: e403 0dbe 0fac 42be 22c4 1a3c 69c9 abbe
00000370: 15ff 27bd c58c e93d 4ee5 aabd aa45 343e
00000380: b152 913d a19e 0fbe cbcb 8d3e bc46 d13e
00000390: 3d39 c3be 83a3 c33d 2b21 903d be43 633a
000003a0: 2f7e a83d da94 11bf 28aa b9bd f4f4 7b3e
000003b0: e434 2dbf 6b28 07be 1e00 b3bd 51f6 773d
000003c0: 3167 273d c097 6f3e 28a1 71bd 88e9 4f3d
000003d0: 3efa 463e acca 973e 1268 f0be 32bb 2d3d
000003e0: d25a e13e 7bdd 65bd f345 14bf 5c83 ecbe
000003f0: 0632 413e 6f27 803c 157d 9cbe 903e e53e
-0.02477825 0.013367674 -0.089103036 0.11740169 0.083541945 -0.071840465 -0.10703648 0.02246946
0.07404383 -0.013244023 -0.057194903 -0.12252033 -0.114387795 -0.085499585 0.057763264 -0.009245353
-0.1089064 0.013362497 -0.0029529035 -0.028382644 0.082030535 -0.07564309 0.038540184 -0.020278925
0.08742468 -0.07753004 -0.0067439247 -0.06838438 -0.17523248 -0.124726295 -0.06498245 -0.0846452
-0.049320176 0.086016625 -0.0149741 -0.10458177 -0.08351704 0.021880569 -0.11967938 0.0054860082
0.025909632 -0.026447272 -0.09605003 -0.07854487 0.07526109 0.04060426 0.08627692 -0.15111096
-0.0868508 -0.034032937 -0.086931735 -0.09961751 0.032277256 0.0041550086 0.10436845 -0.057507608
0.04183131 0.11529896 -0.075601965 0.030891284 -0.04168187 -0.09650862 -0.0129339425 0.06949982
-0.28846857 -0.5816553 -0.18698764 -0.021940554 0.0021081916 -0.614599 0.5121442 0.09035778
0.036131915 -0.087827064 -0.2479593 0.08308166 -0.49430713 0.058867365 0.31853196 0.07856167
0.027700773 0.05884219 -0.170869 0.08374594 -0.7620824 0.10728231 -0.32347098 -0.6252042
-0.2505037 -0.639213 0.20218785 -0.338497 0.05251692 -0.057247523 0.096905164 0.15454438
0.12858571 0.03666173 0.1286326 0.16397785 -0.40400258 0.4403816 -0.071952716 0.087528415
0.0030687265 -0.7677902 0.079145476 0.4730744 -0.27780306 -0.12555283 0.18742721 -0.09983393
0.058811743 0.2675407 0.13775222 -0.0049747825 0.17421554 -0.14151107 -0.35620442 0.41187143
0.2446153 0.10514989 -0.39901513 0.0020858678 -0.036426786 -0.1438422 -0.31688675 0.43885717
-0.052336603 0.14359435 0.2712153 0.09544876 -0.116411105 -0.39884073 -0.19688599 0.034160674
-0.3299013 -0.3594132 -0.10815253 0.03031113 0.0057628145 0.12632422 0.18536139 -0.103594914
0.040683508 -0.03341299 0.2903301 0.16203001 -0.15700355 -0.1062422 -0.0033100764 0.47105712
0.0073439092 0.10770817 -0.3799206 0.35595596 -0.54294366 0.016783629 -0.23400752 -0.081093304
0.04646595 -0.012166932 -0.23062389 0.6433374 0.057871517 0.3067544 -0.12240623 0.12388002
0.059291825 -0.1056417 -0.001941943 0.072949104 0.2970505 -0.07734128 -0.10487684 0.40535903
-0.24076751 -0.19126648 -0.05234241 0.09532453 0.30023295 0.5922217 0.22322546 -0.116376504
-0.58366954 -0.10173916 -0.03393091 0.34339857 -0.027345415 -0.66033286 -0.20964897 -0.48802736
-0.19735932 -0.2883762 -0.13294944 -0.02714768 -0.07256875 -0.71381134 0.1718404 -0.0815046
-0.0062183584 -0.30457956 -0.58142024 -0.025069244 -0.4788661 0.24167289 0.4169027 0.22951889
0.20976196 -0.102393016 -0.27838612 0.59151983 0.05356343 -0.031559017 -0.18682253 -0.34696037
-0.13771015 -0.19010948 0.009446176 -0.335521 -0.04101475 0.11403803 -0.08344518 0.176047
0.0709585 -0.14025356 0.27694544 0.4087428 -0.38129607 0.09552672 0.07037576 0.0008669457
0.082271926 -0.56867754 -0.09065658 0.24605161 -0.6765883 -0.13199012 -0.08740257 0.06053764
0.040869895 0.23397732 -0.05899158 0.050759822 0.19431397 0.29646814 -0.469544 0.04241485
0.44014603 -0.056119423 -0.57919234 -0.4619397 0.18866739 0.015643803 -0.3056418 0.44774294

sub_net.layers.6.bias f4 [64]
00000000: b552 18be 0c49 ba3d 291c bd3d 48b1 b63d
00000010: ec48 09be 717f b33d d696 e3bd f8b9 cfbd
00000020: 090f a13d 55af a5bd 3c77 ec3c f84f 13be
00000030: 8042 26be 0f02 d2bd ca77 6dbd 9c6e f6bd
00000040: 5992 193d b59a 2bbe 19b1 41bd c333 ffbd
00000050: 4801 c13d 2d31 6fbd c33a 10be b697 86bd
00000060: b40c 73bd b679 f9bd 4343 d63a e9f0 c33c
00000070: 90c9 a73d 1422 433e fbd5 8dbd 552f ab3c
00000080: 6408 c4bd ac99 453b cdcb 6c3d 1212 20bd
00000090: 7ed0 5b3d 1fee 9dbd 6f7c 37be b014 aabc
000000a0: 4629 eabd 41fb 46bd 1859 6b3d 1aa8 00bd
000000b0: db5d d1bc 3913 263e d9b7 eb3d 1945 ac3d
000000c0: feaa 383e 7e21 d73d 6cd0 2cbd 195e 02be
000000d0: 5b5e da3b 982c 0bbe 7aba 66bd 1ec7 a33d
000000e0: 859b ce3d cd2f 09bd 3409 1d3e 1ec4 063d
000000f0: 6aae fe3d ed78 263e b895 dbbd 797b 44bd
-0.148753 0.09095964 0.09233887 0.089205325 -0.13406724 0.08764542 -0.11112754 -0.101428926
0.07864196 -0.080900826 0.02886545 -0.14385974 -0.16236305 -0.10254299 -0.057975568 -0.12032816
0.037493084 -0.16758235 -0.047288034 -0.12461045 0.094240725 -0.058396507 -0.14084916 -0.06571905
-0.059338287 -0.12181418 0.001634695 0.023918586 0.08192742 0.19055969 -0.06925579 0.020896593
-0.09571913 0.003015141 0.057811547 -0.039079733 0.05366563 -0.077114336 -0.17918561 -0.020761818
-0.114336535 -0.04857946 0.057458013 -0.031410314 -0.02555745 0.1621827 0.115096755 0.08411617
0.18033978 0.10504435 -0.042190954 -0.12731208 0.00666408 -0.1359123 -0.05633018 0.07996963
0.10088257 -0.033492852 0.15335542 0.032901876 0.124356106 0.16257067 -0.10721916 -0.047969315

sub_net.layers.8.weight f4 [64, 64]
00000000: aaf6 823d 9c47 67bd 2c60 5fbd 259e d4bd
00000010: 609f cb3c 8c7a 8cbd 2e84 bcbd 5802 e23c
00000020: 9ce7 eb3c 148b dcbd 6430 f83d b0ad 99bc
00000030: 44d9 4fbd 5ef7 873d 085d d63d 4832 5fbd
00000040: 995b 86bd 2421 ffbd 7aec a43d f46e f5bd
00000050: 6946 e5bb 3820 4cbb 829f e2bd 987a c13c
00000060: 5485 063d 64e8 f93d 2eab cf3d 0ecc 6bbd
00000070: 4dd6 e9bd 38ef d73c c293 943d 202d 37bc
00000080: 385c 54bd 3f20 cabc e0e7 a5bd 58fe b33d
00000090: 632b a23c fcf6 1f3d 6887 0f3d b8e4 9e3c
000000a0: 7895 83bc da58 99bd 04d4 27bc 9793 15bc
000000b0: 606a 28bd 1bca 55bd aa0c df3b ae7c bcbd
000000c0: 54e6 1b3d 1e04 9d3d 28d0 f8bd 4417 ed3d
000000d0: 30cb 21bd 6555 973d 7d5c 5b3d 541d dbbd
000000e0: 4bc8 b63c 7c1c a53d abe1 91bd 57a2 4e3d
000000f0: 72ca 413d f6cf ac3c 00f3 2dbc 7d41 06be
00000100: 58be e6bc aa9f 983c d6d3 ffbd 8d2e 10bc
00000110: d08a 1abc 4f22 23bc dae6 d73d 18f4 e63c
00000120: 0799 033c 3e05 9b3d f80a f1bd e4df 0d3d
00000130: e0ea b5bd 44ff b53c 6ed7 81bd 980e 8fbc
00000140: 07c5 313d 8411 353d cc1e 18bd 48e5 c53d
00000150: 9091 63bd c414 0a3d 4662 8cbd 908c d7bc
00000160: 4a57 fbbd 98e7 a5bc 8c19 513d 525f f63c
00000170: 8062 f1bd 1a76 393d 30e8 e13d 4964 13bb
00000180: 4449 69bd 025f b1bd 8a9d 1ebe a813 c93d
00000190: 4a73 bd3c 95c7 0cbe c0d5 36bb 4ce9 663d
000001a0: 20c5 1ebd e8df e1bd 86f2 c3bd d05d 0bbe
000001b0: 2863 92bc fede 353d 8079 183b 1c69 f2ba
000001c0: 1e52 96bc 54b0 e3bd 2aa5 983d 74f1 b03d
000001d0: a254 453d 1c95 7bbd 00d0 623b 4111 04be
000001e0: fc48 203d 908d abbd 4a1e 493b 3926 533d
000001f0: 3083 38bc b9ea 88bd 5050 983d 681f 093d
00000200: 5038 f9ba 9c53 9bbd d26a 063e 2a36 613d
00000210: 74ba e93d c5f9 8c3d 2944 c0bd 0a3f 5dbd
00000220: 1b7f ed3d 49dd 033d 391f b93e 16e6 85bd
00000230: 968d 513c a517 0abd 457f 083e 383c d33d
00000240: 90ed 07be 671d 7fbd 9116 ccbe ebbf e9bd
00000250: 2e3e 38be 37d5 383f 8663 25bd 6e11 a3bd
00000260: b3c1 443c 44b5 9c3d e474 11bf 513b c9bd
00000270: b965 9b3e d453 f2be 40ec f5bd 9c21 e2be
00000280: 4af6 77bd 7051 70be c544 10bf de2a be3c
00000290: c23d ff3c 66c7 28be 9ce3 093f 810e 39be
000002a0: c82a 103e b4b4 cabc 7b17 263e 6b68 09be
000002b0: 0007 92bc 8a1e 07bf ceb2 b4be 53b4 35be
000002c0: 3213 c7be c22c 87be b0aa c43c 9f1a 4ebc
000002d0: 8912 64be 0229 ad3e f082 3d3e 234e 0a3f
000002e0: 20f5 0d3e 236f b2bd 5e21 2a3f 228d e7bd
000002f0: af2f 703d cc1d 09bf 4a25 e8bd 4d00 48be
00000300: bbc1 dd3d b73a 33be 3512 ef3d 0ad2 eebd
00000310: 568b f43d f1da c2be 5848 713d 0c5a 07be
00000320: 50df e73d 6d8e e93d 9b70 09bd 3e7b 87bd
00000330: b7bc 5fbd a280 3b3d badb 303c 7e39 f93c
00000340: 9b73 f03d 167c 75bd 6409 853e bc27 923b
00000350: 3f3a e2bd 7c0b 79be 1986 3cbd 333e c5bc
00000360: 485b e1be 035a 1f3d 71b9 da3e a726 45be
00000370: 7eed adbd eb32 543d 9040 ccbc 9d91 943e
00000380: 404e 973c 72a5 863c 8fbe 0f3e ba58 dcbd
00000390: 8ed5 89bd b0ea 853e a552 83be ddbc f7bd
000003a0: 7de4 14bc 0d46 c13c aed2 bbbe 8731 2dbe
000003b0: 6377 6ebd c6f5 1c3e f198 56be fa9e b9be
000003c0: 9b81 983e bac8 b93d 1d2a ac3d cdb4 fbbd
000003d0: 34aa e2bd cc6f 01bf d0db 543e a3fa c33e
000003e0: ed76 a9bd 8015 a1bc 7015 78bc 8717 d1be
000003f0: 3224 69bd f1f1 8abe 34c3 843d e2ec 813d
0.06394704 -0.056464776 -0.054535076 -0.10381726 0.02485627 -0.068593115 -0.09204899 0.027589008
0.028796963 -0.107687145 0.12118605 -0.018759578 -0.05074431 0.066389784 0.10466963 -0.05449131
-0.065604396 -0.12457493 0.08052917 -0.11984053 -0.006996919 -0.0031147134 -0.1106558 0.023618028
0.032841995 0.12202528 0.10140072 -0.05756765 -0.11417828 0.026359186 0.07254745 -0.011180192
-0.05184576 -0.02467358 -0.08100867 0.087887466 0.019796079 0.039053902 0.035041243 0.019396171
-0.016062483 -0.0748765 -0.01024342 -0.009129426 -0.041117072 -0.052194696 0.0068069296 -0.09203468
0.038061455 0.07666801 -0.12149078 0.11576703 -0.039500415 0.073893346 0.053555 -0.10698953
0.022312304 0.080620736 -0.07123121 0.050447788 0.047312208 0.021095257 -0.010617018 -0.1311092
-0.028166935 0.018630821 -0.124915764 -0.008800161 -0.00943251 -0.00995691 0.10542078 0.028192565
0.00803209 0.07569359 -0.1176967 0.034637347 -0.088826895 0.022216447 -0.06339918 -0.017463014
0.04340079 0.044206157 -0.037138745 0.096628726 -0.05555874 0.03371121 -0.06854682 -0.026312143
-0.122725084 -0.020252034 0.051049754 0.03007475 -0.117863655 0.045278646 0.110306144 -0.0022490195
-0.056954637 -0.086606994 -0.15489784 0.09818202 0.023126263 -0.1374801 -0.00278984 0.056374833
-0.03876221 -0.11029035 -0.09567742 -0.13610005 -0.017869547 0.044402115 0.002326578 -0.001849446
-0.018349703 -0.11117616 0.074533775 0.086398035 0.048176415 -0.0614215 0.003460884 -0.12897207
0.039132103 -0.0837661 0.003068822 0.051550124 -0.011261746 -0.06685395 0.074371934 0.033477217
-0.0019013975 -0.075843066 0.13126686 0.054983296 0.11412516 0.06883577 -0.093880005 -0.054015197
0.11596509 0.032193456 0.36156633 -0.06538026 0.012790104 -0.033713955 0.133298 0.1031422
-0.13274217 -0.0622839 -0.39860967 -0.114135586 -0.1799247 0.7220034 -0.040378116 -0.07962309
0.012009072 0.07651761 -0.56818986 -0.09825767 0.30351046 -0.4732958 -0.12007952 -0.44166267
-0.060537614 -0.23468566 -0.56354934 0.0232138 0.031157378 -0.16482314 0.5386293 -0.18071939
0.1407882 -0.02474437 0.16219895 -0.13418739 -0.017825603 -0.52780974 -0.35292667 -0.1774457
-0.38881832 -0.26401335 0.024007171 -0.012579589 -0.22272696 0.3382035 0.1850698 0.5402548
0.13863039 -0.08712604 0.66457164 -0.11306216 0.058639225 -0.5356109 -0.11335237 -0.19531365
0.10827967 -0.17502867 0.116733946 -0.116611555 0.11940639 -0.38057664 0.058906883 -0.13217944
0.1132189 0.11404119 -0.033554655 -0.066153035 -0.054623332 0.04577697 0.010794574 0.030422922
0.117408 -0.05993279 0.25983727 0.004460303 -0.11046266 -0.24320787 -0.046026323 -0.02407751
-0.44014955 0.0389042 0.42719606 -0.19253026 -0.08492564 0.05180637 -0.02493313 0.29017344
0.01846993 0.016436312 0.14037536 -0.10759111 -0.067301854 0.26155615 -0.2564899 -0.1209657
-0.009087679 0.023592973 -0.36684173 -0.16913424 -0.058219325 0.1532813 -0.2095678 -0.36254102
0.2978638 0.09071489 0.0840647 -0.122903444 -0.1106762 -0.50561213 0.20786977 0.38277158
-0.082746364 -0.019663572 -0.01514183 -0.40838262 -0.056919284 -0.27137712 0.064825445 0.0634401

sub_net.layers.8.bias f4 [64]
00000000: 3861 0fbe 3fdf 14be 30f7 753e d316 25be
00000010: fbad 3c3e d85f fc3d bac5 17be b39f 97bc
00000020: 257c 413e 8427 fd3d 8b89 99bd 30e9 1abe
00000030: c676 aa3d 91b2 e7bc 4ce0 3a3e 5c1e fcbd
00000040: 44fc 1abe 0479 a43c e67e 3fbd ee14 95bd
00000050: f4ea 04be b231 81bd b013 7c3d 2ea6 0a3d
00000060: 69b8 cebd c700 943c 87ee d5bd 0892 51bd
00000070: 70d0 cf3d c05c 52bd 2c3e ddbd 2559 e0bd
00000080: 5ede bebc 4a86 d0be 7622 913b b8ed 05be
00000090: 3c49 e73c 245f debd 76bc 3bbe 18ff 54bd
000000a0: 7c7e 073e 6e25 333e 08c6 d6bd ba28 03be
000000b0: e5d3 043e 3e15 b1bd a3ec 043e 8645 14be
000000c0: 4e68 15be f6a0 48be 0aa7 21bd d9f8 d6bd
000000d0: 0311 69bd ed0a b33b fc18 333e fec1 853e
000000e0: a5a4 fb3d 8fb2 e8bd 9b7c 48bd 983b 2ebe
000000f0: 39be 78bd 5570 013e caae 55be 8bb6 1bbe
-0.1400193 -0.14538287 0.24020076 -0.16121988 0.18425743 0.12322968 -0.1482152 -0.018508768
0.18895014 0.12361053 -0.07496937 -0.15128016 0.083234355 -0.02828339 0.18249625 -0.12310478
-0.15135294 0.020077236 -0.04675188 -0.07279383 -0.12980253 -0.06308307 0.061542213 0.033849888
-0.10093767 0.018066777 -0.10445886 -0.051164657 0.10147178 -0.051357985 -0.10802874 -0.10954503
-0.023299392 -0.40727454 0.004429157 -0.13078964 0.028233163 -0.108579904 -0.18333611 -0.05200109
0.13231844 0.17494747 -0.1048699 -0.12808505 0.12971456 -0.0864663 0.12980895 -0.14479646
-0.1459057 -0.19592652 -0.03946594 -0.10496683 -0.05690099 0.005463949 0.1749 0.26124567
0.12287263 -0.11362182 -0.048946958 -0.1701492 -0.060728285 0.12640508 -0.20867458 -0.15206353

sub_net.layers.10.weight f4 [64, 64]
00000000: 9554 273d def6 b9bd 7dcc d43e a7de 89bc
00000010: ce65 df3e f11f f1bd 4aa6 2d3d bc96 41be
00000020: a1d3 a2be 559a 3abe 5f77 01bc 7adf 693d
00000030: d5b3 12bd a673 9c3c 797e 23be 0785 003d
00000040: 5e38 493d 41cb b0bc cac2 3d3d af35 8cbd
00000050: 8bca 7c3d 965f acbb ce97 023f 5e06 053e
00000060: 2756 53be 2aec babd d3d8 c4bd dc9e 6ebd
00000070: 50ce 343d 06d8 233d d7cd f0bc ee8e 4b3c
00000080: 72d6 e23c 13a3 08bf 1105 a7be 1e15 ddbd
00000090: 635b a2bd d319 18bc c349 70bd b1fd 2bbd
000000a0: 552b a9be bdb7 5dbe a46b 043d dba3 4dbe
000000b0: d735 f2bc 9019 ce3e 9b3d 0fbe f48b 4f3d
000000c0: 60c2 c8bd 7487 b4be b569 1a3c 0866 74bd
000000d0: 0558 ddbd db5e 54be efaa 62be da9c 78bd
000000e0: 6d39 033d 54e7 aa3d 555f 823d 12de e1bc
000000f0: e56d e2bd 7056 efbd 3fd1 023e 90be 91bd
00000100: 36c5 15bd 302b ea3c 5c3e 9bbc 6163 47be
00000110: c2c4 2fbd 82cd 60be 750b 0c3e 931d 86bd
00000120: 553c 673e ea1f 98be 4893 10bc 6046 fb3d
00000130: aef6 fd3c 37ee b03d 58e0 42be 21ed dbbd
00000140: 9ae1 b0bc 16b5 25be a1eb 263d 3d37 693d
00000150: 43cf 9bbd 3f20 5bbd c6e0 6bbd 9af5 9dbd
00000160: 50d3 81be a5e9 96be bbd6 6e3d 6b84 49bd
00000170: 6fbe 9ebe 70bd bc3d 9277 393d beab 23bd
00000180: d1e0 093e f52a 52be 4600 52be 8f67 863d
00000190: 3185 91be 75f7 993c 1630 d2be 0d98 65bd
000001a0: 64dd 843d 92f9 f83d 319a 0cbe 3657 19be
000001b0: 5129 d0be 1388 733e 4430 3d3e 61fe fe3d
000001c0: 23c8 4cbd 709d 70be 4504 053d b865 31bd
000001d0: 2781 9c3c 3d6d b5be b938 073e 55ba 5b3e
000001e0: 676c 5bbc cb60 d53d 32ca 173e 52a7 e8bc
000001f0: 787b 47be b1c7 473e 6447 64bd 5da9 57bc
00000200: d409 83bd 4279 6ebd 4f9e 0fbf b196 dbbc
00000210: 1f34 debe 2bf2 9dbc 68cf e3ba d433 d93e
00000220: 0979 2e3e 9c60 713e ba9f 46bd ea95 883d
00000230: bf88 e8bd 1fd7 9c3d eabb 593e b7ae c8bc
00000240: 6c2a b93b 9415 f6bd 04d1 98bd 39bf 0c3e
00000250: b823 c23d 763f 1b3b d36a 0bbf efa3 13bd
00000260: 33d9 a03e 6780 bc3e 0330 48bd fc35 0bbe
00000270: eecc 54bd 92d1 04bd dd75 9a3c 840d 9f3d
00000280: ac18 6cbd abbb 1e3b 147f f23e 09dc 87bc
00000290: 9cd5 b8bc cf07 01bd edfa e4bb eb59 243d
000002a0: 0384 133e a4da a1ba f405 ab3d 8e3c ef3d
000002b0: 4cb3 003c 2a7e e1be e0ee 40be c718 b13d
000002c0: 4620 693e 68b3 553e 4ac1 7d3b 9a8c 803d
000002d0: d17b 9c3c f8d0 de3e 597e 263d 634a 44be
000002e0: dc7c d1bd b0b6 1d3d c6e4 943d fe3a 143e
000002f0: 1099 b83c 8c73 00be 0b37 c93c 9192 8dbc
00000300: 6919 5b3d 0dc1 423d 0977 cabe 0dae e6bd
00000310: 4a0f 55be 83f2 3d3d b4ff 043e f0f2 313c
00000320: 53b6 b9bd ca07 6b3e e7f8 353c 7b0e ea3b
00000330: c9f3 85bd 117e 523d 21e8 753e 05c4 883d
00000340: b0f1 7bbd 2fb4 07be 0631 2ebd 4c40 81bd
00000350: c47a 56bd 4cdd 5cba 0651 8abe 5ab8 57be
00000360: 6f0c cf3d 8bc8 a33e 9839 533d ab6d 8e3d
00000370: 869b b23c b158 5fbd f7a6 88bd 508b 82bc
00000380: d535 14be b998 e3be f57f fe3e 0e51 9dbd
00000390: 98bc 883d 876c 0b3d ecbc b83e 032d 6ebc
000003a0: c940 6bbe 2eb4 803c 2f48 ef3d 2b02 c13d
000003b0: f931 2c3d 4702 4cbe 5d2f eebd 0a2f ab3d
000003c0: 5e8e 583d e071 83be e9b6 dab9 666f a83d
000003d0: da2c 983d 3281 0e3f cf10 a3bd d92d 20be
000003e0: c090 cfbe 989a ad3c d7aa 13be b074 42bd
000003f0: 74a2 06bd ffe2 fbbd 4ba5 803d 416c a8bd
0.040852148 -0.09080289 0.41562262 -0.016829802 0.43632358 -0.117736705 0.042394914 -0.18905157
-0.31802085 -0.18222935 -0.007901995 0.05709789 -0.035816032 0.019098114 -0.15966214 0.031376865
0.04912602 -0.021581294 0.046328343 -0.06846177 0.061716598 -0.005260418 0.51012886 0.1299071
-0.20638333 -0.09127076 -0.096116684 -0.05825697 0.044142067 0.040000938 -0.029395027 0.012424214
0.027690146 -0.5337383 -0.32621053 -0.107950434 -0.07927587 -0.009283501 -0.058664095 -0.041989986
-0.33040872 -0.21652122 0.032329217 -0.20082037 -0.029566688 0.40253878 -0.13988344 0.05067058
-0.09802699 -0.35259593 0.009424617 -0.059667617 -0.10807804 -0.2073931 -0.22135518 -0.06069646
0.032037187 0.083449036 0.063658394 -0.027571712 -0.11056117 -0.116864085 0.12775134 -0.07116425
-0.036565028 0.028585047 -0.018950634 -0.19471504 -0.042912252 -0.21953395 0.13676246 -0.065486096
0.22581609 -0.29711848 -0.008824177 0.12269282 0.031001415 0.08639186 -0.19030893 -0.10738588
-0.02159195 -0.1618236 0.040752057 0.056937445 -0.076078914 -0.05349755 -0.057587408 -0.077128604
-0.2535653 -0.29475132 0.05831025 -0.04919855 -0.31004664 0.0921582 0.045280047 -0.039958708
0.13464667 -0.205242 -0.20507917 0.06562721 -0.2842193 0.018794755 -0.41052312 -0.05605321
0.064875394 0.12156977 -0.13730694 -0.14974675 -0.40656522 0.23782377 0.18475443 0.12450863
-0.049995553 -0.23497558 0.032474775 -0.043309897 0.019104553 -0.35434905 0.13205232 0.21457799
-0.013392544 0.104188524 0.14823225 -0.028400097 -0.19480693 0.1950977 -0.055732146 -0.013162938
-0.06398359 -0.05822111 -0.56100935 -0.026805254 -0.4339914 -0.019280514 -0.0017380537 0.42422354
0.17038359 0.2357201 -0.04849217 0.06669219 -0.11354207 0.076582186 0.2126309 -0.024497373
0.005650809 -0.120158345 -0.074617416 0.1374482 0.09479469 0.0023688949 -0.54459876 -0.03604501
0.3141571 0.36816713 -0.048873913 -0.13594812 -0.05195325 -0.032426424 0.01885503 0.0776625
-0.057640716 0.0024220746 0.47362578 -0.016584413 -0.022562794 -0.031501587 -0.0069879205 0.040124815
0.14405827 -0.0012348485 0.08350745 0.11681472 0.007855248 -0.44041568 -0.18841124 0.08647304
0.22766218 0.2086922 0.0038719946 0.062768176 0.019102009 0.43518806 0.04064784 -0.19169001
-0.10228893 0.038504303 0.072701976 0.14475629 0.022533923 -0.12544078 0.02456238 -0.017281802
0.05349103 0.04754739 -0.39543942 -0.11263666 -0.20806614 0.046373855 0.12988168 0.0108611435
-0.09067979 0.2295219 0.011106706 0.0071428395 -0.06540639 0.051389758 0.24014331 0.06678013
-0.061509788 -0.13252328 -0.04252722 -0.06311092 -0.052363172 -0.000842531 -0.2701494 -0.21066418
0.101097934 0.3198894 0.051568598 0.06954511 0.021802675 -0.054527942 -0.06672471 -0.01593557
-0.1447366 -0.44452456 0.49706998 -0.076814756 0.066765964 0.034039047 0.36081636 -0.014537099
-0.22973932 0.015710916 0.1168369 0.09424242 0.042039845 -0.19922744 -0.116301276 0.08358581
0.052870147 -0.25672817 -0.0004171648 0.082243726 0.0743043 0.55665886 -0.0796219 -0.1564249
-0.40540123 0.02119188 -0.14420639 -0.047474563 -0.03286977 -0.122991554 0.06281527 -0.08223773

sub_net.layers.10.bias f4 [64]
00000000: e593 ac3e 9386 9bbc 6999 45bd a5aa 633e
00000010: 78a9 66be 206f f3bb a8a6 053e 5740 5c3e
00000020: 480c 00bd 923a 43bc 0d49 833e 23a7 45be
00000030: c4a4 6dbe b800 af3d 608a b73a daa4 053d
00000040: 6b15 a6bd 0ab5 373d c2e8 db3d a3ce 343c
00000050: dee0 aebd 4340 92bd 12aa 153d a968 a93d
00000060: c44d d33e 3c10 923e 06f2 b23e 509c 65be
00000070: 7091 51be b918 203d b2b7 0fbe af6e f43d
00000080: 96da 8f3e 31e7 a23e e6f8 593c 3c37 7f3d
00000090: 16d6 4b3e 80f6 b83d a476 72bc 415f a73d
000000a0: db13 e0be 4789 a03b 1c25 833e ef16 dcbd
000000b0: 88ff 7abe e171 243d d143 e93d daec e63d
000000c0: ddf7 88be 7128 5f3d 757b edbd d9a7 3ebe
000000d0: 588e b73d e1df debd f1e9 77be 8156 373e
000000e0: 3fb9 66be 40aa 5b3e cc4c 693b abb6 0e3e
000000f0: c74d fbbd c427 b8bc a46d bc3c 87f7 a93e
0.33706585 -0.018985068 -0.048242006 0.22233064 -0.22525585 -0.0074290186 0.13051856 0.21508919
-0.031261712 -0.01191582 0.2564167 -0.19302039 -0.23207384 0.08545059 0.0014003031 0.032627918
-0.08109554 0.044850387 0.107377544 0.011035594 -0.08538984 -0.07141163 0.036539145 0.082719155
0.41270268 0.2852801 0.34950274 -0.2242291 -0.20465636 0.039086077 -0.14034918 0.11935174
0.28096455 0.3181701 0.013303971 0.062308535 0.19905886 0.09031391 -0.014798794 0.08172465
-0.4376515 0.0048991772 0.2561425 -0.10746562 -0.2451154 0.040147666 0.11389888 0.112756446
-0.26751605 0.054481927 -0.11595813 -0.18618716 0.08962697 -0.10882545 -0.24210335 0.17904092
-0.22531603 0.21451664 0.0035598753 0.1393687 -0.12270694 -0.0224799 0.0230015 0.3319666
