model/combine_model.pt (torch, 142817 bytes, 15 tensors)

sub_net.layers.0.weight f4 [64, 16]
000000 cc 22 ae 3e 03 b9 4c 3e ad dc b3 bc 55 07 79 3e
       0.34010923 0.19992451 -0.021955812 0.24319203
000010 74 0a 24 3e 96 f7 38 bd bb 2d 74 3e eb 3c a6 bd
       0.16019613 -0.04515799 0.2384557 -0.08117088
000020 65 da a6 bc a9 14 26 be 3e 8e 2e bf 1b f4 25 bf
       -0.02036781 -0.16218819 -0.68185794 -0.648256
000030 32 1a ab bd 36 f1 8c bd 84 4d b8 3e 71 6c 95 be
       -0.08354606 -0.06881945 0.3599664 -0.29184297
000040 65 d2 0e bf e6 26 ec 3c 84 53 2e 3e 73 0e 6a 3e
       -0.55789787 0.028827142 0.17024046 0.22857074
000050 72 8f 98 3d be e6 17 be 68 c3 d6 3a c4 af 91 be
       0.07449235 -0.14834115 0.001638514 -0.2845441
000060 09 cd 04 be 97 94 2a 3d 23 66 c5 3e b7 38 37 be
       -0.1296884 0.041645613 0.38554487 -0.17892729
000070 60 01 1f 3e 17 f6 c2 3d a1 fe 61 3d 4a 7f 74 3c
       0.15527868 0.09519594 0.055174474 0.014922926
000080 a0 3c 12 3e 61 72 ef 3d 99 8c 52 be 75 25 4c 3e
       0.14280939 0.11691738 -0.20561446 0.19936164
000090 d3 06 44 be ab 45 8d be 1b 98 8d be d4 c2 6a 3e
       -0.19143228 -0.27592215 -0.2765511 0.22925884
0000a0 75 fa da 3e a1 3f 4f be 8d 92 18 be a2 c8 49 bd
       0.4276921 -0.20239116 -0.14899655 -0.049263604
0000b0 2a 87 b1 3d 81 9d 91 be 56 ef 2b 3c 50 de d6 3d
       0.086683586 -0.28440478 0.010494074 0.104916215
0000c0 f9 cc c2 3e 66 92 9d bc b8 fa f3 bb 29 aa 2d 3e
       0.38047007 -0.019234847 -0.0074456595 0.16959442
0000d0 31 bf 8c bd 1f 06 55 be 8b 05 98 bd 59 16 87 bd
       -0.06872404 -0.20803116 -0.07422932 -0.06596059
0000e0 94 ab 46 3e 59 9d 96 3e 1d ed 13 3e c2 d9 64 be
       0.1940139 0.29416922 0.1444592 -0.22348693
0000f0 83 9d 91 3d bd 35 a1 3e b9 ba a3 be 05 a0 24 3e
       0.07110121 0.31486312 -0.31978396 0.16076668
000100 20 e0 e1 bc cd 0a a9 be cf 4e 21 bb 4a 23 b6 3e
       -0.027572691 -0.33016053 -0.0024613624 0.35573798
000110 f7 70 32 3e 56 5c bc 3d 22 9a 61 3d e8 02 de 3d
       0.17425905 0.09197299 0.055078633 0.10840398
000120 5d 98 a6 be d0 4c bf 3e 3e 53 40 bc 43 8b b0 3e
       -0.3253812 0.3736329 -0.0117385965 0.34481248
000130 9d 94 6c be 77 f9 48 be 3a 4d f8 be 07 93 76 3d
       -0.23103566 -0.19626413 -0.4849642 0.06019881
000140 f2 05 d2 3e 44 23 6e be ad 08 ca 3d 0a 31 0d 3c
       0.4102016 -0.2325564 0.09864936 0.008617649
000150 25 f2 2a be e3 92 27 bf de d6 03 be 9d d7 99 3c
       -0.16693933 -0.65458506 -0.12874934 0.01877957
000160 dc c3 34 be cc 86 f2 3e fd 1c 7b 3e e3 d4 bb bd
       -0.1765284 0.47368467 0.24522777 -0.09171464
000170 78 61 99 be 04 64 d1 be 03 6a 4a be 05 ac 0a bf
       -0.29957175 -0.40896618 -0.19767003 -0.5416873
000180 83 87 52 3e 80 3e e1 be e5 23 21 bf f5 a9 a3 3d
       0.20559506 -0.43992996 -0.62945396 0.07991401
000190 4b d8 a0 bc 54 94 b0 3e b8 86 da bd d3 fa 67 be
       -0.019634387 0.34488165 -0.10670227 -0.22654276
0001a0 8f 03 7d be 50 32 1f be cb a8 1f be cb da 61 be
       -0.24708389 -0.15546536 -0.15591733 -0.22056119
0001b0 de 57 86 be 9d 0d 6e 3e 4a f6 a3 be 29 ba 61 3e
       -0.26238912 0.2324738 -0.3202384 0.2204367
0001c0 6e f5 93 3e 9e 55 9e be 3e fe 32 3d 8f 55 b6 be
       0.28898185 -0.30924696 0.043699495 -0.3561215
0001d0 c3 33 f7 bd b7 82 95 be 62 6b a0 3e 79 a1 15 be
       -0.1207042 -0.2920129 0.31331927 -0.14612378
0001e0 81 d6 23 be 1a 88 68 be 8c 16 12 3e f3 6b 7c 3d
       -0.15999795 -0.22708169 0.14266413 0.061626386
0001f0 b9 40 5a 3d 08 79 ff 3d 75 cc e0 be 9e d1 10 bf
       0.05328438 0.12474257 -0.43905988 -0.5656985
000200 bf 63 90 3e 03 43 81 be 98 06 87 3e 9e 95 e8 3d
       0.282011 -0.25246438 0.26372218 0.11356662
000210 a7 95 5e 3d 2c 95 72 3e b7 10 38 bd db a9 b3 bd
       0.05434194 0.23689717 -0.044937816 -0.08772632
000220 25 84 60 3e 53 8f 34 3e 1b 4f 2e 3e 45 54 75 bd
       0.21925409 0.17632799 0.17022364 -0.05989482
000230 c1 b4 c4 ba fd 2c ba bd 36 48 9b bd ee 61 73 be
       -0.0015007482 -0.09090612 -0.075821325 -0.23767826
000240 fc ce aa 3e 2c 35 90 3d 34 2d 06 bf 02 e0 90 3e
       0.33361042 0.07041392 -0.52412724 0.28295904
000250 2c 0f 67 be 8a 41 e0 3e 34 77 d6 3c 88 6f 85 bd
       -0.22564381 0.43800002 0.026179887 -0.065154135
000260 9e 32 8e be 99 23 38 3d ab f2 5e bd 08 45 c6 be
       -0.27772993 0.044955824 -0.054430645 -0.38724542
000270 5c fa fc be 59 b3 bd be ef b0 a0 bd c3 81 0a be
       -0.4940976 -0.37050894 -0.078462474 -0.13526063
000280 b3 45 7f be 14 b6 07 3e fc 9e 3e 3e 31 bc 48 be
       -0.24928932 0.13253051 0.18615335 -0.1960304
000290 76 63 c2 be 79 84 87 3e 23 b8 c8 3a e7 66 b2 be
       -0.37966508 0.26468256 0.0015313666 -0.34844133
0002a0 6c ca 9c 3e 26 0c e5 be bb ca d5 be 26 ef e4 3d
       0.30623186 -0.4473583 -0.41756234 0.111784264
0002b0 ce 5c 07 3e 07 fa bb 3e b8 8e e6 3e f3 d6 3c 3e
       0.13218996 0.36714193 0.4503076 0.18441372
0002c0 88 d1 0a be ea ba ff 3c 8d c9 84 be ff f2 d6 3e
       -0.13556492 0.031217057 -0.2593502 0.41982266
0002d0 54 f7 ad be 83 87 73 3e 5a 09 84 3e fb 94 f1 3c
       -0.3397776 0.23782162 0.25788385 0.029489985
0002e0 12 65 d5 3d c5 f8 b2 bd 25 0d 3b be 04 fe c0 3e
       0.10419668 -0.08738855 -0.18266733 0.376938
0002f0 a3 dd 94 be d4 4c a8 be 1d 71 06 be 76 7b ea be
       -0.29075345 -0.32871115 -0.13129087 -0.45797318
000300 60 3d c9 3e eb 45 1a be 7b 10 43 be de e2 02 3b
       0.39304638 -0.15065734 -0.19049256 0.001997165
000310 2c 41 a6 be ce 0d 01 3d f1 60 78 3e 4f 6c 20 be
       -0.32471597 0.031507306 0.2425573 -0.15666316
000320 28 7b ed be 69 9f 5f bd ad da 03 3d b8 e2 d9 be
       -0.46383023 -0.054595385 0.032190967 -0.42555785
000330 5b e4 cd be a4 6e 3a 3e dc 60 8a be 2a 46 be 3d
       -0.40213284 0.18206269 -0.27027023 0.092907265
000340 a7 6f 57 be 84 58 0b 3f 02 14 b5 be d6 cc c5 bd
       -0.21038686 0.5443194 -0.35366827 -0.0965821
000350 a6 63 cc be 99 46 99 bc 0b d8 62 bd 70 d2 02 3e
       -0.39919776 -0.018710421 -0.055381816 0.12775588
000360 cb 2e f9 be 19 ca a1 3d 46 ef 13 be 4c 47 0c 3d
       -0.48668513 0.07899875 -0.14446744 0.03424768
000370 35 53 02 3d 5d 10 95 3e 90 c5 a9 3e fa 4f 5f 3d
       0.031817634 0.29114047 0.3315854 0.05451963
000380 b2 b3 b3 be 4d c6 20 3e 44 de 1a be ea 3a 53 be
       -0.35098034 0.15700646 -0.1512385 -0.20627943
000390 64 1b cb 3c 67 51 f3 be 85 87 a1 3e c3 dc d7 ba
       0.024793334 -0.47523043 0.31548706 -0.001646899
0003a0 ee 67 94 be 3e 17 50 3e c9 3f 43 be 7b 0f c7 be
       -0.28985542 0.20321366 -0.19067301 -0.38878998
0003b0 8d eb ee 3d 36 b9 af be 86 34 ab be b2 88 16 3e
       0.116660215 -0.34320992 -0.3343851 0.14700583
0003c0 41 dd 5a be da cc 65 3e cb a7 97 bd 9d 21 b3 bd
       -0.21373464 0.22441426 -0.07405051 -0.087466456
0003d0 15 60 7d 3e a1 da 91 3e 44 a4 9b be 17 e4 e2 be
       0.24743684 0.28487113 -0.30398762 -0.44314644
0003e0 bc f5 bf 3c 3f 07 03 be be 07 84 be 89 05 3c be
       0.023432605 -0.12795733 -0.25787157 -0.18361486
0003f0 aa 14 a5 3e 99 e2 21 bf 44 35 50 be bb fe 24 bf
       0.32242328 -0.63236386 -0.20332819 -0.6445119

sub_net.layers.0.bias f4 [64]
000000 28 e4 a9 be 42 45 da 3d 79 63 74 3d 32 f6 3b be
       -0.33181882 0.10657741 0.059665177 -0.18355635
000010 ad 94 88 be 17 a4 36 3d 40 9d 0c 3e eb 8f e9 3d
       -0.2667593 0.044590082 0.13731861 0.11404403
000020 c4 36 db bd 5f 7b 9e bd bc a0 07 3e f1 96 d2 bd
       -0.10703805 -0.07738375 0.13244909 -0.10282696
000030 5d 49 5d 3e 1e 97 5d be 4c 95 a1 3e 9d 45 bb 3c
       0.21610017 -0.21639678 0.31559217 0.022860343
000040 32 9c 8e 3d cf be 9b bd 9c ae 88 be 17 35 74 3e
       0.06963386 -0.07604753 -0.26695716 0.23848377
000050 47 75 a1 bd b2 08 82 3c 39 2c 79 3e 7c 3e 29 3e
       -0.07883697 0.015873287 0.24333276 0.16527742
000060 d9 da 76 3c 0a 88 b5 3d db 63 74 3d 48 f7 c9 3d
       0.015066826 0.08863838 0.059665542 0.09861618
000070 22 5d fe bd c7 e0 7a be a7 7c 39 be 3b 7e ee bc
       -0.124201074 -0.24499808 -0.18113957 -0.029112926
000080 1c 97 93 3e a0 54 09 be c0 4d 0a bd 35 7e 87 bd
       0.28826225 -0.13411188 -0.033765554 -0.06615869
000090 aa 2b 57 bd ac 1e 90 3d 76 d1 1f be 91 ee 9e 3c
       -0.052531876 0.070371 -0.15607247 0.019400867
0000a0 69 4e 92 be 92 fa 18 3d 0d 69 05 3e 14 6a a3 3d
       -0.28575447 0.037348337 0.13028355 0.07979217
0000b0 af 1f d7 be 46 4f a1 3c 65 ae 9e be d9 51 81 bd
       -0.4201636 0.01969112 -0.30992427 -0.06314439
0000c0 03 36 1a 3e 52 d5 73 bd d5 76 95 3d 48 54 ac be
       0.15059666 -0.05952961 0.07298056 -0.33658051
0000d0 1e 0b a8 be 98 ac cc 3d 71 e5 26 3e f4 35 23 be
       -0.32820982 0.09993857 0.16298462 -0.1593855
0000e0 72 e4 2a be 04 bd b7 3b da 46 68 3c c4 a6 8c bb
       -0.16688707 0.005607249 0.014177049 -0.004292341
0000f0 5e 00 17 be ca 73 99 bd 12 37 25 3e 7a 20 c8 bc
       -0.14746234 -0.07492788 0.16134289 -0.024429549

sub_net.layers.2.weight f4 [64, 64]
000000 01 b2 fb 3d 13 5e 83 3e f5 51 e9 bd 41 49 d7 3d
       0.12289811 0.2565771 -0.11392585 0.10512019
000010 8a 2e 1b 3c 5d 19 c9 3d 84 12 88 3e 6c 9f 94 be
       0.009471545 0.09819291 0.26576626 -0.2902788
000020 94 05 83 bd 6c 15 93 3e 9d f9 16 be 42 2a 11 bf
       -0.06397548 0.2872728 -0.14743657 -0.56705105
000030 3c aa a4 3e 50 57 7d be a5 64 42 bf 82 36 38 3d
       0.3216113 -0.24740338 -0.7593482 0.044973858
000040 34 93 11 be 54 7f a0 be da 80 f7 bb 38 3d 42 3e
       -0.1421631 -0.31347144 -0.007553202 0.18968666
000050 ac 59 06 3e 5a 88 e7 be 4e 9c 87 3d a0 66 4f 3c
       0.13120145 -0.45221215 0.0662161 0.012658745
000060 20 07 42 be 07 c9 65 be 6f 0a 33 be b3 ae 77 3d
       -0.1894803 -0.22439967 -0.17484449 0.06046934
000070 96 64 33 3e 7d 15 bc 3d 94 83 d9 be e5 e5 c6 bd
       0.17518839 0.09183786 -0.424832 -0.09711818
000080 6e ba 58 bd be da 0c be 8d a5 bd 3e f3 dd 75 3e
       -0.05291217 -0.13755319 0.37040368 0.24010448
000090 66 3f d8 3e e1 12 9a be a4 02 12 3d a6 18 74 be
       0.4223587 -0.30092528 0.03564705 -0.23837528
0000a0 24 57 4e be 68 3f 4d be 5c 10 d9 3d b3 4e f2 bc
       -0.20150429 -0.20043719 0.105988234 -0.029578542
0000b0 59 f2 e2 3d 52 5b 05 be 0d 90 cd be 3f be 90 be
       0.110813804 -0.13023117 -0.40148965 -0.28270146
0000c0 27 1d 85 be b6 bd 4b 3e fa fc 94 be 12 cc 40 3c
       -0.25998804 0.19896588 -0.29099256 0.011767404
0000d0 90 bc 98 be 3f 01 40 3d 8e 54 cc bd c5 a0 1b be
       -0.29831362 0.04687619 -0.09977065 -0.15198047
0000e0 bc 94 eb 3e 81 f5 3f be 23 9a 7f be 7c 6d 44 bc
       0.46011913 -0.18745996 -0.24961142 -0.011988994
0000f0 5f 8c c0 bd 44 53 3a 3e 63 c1 e9 3e d9 cf 62 be
       -0.09401774 0.18195826 0.45655355 -0.221496
000100 53 98 39 3d d1 5f 80 bd 1f 70 a7 bd 80 0d 02 be
       0.045311283 -0.062682755 -0.08175682 -0.12700462
000110 87 45 99 bd 62 08 64 bd ba 55 e3 3c 9f 4b 4f bd
       -0.074839644 -0.055672057 0.027750839 -0.050609227
000120 32 67 33 be 31 ae 18 3d 10 68 90 bc 57 bc 4a 3c
       -0.17519835 0.037275497 -0.017627746 0.012374005
000130 ff 1a 43 bb ef c3 02 be 37 29 40 bd 89 09 67 bc
       -0.002977073 -0.12770055 -0.046914306 -0.014101394
000140 28 dd 72 bd 8d 25 e1 bd ce 07 d9 bc 48 63 16 be
       -0.059292942 -0.1099349 -0.02649298 -0.1468631
000150 51 8d 46 bc 3c 2e 8b 3d 0c 7f 5e 3d 5c f2 1e be
       -0.012118653 0.06795928 0.05432038 -0.1552214
000160 3d b0 1d be ed 3b 12 be cd 5d 11 be e3 53 7d bd
       -0.15399261 -0.14280672 -0.14195938 -0.06184758
000170 c1 51 02 be 82 2f c5 bd 27 6f b4 38 6c d4 3a bd
       -0.12726499 -0.09628202 8.6037726e-05 -0.045612738
000180 c8 8b dd bd 38 54 e4 bd 5b d0 f7 bd 46 c0 cf 3c
       -0.10817677 -0.11148876 -0.121002875 0.025360238
000190 13 e9 33 bd 8b ff 8e bd c7 dd 23 be 15 d2 d2 3c
       -0.04392345 -0.06982335 -0.1600257 0.02573494
0001a0 76 33 0a bd 41 f0 bb bd ff 92 6f bd 03 51 14 be
       -0.033740483 -0.09176684 -0.058489796 -0.14484029
0001b0 64 ea 82 bd e5 85 62 bd ad 58 13 3d 13 f5 8e bd
       -0.06392363 -0.055303473 0.03597324 -0.06980338
0001c0 6d 05 67 be 87 d8 4e 3d 47 68 dd 3d e7 89 60 bd
       -0.22560664 0.050499465 0.10810905 -0.054819014
0001d0 e4 67 ce bc 0d 55 ad 3d 46 45 ba 3c 16 9d 49 bd
       -0.025196023 0.08463488 0.02273811 -0.049222074
0001e0 bc 7b 9a 3d 00 36 50 bd 42 1d f5 bd 41 46 d4 bd
       0.07543132 -0.05083275 -0.11968471 -0.10364962
0001f0 e5 a2 23 be 66 3d 12 3b fa 83 9c bd 2a 50 ec bd
       -0.15980108 0.0022314428 -0.0764236 -0.115387276
000200 0f a2 3c 3e 4b b2 0d 3e c2 a8 50 3d e3 af ee be
       0.18421195 0.13837545 0.05094219 -0.46618566
000210 22 a0 97 3d e7 e9 96 3e 4c 6c 81 3e a4 f3 7d 3e
       0.0740359 0.29475328 0.25277936 0.24799973
000220 0d 58 65 be f5 ff 13 3f df f2 3b 3c f2 2e b6 be
       -0.2239687 0.57812434 0.011471479 -0.3558269
000230 c4 d3 ed 3d 07 d3 d3 be b8 7e 5e 3e 1e 65 31 3e
       0.11612657 -0.4137194 0.21728027 0.1732373
000240 72 e9 88 be 8e 16 05 be 54 d4 10 bc e2 64 33 3e
       -0.26740605 -0.12996885 -0.0088396855 0.17518952
000250 3b da 41 3e 23 c4 89 3d 92 84 93 3e c8 f8 82 3d
       0.18930905 0.06726863 0.2881208 0.063951075
000260 38 1d bc bd 02 a7 d9 bd 39 81 73 3d 27 c2 f1 3d
       -0.091852605 -0.10627557 0.05944941 0.1180461
000270 89 8c fe bb da 04 d1 bd b3 24 ef bd 52 51 15 3e
       -0.007768218 -0.102060035 -0.11676922 0.14581802
000280 21 99 89 3e ed 27 ec 3d bf 12 c0 3e 40 fb e4 3d
       0.2687464 0.11531053 0.37514302 0.11180735
000290 96 0b 28 3f 48 c5 60 3e 8c 1a 1e be 7c 8a d9 3c
       0.6564268 0.21950257 -0.15439814 0.026555292
0002a0 1c e0 d3 be fd f8 5b 3e cf 46 b2 3d 3d 64 90 3d
       -0.4138192 0.214817 0.08704912 0.07050369
0002b0 30 7c fe be e4 cf 59 3e d9 24 10 be 4c df 55 be
       -0.49704123 0.2127071 -0.14076556 -0.20885962
0002c0 d8 c1 b0 3d 95 de 28 bd 41 7e 7b 3e c8 51 99 3e
       0.08630723 -0.041227896 0.24559881 0.29945207
0002d0 37 85 a3 3c 46 82 71 3e 6a 8d 24 3e e9 fa 5e be
       0.019960983 0.23584852 0.1606957 -0.21775402
0002e0 c5 cc 97 3e 2b bd 46 be b3 ed b2 be 1a 5d 17 bf
       0.29648414 -0.194081 -0.34946975 -0.59126437
0002f0 da 24 c4 be bc 63 b1 be d7 bd ba 3c 6a 72 3a 3e
       -0.38309366 -0.34646404 0.0227956 0.18207708
000300 ea 35 cc 3b b1 8a 10 be ce 0d 55 3e ba 0b 7e 3d
       0.006232013 -0.14115407 0.20806047 0.062022902
000310 1f 5d 45 bd 02 b6 05 bf 79 33 f8 bd b7 29 17 bf
       -0.04818451 -0.52230847 -0.12119193 -0.59048027
000320 b8 ee 05 3e fb da 82 be 2c f0 b7 bd 08 c8 d9 be
       0.13079345 -0.25557694 -0.08981356 -0.42535424
000330 77 33 51 bc 27 21 d6 bc 9a 49 f8 be 21 67 8d 3e
       -0.012768618 -0.026138855 -0.48493654 0.27617744
000340 75 59 c2 bc d8 ac 02 3f 57 b7 38 be 6c 8e ac be
       -0.023724297 0.5104499 -0.18038689 -0.3370241
000350 59 e4 25 3e b6 95 08 bf 97 4b a4 3d 53 ae 71 3d
       0.16200389 -0.5335344 0.0802223 0.05900414
000360 59 fd 15 be d9 60 84 3d 20 76 86 be 54 8a 13 bf
       -0.14647426 0.06463785 -0.26261997 -0.57632947
000370 de 0c 8d be 5c bd b8 3d a2 5a 2d bf d4 9b 9c 3d
       -0.2754888 0.090204924 -0.6771642 0.07646909
000380 0f ee 72 be d6 07 b1 bc 7e f7 54 be ea 83 52 be
       -0.23723625 -0.021610182 -0.20797536 -0.20558134
000390 8a 4a 4f bf 72 2d 31 3e 16 21 2b 3e be 22 54 3e
       -0.8097311 0.17302492 0.1671184 0.20716378
0003a0 17 32 01 3d b0 19 1f be 04 0c a0 3e e7 a4 0f bf
       0.03154191 -0.15537143 0.31259167 -0.56110996
0003b0 2c 67 0f 3e ec 15 7d 3e 59 77 8c 3e cc 91 d6 3c
       0.140042 0.24715394 0.27434805 0.026192568
0003c0 db 96 aa bd 07 1f 83 bd e9 65 aa be 91 5d 2f 3d
       -0.08329555 -0.06402402 -0.33280876 0.04281384
0003d0 dd 67 6f 3e 19 56 cc 3e 2f f0 84 be 53 5a 5d 3e
       0.23379464 0.39909437 -0.25964496 0.21616487
0003e0 1f c1 2b be 66 ad 4f be a8 26 78 bf d0 ef 73 bd
       -0.16772889 -0.2028099 -0.96933985 -0.059554875
0003f0 9f 15 ac 3d 52 69 15 bf 8a 41 2a 3e a7 b6 a4 3c
       0.084025614 -0.5836383 0.16626564 0.020106627

sub_net.layers.2.bias f4 [64]
000000 e1 3e 38 3d ed 90 df 3c b5 b4 aa bd 66 3f 3e 3d
       0.04498184 0.027290786 -0.083352484 0.04644718
000010 3a 91 42 3c aa a5 28 bc 33 b8 12 3d a8 6d dc bd
       0.011875445 -0.010293404 0.035820197 -0.10763103
000020 eb dc 25 3b dc 33 c3 bd 9f 0a c3 3d 33 a8 22 bd
       0.002530868 -0.09531376 0.0952351 -0.03971119
000030 f3 38 fe bc 51 54 77 bd 1a 9b b4 3c ce ed 2f be
       -0.031033015 -0.060383145 0.022046614 -0.17180559
000040 43 a7 67 b9 5c 10 8d 3d 7a a1 5a bc 16 4d 4c 3c
       -0.00022092187 0.06887886 -0.013344163 0.012469551
000050 41 c7 c4 bc 4e e0 cf 3c bf 29 00 bd af c2 77 3b
       -0.024020793 0.025375511 -0.031289812 0.003780525
000060 5a e7 ac 3c 53 fd 29 3c 77 31 05 be 3d d6 1b 3d
       0.02110641 0.010375339 -0.1300715 0.03804611
000070 ed 18 d9 bd 54 80 a3 3c fd a5 10 3d f6 ef b9 3d
       -0.10600457 0.019958653 0.03531455 0.09078972
000080 53 41 00 ba 23 85 30 be d1 a8 c6 3c 0b b9 e3 bd
       -0.00048925466 -0.17238288 0.02425042 -0.111192785
000090 7a e0 d0 bc 51 0e 3a be 8a 31 58 3c 30 cd 4d bd
       -0.025497664 -0.18169524 0.013195405 -0.05024451
0000a0 ba 9f 16 bd 0a c2 15 3d f7 57 36 be 04 e6 81 3d
       -0.03677342 0.036562003 -0.17806993 0.063427
0000b0 66 81 df bd be c4 7e bd 90 70 8a 3d 52 3a a7 bd
       -0.10913353 -0.062199347 0.06759751 -0.081654206
0000c0 81 23 38 3d 2f 56 03 be 11 13 c1 bb 6f 02 0f be
       0.044955734 -0.12825845 -0.0058921655 -0.13965772
0000d0 32 2a 8e 3c ca ff 33 be 2d 2e ed 3c 21 47 5d bd
       0.017354105 -0.17578045 0.028952682 -0.054022912
0000e0 ad ed d2 3d 89 4d 05 be f7 1b 16 be 07 21 1c be
       0.10299239 -0.13017859 -0.14659105 -0.15246974
0000f0 e7 27 62 be 11 42 03 3d c7 78 92 bc 41 58 59 bd
       -0.22085534 0.032045428 -0.017879857 -0.05306268

sub_net.layers.4.weight f4 [64, 64]
000000 2b 8c 77 be 8e cd c3 3d 1b d7 2c be 69 b7 2c bd
       -0.24174564 0.09560691 -0.16878931 -0.0421671
000010 5f e7 95 3e 01 40 b8 3d ce 1b 42 bf cf 14 55 3d
       0.29278085 0.08996583 -0.75823677 0.052021798
000020 3a 8f 88 3d 7b 9b 27 bd 8a 3e 51 3e e3 e9 c5 be
       0.06667943 -0.040919762 0.20434013 -0.38655004
000030 19 7e f5 bd 4c 5d 66 bd 17 a6 74 be 93 3d 73 3c
       -0.11986942 -0.05624132 -0.23891483 0.014846223
000040 44 23 50 3d 3f f8 15 3e 86 5a fa 3d 96 47 3c bd
       0.050814882 0.1464548 0.12224297 -0.045966707
000050 03 58 58 be 77 74 a0 be 55 40 9e 3d 8d 11 1a be
       -0.21127324 -0.31338856 0.07727114 -0.15045758
000060 c9 85 dd be 34 33 21 3f 23 e9 16 3d 77 eb cf be
       -0.43266132 0.62968755 0.03684343 -0.40609333
000070 73 ed ae 3c 01 db e7 be e5 5f 95 3e 64 66 22 3e
       0.021353459 -0.45284274 0.29174724 0.15859371
000080 46 3c 26 be fb 96 19 bc e7 bd 87 3c 93 d6 65 bd
       -0.1623393 -0.009374375 0.016570045 -0.056112837
000090 01 39 f6 be 77 dc ba be 3c 1b e0 bd 98 12 83 3e
       -0.48090366 -0.36496326 -0.109426945 0.25600123
0000a0 a9 e5 da bd 2d 67 16 bf 1e 2d f5 3c fb 81 04 be
       -0.106883354 -0.58751184 0.02992874 -0.12940209
0000b0 ab 0a 46 3d 42 31 f8 3e 7e b8 26 be 77 df e9 3d
       0.048350018 0.4847508 -0.16281316 0.11419576
0000c0 3f 32 16 be 6a 52 a0 bd 44 39 20 bd 27 9a 4e be
       -0.14667605 -0.07828219 -0.039117113 -0.20175992
0000d0 8d 68 ee 3c 27 4c d7 bd a1 b2 27 bf 24 35 88 3e
       0.029102588 -0.10512572 -0.6550694 0.26603043
0000e0 4b 5a 4a bb 61 bb 55 bb 1d f7 1c be ea 92 04 bf
       -0.0030876573 -0.0032612907 -0.15328641 -0.51786673
0000f0 4a 66 19 be f0 d9 95 be 62 8e 4b bd 25 8a 81 3e
       -0.14980426 -0.29267836 -0.049696334 0.25300708
000100 8e 95 1b be 72 04 c2 3d 22 66 50 3e 0a 63 d3 bd
       -0.1519377 0.09473504 0.2035146 -0.103216246
000110 74 d5 33 be d9 95 8f 3c a2 f0 4d 3e 34 d9 fd 3c
       -0.17561895 0.017527508 0.20111325 0.03098736
000120 9b 3b 54 be 12 35 02 3c bb 24 87 3e 05 c3 a5 3d
       -0.20725863 0.007947223 0.2639521 0.08093838
000130 d1 25 b9 3d 5f 9d 4e bd 79 ed 2a be de e4 26 be
       0.09040416 -0.05044305 -0.16692151 -0.16298243
000140 61 b7 18 bc 56 00 a0 3b f3 48 05 bd 54 c3 4b 3c
       -0.009321065 0.0048828525 -0.032540273 0.012436707
000150 2d 1b f3 bd e6 40 3c 3e d0 51 63 bc c5 ec ff bc
       -0.11870418 0.18384132 -0.013874486 -0.03124083
000160 df d0 a6 3e 5a 0d a4 bd 30 9d 90 bc a4 2a 72 be
       0.3258123 -0.08010359 -0.017653078 -0.23649079
000170 5a 02 43 3e 1a 1c e2 3d ba 93 1d be 31 35 41 be
       0.19043866 0.11040516 -0.15388384 -0.18867947
000180 79 5b a4 3d ea 0c 9d bb 93 8e 8d be a1 61 80 3d
       0.080252595 -0.0047927992 -0.27647838 0.06268621
000190 2a 29 ad bd 43 66 16 3d 9d 64 0b be b6 17 3e be
       -0.08455117 0.036718618 -0.136126 -0.18563733
0001a0 aa 99 8f be f5 de 86 bd 9e 53 b9 bc 00 f7 4b 3e
       -0.28046924 -0.065854944 -0.02262288 0.19918442
0001b0 15 65 11 3e 61 98 10 3e 0c 05 61 3e 7b 4c 14 bc
       0.14198716 0.14120628 0.21974581 -0.0090514375
0001c0 e4 04 ed bd 6b b2 00 bc 9e 22 db 3d 0d fa 00 bd
       -0.115731984 -0.007855038 0.10699962 -0.031488467
0001d0 b6 07 db bd 1b eb 0f bd dc 39 66 bd be ab 18 3e
       -0.1069483 -0.035136323 -0.056207523 0.14909264
0001e0 d7 7b 26 be f5 e5 82 be 0c cb d4 bd ed fe 66 3e
       -0.16258179 -0.25566068 -0.103902906 0.22558184
0001f0 5f f0 83 bd ba e5 d7 bc 39 e5 af bc 66 ac 72 be
       -0.064423315 -0.02635466 -0.021471607 -0.23698577
000200 dc 3d 12 be 09 a9 db 3d 7a 6e 65 3d ce 8f 5d bd
       -0.1428141 0.107256 0.05601356 -0.05409222
000210 41 ac 10 be e0 d8 b2 3d 94 cc 21 3d e8 a2 df 3d
       -0.1412821 0.08732772 0.03950174 0.10919744
000220 0e d1 ad bd 67 e9 8f 3d 8f 23 92 bd 37 04 0b be
       -0.0848714 0.0702694 -0.071356885 -0.13575827
000230 07 df 95 3d f0 94 90 3c 01 27 eb bd ab 51 09 3d
       0.0731793 0.017649144 -0.11482049 0.03352515
000240 23 0e 26 be 18 ff f4 bb 09 d8 b6 bd 2d c0 62 bd
       -0.1621633 -0.0074766986 -0.08927924 -0.055359054
000250 15 2c e4 bd 83 96 45 bd e6 b4 c6 3c d9 d5 88 3d
       -0.111412205 -0.048239242 0.024256181 0.06681413
000260 05 0d 15 be e4 81 a3 3c 46 0d 97 3d 51 b4 12 be
       -0.14555748 0.019959398 0.073755786 -0.14326598
000270 e2 df e1 3d 56 77 09 be f4 15 0d 3b 9c 16 1f bd
       0.110290304 -0.1342443 0.0021527978 -0.03883992
000280 8b f1 22 3d 64 8b b0 bd 63 56 91 3d 26 2f 93 bd
       0.039781135 -0.08620337 0.07096555 -0.07186727
000290 68 fa 26 bc c0 12 8f 3d e1 d2 d2 bc 2e 78 8a bd
       -0.010191537 0.06985998 -0.02573532 -0.06761204
0002a0 76 f4 90 bd 30 59 52 be 09 d0 6f bd 29 42 6f 3c
       -0.07077877 -0.20541835 -0.058548007 0.014603176
0002b0 52 c7 62 bd 26 52 b9 bd 93 a7 60 3d 82 e5 84 bd
       -0.055365868 -0.09048872 0.05484731 -0.06489088
0002c0 82 f1 99 3d 3c 05 ea 3c 3f 69 cc bd d6 13 1a 3d
       0.07516767 0.02856695 -0.099810116 0.037616573
0002d0 bd 7d cf 3c 60 ce ab bd f5 de 80 3d 5b a9 01 be
       0.025328511 -0.08388972 0.06292526 -0.1266226
0002e0 57 b4 2e be 42 97 00 be e0 3c da bb a9 76 6f 3d
       -0.17060982 -0.125577 -0.006660089 0.058462773
0002f0 a4 08 00 be df c7 db bd 0d b1 0e 3d 2d 53 08 3c
       -0.12503296 -0.10731482 0.034836818 0.008320612
000300 da 17 a5 be 43 81 f2 3d d9 6b e0 bd 0b 78 c6 be
       -0.3224476 0.11841061 -0.1095807 -0.3876346
000310 b4 16 25 be cc 79 b4 bc c3 7e 9c bd 6a 7c 01 3e
       -0.16121942 -0.022030734 -0.076413654 0.12645116
000320 3b 2d 26 3e f9 d5 40 3d 4b c0 04 be b5 71 34 3e
       0.16228192 0.04707906 -0.12963979 0.17621501
000330 44 ee 4b be 34 3d c9 3d 71 8d 9e bd ae 58 8a bd
       -0.1991511 0.09826127 -0.077418216 -0.067551956
000340 a9 75 53 3c 20 42 b2 3c cc b3 8b 3c 20 98 fe bd
       0.01290647 0.021760046 0.017053507 -0.12431359
000350 b8 c0 23 3e 2d 62 cd bd 6f 4c 35 bd b8 1c 1f be
       0.15991485 -0.10028491 -0.044262346 -0.15538299
000360 09 1f 1b be ea e5 20 3d c7 53 d0 bd a3 c7 da 3d
       -0.15148558 0.039281763 -0.10172229 0.10682609
000370 b3 8a 98 3d 10 a8 de 3c 1b ff 0e 3e 46 f8 78 be
       0.0744833 0.027179748 0.13964503 -0.24313459
000380 e4 bf 38 3c 79 0f 42 3d e0 7c 50 be bd 4c 81 3c
       0.011276219 0.047378037 -0.20360136 0.015783662
000390 16 42 2e be 21 bf 19 be 27 9e 10 3e 78 64 e4 3d
       -0.17017397 -0.15014316 0.1412283 0.111519754
0003a0 a2 63 c0 3d 0a 0a 06 3e 21 13 ce bd 97 b1 db 3d
       0.093940035 0.13089767 -0.10062242 0.10727232
0003b0 32 6e e4 3b e3 6f 52 3e e8 98 7b bd d2 b5 be bd
       0.006971144 0.20550494 -0.06142512 -0.09312023
0003c0 f8 45 29 bd 04 86 81 3d ab f1 30 3e 89 01 ab bd
       -0.041326493 0.063243896 0.17279689 -0.08349902
0003d0 43 a4 1b bd 16 d6 9b be 1c b4 0a be 39 54 78 bc
       -0.03799845 -0.30436772 -0.13545269 -0.015156799
0003e0 d8 61 42 3e c2 54 b9 bd fe 22 e1 bd 3c 87 5b be
       0.18982637 -0.090493694 -0.10993002 -0.21438307
0003f0 aa 86 f7 bd ca a6 ae bd 04 9e a3 be c5 14 e9 3d
       -0.12086232 -0.08527906 -0.31956494 0.113809146

sub_net.layers.4.bias f4 [64]
000000 09 c0 42 bd b8 38 d1 bc 4c 65 e0 bd e3 84 70 bc
       -0.04754642 -0.02553974 -0.10956821 -0.01468012
000010 83 07 06 be 70 39 fa 3c 7a f6 53 bd 00 64 ad 3d
       -0.13088803 0.030544966 -0.05174873 0.08466339
000020 1a 13 dd 3c e0 2b 2f be 64 8b 11 be 59 91 f9 bc
       0.026986647 -0.1710658 -0.1421333 -0.030464815
000030 60 48 e8 3d d4 1b 0d be 02 31 41 3e dd 12 33 be
       0.113419294 -0.13780147 0.18866351 -0.17487665
000040 6b 50 04 be dc d0 72 3d 64 8f 57 3d 41 83 f0 bb
       -0.12921302 0.059281215 0.052626982 -0.0073398654
000050 d3 2a c6 3d cb fa 4d be 53 4a 76 3d 4b a9 01 be
       0.09676137 -0.20115201 0.060129475 -0.12662236
000060 86 46 2b 3d af db e3 bd cb 4e 21 be 99 63 c4 3c
       0.041815303 -0.11125886 -0.15752713 0.023973273
000070 71 d4 fb 3c ad 63 af 3d e2 af 4f be 7b 4a 05 be
       0.030740948 0.085639335 -0.20281938 -0.13016693
000080 84 0b 4e 3e 75 49 f6 bd 05 31 29 be 02 8f 39 be
       0.2012158 -0.120257296 -0.16522606 -0.1812096
000090 54 4a f9 bd 8a 4f 11 be 34 ad 0e bd 67 3d 04 3d
       -0.1217238 -0.14190498 -0.034833148 0.03228512
0000a0 01 bd 0f 3c 29 ca 42 bd 9d 8a 01 bd c7 cb 01 be
       0.008773089 -0.047556076 -0.031626333 -0.12675391
0000b0 22 70 8a bc 36 00 ad 3d 56 c2 e5 bc 2b 7e 0c 3e
       -0.016899172 0.08447306 -0.028046768 0.13720004
0000c0 81 99 31 3d 16 b7 56 be 1b ce 90 3c 60 cf 0e be
       0.043359283 -0.20968279 0.017676404 -0.13946295
0000d0 29 2b 49 3d e9 1c 68 bd 40 6b 13 3d 60 30 39 3d
       0.049113426 -0.056668196 0.035990953 0.04521215
0000e0 24 07 33 3e 37 0e c1 bd 75 68 fc bd 06 0d e4 3b
       0.17483193 -0.094265394 -0.12324611 0.0069595603
0000f0 75 fc bf 3d 18 01 90 be 63 75 b9 3c ed b6 e6 bd
       0.09374324 -0.28125834 0.022638982 -0.11265359

sub_net.layers.6.weight f4 [64, 64]
000000 fd 92 07 3f 11 17 cc bd 63 2d 5b 3d d8 cc 70 bd
       0.5295866 -0.09965337 0.05351008 -0.058789104
000010 59 78 96 bd d7 fd 3a 3e d7 1f cf 3c d8 ca 5e 3e
       -0.07347173 0.18260895 0.025283737 0.21757066
000020 37 d6 31 3e 33 e5 71 3e cc 36 93 bd aa bb 14 ba
       0.17366873 0.23622589 -0.07188186 -0.0005673716
000030 7c e8 29 3e d1 be 47 be 88 50 2b 3d fa ec 7d bd
       0.16592592 -0.19506384 0.041824847 -0.061993577
000040 6f a3 07 3d 0e dd e4 bd 90 0b 02 be 2f f9 a1 3e
       0.033114847 -0.11174975 -0.12699723 0.31635424
000050 6d bb b7 bd 2e d3 cd 3c 3d d0 96 be 16 f0 f8 3d
       -0.089712955 0.025125112 -0.29455748 0.12155168
000060 49 9d a1 3d d9 46 fa bc c1 92 63 be d6 c8 b6 3e
       0.07891328 -0.03055136 -0.22223951 0.357001
000070 c8 98 9c bd f5 59 8a 3e 31 47 f4 be 45 7e b3 3d
       -0.07646328 0.27021757 -0.47710565 0.087643184
000080 9b 21 4c 3d 5b a8 44 be e4 43 2a 3b 5e c8 4d 3d
       0.049836736 -0.19204848 0.0025980407 0.050239913
000090 0e 00 36 be 5e c0 06 3e b4 8c 90 3e 0c 01 8d be
       -0.17773458 0.1315932 0.28232348 -0.2753986
0000a0 43 0d 76 3e 22 1f 84 3e 19 5c 55 bc b3 cc 9a 3e
       0.24028496 0.25805002 -0.013022446 0.30234298
0000b0 04 0f 6d be ad 04 7e be 37 64 19 3e b7 e0 7c bd
       -0.2315026 -0.24806471 0.14979635 -0.061737742
0000c0 b5 9c ba be d0 fa b6 be 32 16 2c 3e d3 75 3a 3e
       -0.36447683 -0.3573823 0.16805342 0.18209009
0000d0 df 57 90 be 83 20 9f 3e be 16 1e 3e ff ee a6 3e
       -0.2819204 0.31079492 0.15438363 0.32604215
0000e0 5e d7 23 3e 2a 30 6a bc d2 c8 10 3d 33 eb 19 bf
       0.16000125 -0.01429371 0.035347767 -0.6012451
0000f0 ef e5 a3 3e 3d b3 0a be 81 b4 c6 bd 0f 31 54 3d
       0.32011363 -0.13544936 -0.09702397 0.0518046
000100 7d 46 d4 3e e6 47 af 3d 37 3c a2 bd e2 ca 64 bd
       0.41460028 0.085586354 -0.07921641 -0.055857547
000110 34 6f ed bd 79 1a de bc 9e 49 52 3c fa 18 cd 3e
       -0.11593476 -0.027112233 0.0128349345 0.40058118
000120 3f 0a 17 3e c8 bd 51 3e 04 f5 c1 bc fe 72 07 3e
       0.14750002 0.20482552 -0.023676403 0.1322746
000130 45 c6 27 3d be 9d b9 be 40 96 86 bd 79 d1 96 bd
       0.04096057 -0.3625316 -0.06571627 -0.073641725
000140 91 c8 11 3d f9 33 f5 3c 30 fa 9e bd 13 5a 6e 3e
       0.035591666 0.029932009 -0.07762563 0.23276548
000150 ed 9a 44 be 82 a5 cd 3c ec 79 41 be b6 f4 a5 bd
       -0.19199724 0.025103334 -0.18894166 -0.081033155
000160 5b 8a 0c 3e ff c2 02 b7 ff 9d 34 3d b7 c8 6f 3e
       0.13724653 -7.794005e-06 0.04409599 0.2341641
000170 c0 8c 6c be 73 2e 93 3e d6 46 c6 be a8 33 24 bd
       -0.23100567 0.28746375 -0.3872592 -0.040088326
000180 3f b8 2a bd 93 28 86 be a7 99 1d be d6 36 34 3c
       -0.041679617 -0.2620283 -0.15390645 0.010999402
000190 a0 c3 da be 8b 90 9c 3d 54 26 fa 3d f5 f6 18 bf
       -0.42727375 0.07644757 0.12214342 -0.59751827
0001a0 45 98 96 3e e0 70 58 3e 04 f4 53 be c2 ed 60 3e
       0.29413047 0.21136808 -0.20698553 0.21965697
0001b0 bd 8f 23 be 75 f4 3b be bf 67 64 3e a8 59 2b bd
       -0.159728 -0.18354972 0.22305201 -0.04183355
0001c0 84 96 9a be e3 c7 59 be 1d 1a 22 3e 11 8a e2 3e
       -0.3019296 -0.21267657 0.15830274 0.4424596
0001d0 62 81 ca be 72 6a 9f 3e c5 43 77 3e c7 6d 73 3e
       -0.39551836 0.311359 0.24146946 0.23772345
0001e0 29 cd c9 3d e3 1a a0 bd 2f c8 a6 bc 17 90 25 bf
       0.09853584 -0.07817628 -0.020359127 -0.6467299
0001f0 a3 e2 88 3e 50 26 c0 bd c9 9d aa bd f6 6a 97 bd
       0.2673541 -0.093823075 -0.083308764 -0.07393448
000200 6f 05 14 bf 2a f0 93 3d 72 57 03 bc 37 c0 81 3d
       -0.5782079 0.07223542 -0.008016454 0.0633549
000210 89 b8 8c 3d e6 8d c9 be 81 02 3d bc 31 e4 b6 3d
       0.06871135 -0.39366072 -0.0115362415 0.08930243
000220 98 23 92 be da 1d aa 3d 54 b2 9c bc 5e 6d 9d be
       -0.2854278 0.08306475 -0.019128002 -0.30747503
000230 a6 cd 9c 3e c4 7a ef 3e 3d 44 8a 3e f9 6e e1 bd
       0.30625647 0.4677335 0.27005187 -0.110074945
000240 bd 5a cd bd db b9 07 3e e2 73 9d be e0 bc 2b be
       -0.100270726 0.13254492 -0.30752474 -0.16771269
000250 77 be d3 3e 66 96 f7 bd 5c 4e a5 be 64 71 ad bd
       0.4135625 -0.12089233 -0.32286346 -0.08468893
000260 ad 91 e1 bd dd 34 97 3c ee 5d 20 3e ee 32 91 3e
       -0.110141136 0.018457824 0.15660831 0.2835917
000270 40 1a b9 3e 4f 3b 2a 3e c5 d9 c8 be cd 9b ee 3c
       0.3615284 0.16624187 -0.39228645 0.029127026
000280 83 51 8f 3e 8c 99 e5 3d 0d 04 97 3e 64 71 22 3d
       0.27991876 0.11210927 0.29495278 0.03965892
000290 e3 b6 e5 3d 7b 9f 33 bf 69 b6 20 be b6 3d 01 be
       0.112165235 -0.7016522 -0.15694584 -0.12621197
0002a0 7c 10 19 3d 3a 8c 72 bd ce 92 71 3e ca aa 13 3f
       0.037369236 -0.05921576 0.23591158 0.5768248
0002b0 6e f2 ab 3e e9 1e db 3d 49 9b 25 bf f4 bd a4 3d
       0.33583397 0.10699255 -0.6469007 0.08044043
0002c0 41 80 7d be bd dd 8f 3e 6a 95 0a bc 23 e7 00 3f
       -0.24755956 0.2809886 -0.008458475 0.50352687
0002d0 b1 99 05 3d ea 87 19 be 4e e8 03 bf 00 74 82 3d
       0.032617275 -0.14993253 -0.51526344 0.063697815
0002e0 f7 a9 a6 3d f7 43 16 be 85 95 f3 3d b9 ec fc bd
       0.08137887 -0.14674364 0.11893753 -0.12349839
0002f0 7c 94 5c bd 14 79 9c 3e 31 19 a1 be 0c bd 16 3e
       -0.053852543 0.30561125 -0.31464532 0.14720553
000300 0a e3 a9 be 4c f6 ac bd 01 a6 bc 3c 78 ec 0b be
       -0.3318103 -0.08445415 0.023028376 -0.13664424
000310 3b 46 ce bc e2 44 88 be de e7 fe be 9f 23 0b 3e
       -0.025179973 -0.26615053 -0.49786276 0.13587807
000320 5b 01 d5 3d 01 ab 32 bd 7e 64 fd bd b1 0e 55 be
       0.10400649 -0.043620113 -0.12372683 -0.20806386
000330 6e a5 a9 3e 57 89 05 3f 2a 29 31 3e 41 46 dc bd
       0.33134025 0.5216269 0.17300859 -0.10755587
000340 23 79 9c 3d 99 d6 0d 3e d9 5e db be 92 59 4a 3d
       0.076402925 0.13851394 -0.428458 0.049401827
000350 0a 01 28 3e ae 67 cf bd 67 2e 00 bc ca 7e 9f 3d
       0.16406646 -0.10127197 -0.007823563 0.07787855
000360 17 d5 12 3e 44 33 1e 3b 89 41 0c 3d 22 68 05 3e
       0.143391 0.0024139443 0.034242187 0.13028005
000370 99 e4 9f bc de f3 f2 3e 78 4b 0e be 08 c4 57 3d
       -0.019518184 0.4745168 -0.13895977 0.052677184
000380 ea 86 64 bc a5 db 1c 3e ae 27 0d be 98 0a 81 3d
       -0.013948182 0.15318163 -0.13784668 0.06300849
000390 b0 52 e2 3a 79 98 01 bf 45 88 70 bd 6f 4c 13 3e
       0.0017267074 -0.5062328 -0.058723707 0.14384626
0003a0 ab c8 16 bd 91 40 3c be 8e 6b c7 3e 8a 08 3c 3f
       -0.036812466 -0.18384005 0.38949245 0.7345053
0003b0 5a 2c 51 bc b0 e5 a9 3d f4 1b 21 bf f3 5d f8 3d
       -0.012766922 0.082957625 -0.6293328 0.121272944
0003c0 92 18 8f bd 0a a6 2c 3e e2 26 c0 3d f5 b8 20 bb
       -0.06987108 0.16860214 0.09382416 -0.0024524305
0003d0 fd c7 15 3c 5f e3 2a be ee ac 00 bf 59 f1 ff 3d
       0.009141919 -0.16688298 -0.5026387 0.12497205
0003e0 b7 a1 38 3e a6 0a 0f be 52 0a 8d 3c 0a d1 75 3e
       0.1803044 -0.13968906 0.017216835 0.24005523
0003f0 81 fd 5e 3e f7 0d 09 3f 0e 8f b7 3d 9d 4e 26 3e
       0.21776392 0.53536934 0.089628324 0.16240926

sub_net.layers.6.bias f4 [64]
000000 cd 70 c3 3d 0a 7b 43 3d 7d 79 e7 bd c6 33 d0 bd
       0.095429994 0.04772476 -0.11302469 -0.10166125
000010 6c 7e 89 bd 03 ca b1 bd 5c 1d 82 3a 0a 13 6b 3d
       -0.06713566 -0.08681109 0.0009926963 0.057391204
000020 37 a5 88 bd 62 1b 7c be 00 47 ed 3d c7 39 15 be
       -0.06672137 -0.2461982 0.11585808 -0.14572822
000030 0a 66 2e 3d 61 67 e2 bd 87 22 c4 3d 78 82 36 3e
       0.04257778 -0.11054874 0.09576898 0.17823207
000040 42 33 d0 bd 34 aa ab 3b 36 9b 38 be b3 de 93 bd
       -0.10166027 0.0052387957 -0.18027958 -0.07220211
000050 44 fe 7a bd a9 7f 32 bd c3 a5 88 bd 7d e4 a2 3d
       -0.061277643 -0.043578777 -0.066722415 0.07953737
000060 14 7f 45 be 4f 2d c7 bc 45 14 d0 3d 0e 23 af 3d
       -0.19286758 -0.024313597 0.10160116 0.08551608
000070 6c 9d 08 bd 12 5c d5 bd 21 82 01 be 1d b6 9e 3d
       -0.033353254 -0.10417952 -0.12647296 0.07749579
000080 e7 9f 95 3d 04 31 e0 3d 25 12 c2 3d d1 c3 2a 3e
       0.073058896 0.10946849 0.09476117 0.1667626
000090 7f 60 ba bd 47 d5 77 bd c8 4c 81 bc 96 0a 62 bc
       -0.091004364 -0.06050613 -0.015783682 -0.013796469
0000a0 b8 ed fb bd a9 a1 11 be 18 e0 ec bd c7 a7 a0 bd
       -0.12301201 -0.14221825 -0.1156618 -0.07844501
0000b0 46 21 b7 bd c2 a8 5b bc da 9e 11 be 23 87 bf 3c
       -0.08941893 -0.013406934 -0.14220753 0.023379868
0000c0 a9 41 de bd 3d 26 13 bd 19 06 87 3d a2 a8 c2 bd
       -0.108523674 -0.03592514 0.0659296 -0.095048204
0000d0 76 35 d3 ba 19 59 3f 3c a5 28 27 bd 41 68 a7 3b
       -0.0016113955 0.011678957 -0.040810246 0.0051088636
0000e0 e3 ce e5 bc 2e 35 1f 3e 1b 79 ce 3c fc 90 15 bc
       -0.028052753 0.1554763 0.025204232 -0.009128805
0000f0 84 0e a5 3d 0e a8 df 3d 1d 92 ca bd 8e 67 57 bd
       0.08059409 0.10920726 -0.0989115 -0.05258899

sub_net.layers.8.weight f4 [64, 64]
000000 df 45 9f bd 32 b3 bb bd 48 91 d2 be 28 a2 04 be
       -0.07776999 -0.09165038 -0.41126466 -0.12952483
000010 2d 11 16 be 8a 7c 9e 3d 6e c9 26 be 01 eb 1f be
       -0.1465499 0.07738598 -0.16287777 -0.1561699
000020 4f 3b 60 bd a6 37 a0 be 22 ee b3 be 00 cc fc 3c
       -0.05474406 -0.31292456 -0.35142618 0.030858994
000030 37 6f 85 be 30 29 e9 3c 5c d6 37 be 21 b6 cb 3e
       -0.26061413 0.028462023 -0.17952865 0.3978739
000040 c4 0f e7 3c ae ca 80 be 9c 02 15 3b 86 d4 49 3d
       0.02820576 -0.25154632 0.002273715 0.049274944
000050 a6 db 6c bd 7c e7 5d be d4 9c dc bb 0e d1 d5 be
       -0.05782666 -0.21670336 -0.0067325626 -0.4176106
000060 fd f1 00 be 1b be 88 be ee 88 96 3e a0 b3 9f be
       -0.12592311 -0.2670754 0.29401344 -0.3119173
000070 07 fd 3b be 44 df 6c bc 84 4f 3d 3c 0f 0a ef bd
       -0.18358241 -0.014457528 0.0115546025 -0.116718404
000080 34 15 5e be 51 4e b8 be a9 ab 70 bd 44 73 02 3f
       -0.21687776 -0.3599725 -0.058757458 0.5095713
000090 43 c5 d6 bc c1 71 72 bd b3 de a6 3d 92 0b 26 3e
       -0.026217109 -0.059190515 0.08147945 0.16215351
0000a0 64 0c 17 3d da 35 e5 bd 98 38 f4 bc e2 5e 3e bd
       0.03687705 -0.11191912 -0.029812142 -0.046477206
0000b0 c3 16 f3 bd e6 6b aa be c0 db d5 be c7 e7 d3 be
       -0.11869576 -0.33285445 -0.41769218 -0.4138777
0000c0 92 d1 dd 3d 2c 7d bf bd 76 de 38 bd 87 e1 0f bd
       0.10830988 -0.093500465 -0.04513403 -0.03512719
0000d0 92 bd ac be b6 8b 04 bf 0c ad 1d 3d 06 64 12 3f
       -0.3373838 -0.5177568 0.03849511 0.57183874
0000e0 c4 92 30 3c cf 96 e1 3c e7 57 e2 bb 7d ee d5 be
       0.010777179 0.027537731 -0.0069074514 -0.41783515
0000f0 ba 56 e6 be e9 71 0b bf c2 7c 9b bd 9c f9 80 be
       -0.44988042 -0.5447069 -0.07592155 -0.25190437
000100 cd 85 39 3d b6 a0 6f 3d a2 ad ed bd 10 8c a2 3d
       0.045293618 0.058502875 -0.116053835 0.07936871
000110 72 b8 1b bd cb 91 b1 bb 30 9e c8 bd 1a b0 45 be
       -0.038017698 -0.005418991 -0.09795797 -0.19305459
000120 41 a2 76 3d e7 9b 10 3c ed 60 c3 bd 50 fb 41 bd
       0.06021333 0.0088262325 -0.095399715 -0.04735881
000130 ad 02 97 bd 62 35 cc bd 4d aa 24 be d7 71 2f 3d
       -0.07373557 -0.099711195 -0.1608059 0.042833176
000140 14 92 7c bd 4f 50 54 bd 86 1e d2 3c a6 cd e3 3d
       -0.06166275 -0.0518344 0.02564932 0.11123209
000150 42 a8 c7 bd c2 2e 79 bd 85 46 11 3d c0 46 f8 bc
       -0.097488895 -0.060835607 0.035467643 -0.030307174
000160 8c 55 ae 3d 91 3a 5d bd d5 18 0d be 1c 4a c8 bd
       0.085124105 -0.05401093 -0.13779004 -0.0977976
000170 ff 20 c6 bc 26 75 94 bd 1c 34 76 3d af 59 e8 bd
       -0.024185656 -0.07248907 0.06010829 -0.11345231
000180 3b 7a 23 3d c0 04 15 3d d5 dc c0 bc d0 4f 96 3d
       0.03991149 0.036381483 -0.0235428 0.07339442
000190 5b ac 16 be ef b0 1d bd b5 34 ed bd 37 9c 52 bc
       -0.14714186 -0.038498815 -0.11582319 -0.012854627
0001a0 35 b1 8f 3d 84 d4 e1 bd 94 78 1e bd 30 31 2e bd
       0.070162214 -0.11026862 -0.03868921 -0.042527378
0001b0 98 47 df 3c c8 e2 6e 3d 6c ef 0e be 90 99 92 3d
       0.027255818 0.058321744 -0.1395852 0.07158196
0001c0 40 1f a3 bb 60 d7 74 bd e8 e5 84 bd 1d f1 b8 bd
       -0.0049780905 -0.05977571 -0.06489164 -0.09030364
0001d0 91 eb b1 bd 26 e9 5b be 87 3d a4 bd 83 b5 2c 3d
       -0.08687509 -0.21475658 -0.08019548 0.04216529
0001e0 a6 86 be bd ea ea 08 be 83 70 16 be ce a1 f1 bd
       -0.09303026 -0.13370863 -0.14691357 -0.1179844
0001f0 cb 13 7d bd 22 82 03 be 4b 80 7b bb 27 ec 5e bd
       -0.061786454 -0.1284261 -0.003837603 -0.05442443
000200 0a bb 84 bd 60 65 c0 bc d0 c6 ce bd 09 02 de bc
       -0.06480987 -0.02348584 -0.10096514 -0.02710058
000210 41 51 a4 3c 83 6d 4b bd e2 60 ad bc ee 4d 1c be
       0.020058276 -0.049664985 -0.021164361 -0.15264103
000220 00 0d 6b 3a 11 cb 9f 3b e2 47 fe bc 60 1d 15 bd
       0.0008966476 0.0048765023 -0.031040136 -0.036404967
000230 9a 1a 1e 3e 0e db 9d bd 90 8c a6 bc 8a a1 ae bd
       0.15439835 -0.07707797 -0.020330697 -0.08526905
000240 d4 57 5d 3d 6b c1 48 bd 48 8b cf 3c 41 a4 7c 3c
       0.054038838 -0.049012583 0.02533497 0.015420021
000250 c0 72 1f bc 28 f2 db 3d 00 80 58 b7 fb 0d 45 be
       -0.009731948 0.10739547 -1.2904406e-05 -0.19243614
000260 aa 5a 93 3d f0 a2 47 bd b6 f3 90 3d 00 82 0b 3a
       0.07195027 -0.048739374 0.07077734 0.00053218007
000270 54 ce cb 3d 1e af e4 3d e7 68 de 3d dd d6 21 bd
       0.09951463 0.111662135 0.10859852 -0.03951155
000280 b0 1c 08 bd 60 69 fa 3c 78 79 ce 3d 43 66 fc bd
       -0.033230484 0.030567825 0.10081762 -0.123241924
000290 e2 90 88 bd 46 a6 ef 3d 95 6a 03 bd 00 b3 94 bd
       -0.06668259 0.11701636 -0.032084066 -0.07260704
0002a0 bc 7c d4 bd 56 ec e4 bd ee aa be 3d d4 20 c2 3d
       -0.10375354 -0.1117789 0.09309946 0.09478918
0002b0 ab fd 70 bd fa dd 67 3d 0e 85 99 3d 2d 71 4f bc
       -0.058835667 0.056608178 0.07496081 -0.012661261
0002c0 5a 5c ae bd 44 38 ab bd d6 4e d8 bd a4 2b df 3d
       -0.085137084 -0.08360341 -0.10561912 0.10896996
0002d0 2b 91 bf 3d 60 0b 2a 3d b2 74 df 3d 0a 97 53 bd
       0.093538605 0.041514754 0.1091093 -0.051657714
0002e0 1c 8d d7 bd 88 18 c2 bc 30 a3 9d 39 3d 6c 91 bd
       -0.10524961 -0.023693338 0.00030066958 -0.07100723
0002f0 d4 9f 9e 3d 20 e6 bf bd ba 96 81 bd ea 55 4a bd
       0.077453285 -0.09370065 -0.06327577 -0.04939834
000300 73 00 ca 3c e7 20 02 be e8 1f 49 bd 09 62 99 3c
       0.024658417 -0.12707864 -0.049102694 0.018723505
000310 b0 4d 79 3d 78 d2 5a 3d a8 2e a4 bd eb c0 81 bd
       0.060865104 0.053423375 -0.080167115 -0.06335624
000320 d5 05 32 3c d9 cb 91 bd aa 43 0b be 72 41 b7 bd
       0.010865648 -0.07118959 -0.1360003 -0.089480296
000330 31 eb e0 bd 12 e3 97 3d fd f0 20 bd 8c a6 5f 3d
       -0.10982359 0.07416357 -0.039292324 0.05460219
000340 50 32 8b bd 30 99 be bd 1a 8d 4e bb f0 79 95 bc
       -0.06796706 -0.09306562 -0.0031517209 -0.01824662
000350 98 22 b6 bc 58 ce a9 3d 94 c1 b0 bd 4a 72 63 3d
       -0.022233292 0.0829131 -0.08630672 0.055528916
000360 a0 e1 0b bd e7 db 3c 3d bc e4 df 3d c0 ef 7b 3b
       -0.03415072 0.046108153 0.109322995 0.0038442463
000370 2d 79 9b 3d 60 04 3d 3c 6e 6b c1 3d 39 75 07 be
       0.07591472 0.011536688 0.09444319 -0.1322831
000380 19 de ba 3b 0e 79 a5 bc 39 31 10 3c 48 38 5d bd
       0.0057027456 -0.020199325 0.008800798 -0.054008752
000390 10 c0 89 3c a0 b2 07 3d 04 db c4 3d 1e 47 db 3d
       0.016815215 0.033129334 0.096120864 0.10706924
0003a0 ac ce cc 3d 80 b5 d4 bc de 16 9a bd e8 e7 db bc
       0.10000357 -0.025965452 -0.07523893 -0.02684398
0003b0 62 82 92 3d 6f 85 60 bd 5a a2 2c bd 48 ab 68 bd
       0.07153775 -0.054814752 -0.042147018 -0.05680397
0003c0 a8 60 2c 3d 20 f3 63 3c e6 5b 85 3d a4 06 49 3d
       0.042084366 0.013912946 0.06511669 0.0490786
0003d0 52 cf e5 bd a6 1e b9 3d 80 d2 14 bb 8c 44 d8 3d
       -0.11221184 0.09039049 -0.0022708476 0.10559949
0003e0 aa cf bd 3d a7 51 23 be 75 5b 0c bc 24 78 1c 3d
       0.092681244 -0.15949117 -0.008566727 0.038200513
0003f0 64 7f 0a 3e 90 77 6a bd fa 72 c6 bd 48 31 57 3d
       0.13525158 -0.05724293 -0.09689899 0.052537233

sub_net.layers.8.bias f4 [64]
000000 08 18 a4 3e bb d6 18 bd 26 9a d1 bd 7a 36 13 be
       0.32049584 -0.037314158 -0.102344796 -0.1437625
000010 6e 94 0b be 65 6f 12 be 38 86 d1 bc 60 60 56 bd
       -0.1363084 -0.14300306 -0.025576696 -0.052338004
000020 80 3a d6 3e f7 1c e0 bd 5a 64 d0 bd dc 7d fc bd
       0.41841507 -0.109430246 -0.101753905 -0.12328693
000030 af 66 c1 bd a4 a5 fe bd 73 31 21 3e f9 f8 d0 bc
       -0.094434135 -0.12433937 0.1574152 -0.025509344
000040 17 81 a2 bd b3 03 2a bd ad 90 cc 3d 06 22 b9 3c
       -0.07934778 -0.041507434 0.09988532 0.022599231
000050 f5 0c 76 be cd c8 1b be 33 99 2b 3e 37 52 2f bd
       -0.2402838 -0.15213318 0.1675766 -0.042803016
000060 14 84 17 be a1 8f fc bd c2 df f9 bd 5d 90 a3 3d
       -0.14796478 -0.123320825 -0.122008815 0.079865195
000070 15 08 8a bc 87 97 a4 bd 05 1b ee 3d d8 46 88 bc
       -0.016849557 -0.08036714 0.11626247 -0.016635343
000080 4f e2 ef 3e 1f 3d 85 bd 12 c7 2a 3e cf d9 23 be
       0.46852347 -0.065057985 0.16677502 -0.16001056
000090 4b db 14 be bc d0 ad 3d ee 5d 87 bd 88 dc 6c bd
       -0.14536779 0.084870785 -0.066097125 -0.057827502
0000a0 5c 23 ac bd 55 0a cc bd 14 6e 1a bd 20 e7 5d bd
       -0.08405182 -0.09962908 -0.037702635 -0.054175496
0000b0 54 d4 e6 3d 38 b9 40 bd c7 8a 0b be 41 51 93 be
       0.11270967 -0.04705164 -0.13627158 -0.2877293
0000c0 8c 23 80 bd 2c 8b a5 bd 14 03 c2 3d 25 c0 e4 3d
       -0.0625678 -0.080831856 0.09473243 0.11169461
0000d0 e1 73 92 bd df b3 1b bd 02 e1 34 3e c2 73 0a be
       -0.071510084 -0.038013335 0.17663959 -0.1352072
0000e0 18 40 14 be 4b 6a 30 be df 5c f4 bd a9 1e ce bd
       -0.14477575 -0.17228048 -0.11931776 -0.10064442
0000f0 3d af 68 3e 02 b2 5c bd 38 7d 40 bd 86 c3 48 bd
       0.22723098 -0.0538807 -0.046994418 -0.04901459
