model/sub_net.pt (torch, 91073 bytes, 12 tensors)

layers.0.weight f4 [64, 16]
0.31777513 0.052222714 -0.44639847 -0.18173113 0.13443261 -0.3402137 -0.20978671 0.12496806
-0.39344528 0.19334061 0.13620229 -0.048935838 0.20158349 0.2805174 -0.22396678 -0.04468352
-0.057543714 -0.52527326 0.35342526 0.11381016 -0.043941014 -0.08675224 -0.20870513 0.15049796
-0.38860053 0.119750656 0.47020754 0.087222874 -0.034762505 0.20678116 -0.4017159 -0.3370771
0.08982917 -0.1734083 -0.18297718 -0.24397884 -0.47919676 0.3036768 0.1217702 -0.015058369
0.12706466 0.4143112 -0.061573226 -0.12820728 0.3877901 -0.23693669 -0.2527563 -0.022081329
0.23660919 -0.22611628 0.1664803 -0.42222163 0.03647821 -0.29434198 -0.14257766 -0.23764366
-0.2973017 -0.2202508 -0.20022112 -0.17432362 -0.106826924 -0.37842244 -0.45654008 0.10742516
0.021730449 0.1715081 -0.0871892 -0.0039800014 0.13724735 0.045302592 0.02633452 -0.33437023
-0.060464084 0.11180526 -0.18307222 0.13133822 -0.39611435 -0.58284926 0.2535707 0.05108764
-0.39277574 -0.10717662 -0.090972334 0.13019869 0.2944246 -0.16516572 -0.18851863 0.3453611
0.29598317 -0.25805122 -0.011188457 -0.14039198 -0.008660141 0.03387187 -0.23786739 0.26392847
0.0734051 -0.43198827 -0.3275004 0.13437825 -0.35064796 -0.0005248312 0.06841697 0.20830388
0.12609482 0.015822185 0.14851698 -0.109148644 -0.49405518 0.13824089 0.071768805 0.25443012
0.3624384 -0.38081864 -0.238862 -0.17335415 -0.26355565 -0.064759225 -0.0029047308 -0.07250903
-0.1945787 0.19506487 0.29175285 0.15328977 0.13431533 -0.5983966 -0.29799807 0.23460676
-0.18679412 -0.068322375 0.40683052 0.1641352 -0.66079116 -0.061126582 0.3220529 -0.29122436
-0.11284915 -0.09179738 -0.015470793 0.14591664 0.13803668 -0.096170224 -0.23237807 0.27930546
-0.43795678 -0.17426142 -0.19396473 0.16279003 -0.29449987 0.28191447 -0.35737485 0.054419715
0.028105807 0.4254683 0.32574826 0.10273146 -0.19961756 -0.24752872 -0.038546015 0.19804405
-0.35102674 -0.1919799 -0.25327867 -0.018920476 0.19067597 -0.011271369 -0.46154436 -0.44484207
-0.13998765 -0.18568127 0.20180412 0.079721265 -0.38702363 0.15899928 0.058221698 0.46222916
0.36112708 -0.11709673 0.08495715 -0.30085328 0.087900415 0.41974473 -0.5434081 -0.04274507
0.14609106 -0.17822027 -0.0056349454 0.29674068 0.16948481 -0.23386884 -0.15328851 0.25232047
-0.10221952 -0.059918087 0.47733638 -0.3480066 -0.16791223 0.01945407 -0.45540488 -0.07050766
-0.055658232 -0.040247157 0.2959509 -0.23395152 0.20532225 -0.02933362 0.2656597 -0.19772692
-0.031072814 0.20398721 0.09375309 -0.13929464 -0.4034436 -0.13805941 0.4144954 -0.14737137
0.2653793 -0.17060572 -0.044770163 0.12394041 0.29330033 -0.5033407 -0.023115158 -0.052136227
0.15917511 0.45262957 -0.30858755 -0.34986165 -0.17768003 -0.20252731 -0.016682358 0.19185764
-0.26441765 -0.026802616 -0.26219997 -0.09984265 -0.061713133 -0.1371342 0.21781988 -0.17708233
-0.36697847 -0.2330473 -0.27024025 0.21718872 0.06458524 0.2697555 0.29741448 0.16192845
-0.03373868 -0.14969502 -0.26155782 -0.024876261 -0.030622074 0.16560347 0.32248512 0.025645586
00000000: 6cb3 a23e 7ce7 553d 578e e4be ba17 3abe
00000010: b4a8 093e 7d30 aebe 54d2 56be 41ef ff3d
00000020: a971 c9be 15fb 453e 9d78 0b3e f270 48bd
00000030: e76b 4e3e fa9f 8f3e 8c57 65be 1106 37bd
00000040: f5b2 6bbd 4f78 06bf 28f4 b43e 4d15 e93d
00000050: 7efb 33bd 29ab b1bd ccb6 55be 231c 1a3e
00000060: a6f6 c6be d53f f53d 0bbf f03e e8a1 b23d
00000070: 2163 0ebd 71be 533e b5ad cdbe 5f95 acbe
00000080: 5bf8 b73d f291 31be 5f5e 3bbe 97d5 79be
00000090: 4759 f5be 877b 9b3e a862 f93d 61b7 76bc
000000a0: 3d1d 023e 9920 d43e 3534 7cbd c548 03be
000000b0: 6d8c c63e 889f 72be 4669 81be e7e3 b4bc
000000c0: ae49 723e 078b 67be d079 2a3e 6f2d d8be
000000d0: 2d6a 153d feb3 96be e1ff 11be dc58 73be
000000e0: ee37 98be 6d89 61be c406 4dbe e481 32be
000000f0: 13c8 dabd 96c0 c1be 9fbf e9be b901 dc3d
00000100: 0e04 b23c d29f 2f3e 4090 b2bd ac6a 82bb
00000110: 928a 0c3e 368f 393d 7ebb d73c 9332 abbe
00000120: 30a9 77bd 28fa e43d 4977 3bbe 877d 063e
00000130: 80cf cabe 9c35 15bf 05d4 813e 4641 513d
00000140: e719 c9be 6a7f dbbd b44f babd ce52 053e
00000150: d2be 963e 3421 29be 070b 41be 2cd3 b03e
00000160: 1b8b 973e 4a1f 84be ca4f 37bc eac2 0fbe
00000170: 44e3 0dbc 3bbd 0a3d 8293 73be a221 873e
00000180: 6a55 963d 912d ddbe 22ae a7be 749a 093e
00000190: 2188 b3be d394 09ba 321e 8c3d 9d4d 553e
000001a0: 001f 013e 879d 813c d614 183e 5389 dfbd
000001b0: cdf4 fcbe 058f 0d3e 86fb 923d aa44 823e
000001c0: 8791 b93e a9fa c2be 3d98 74be c083 31be
000001d0: c4f0 86be 7ca0 84bd 4c5d 3ebb 9d7f 94bd
000001e0: a43f 47be 16bf 473e a160 953e fef7 1c3e
000001f0: f589 093e 8530 19bf 3493 98be c13c 703e
00000200: f546 3fbe 9aec 8bbd 174c d03e 0f13 283e
00000210: 9c29 29bf de5f 7abd 1ee4 a43e 5c1b 95be
00000220: 751d e7bd 4400 bcbd 3579 7dbc 2c6b 153e
00000230: 7d59 0d3e e5f4 c4bd 84f4 6dbe 2001 8f3e
00000240: df3b e0be 9671 32be b19e 46be 6eb2 263e
00000250: b0c8 96be 1857 903e d6f9 b6be 35e7 5e3d
00000260: 263e e63c fbd6 d93e 7ac8 a63e df64 d23d
00000270: 8c68 4cbe 2b78 7dbe 6de2 1dbd 0fcc 4a3e
00000280: c7b9 b3be 6196 44be bead 81be 1dff 9abc
00000290: 9040 433e 8cab 38bc 8b4f ecbe 57c2 e3be
000002a0: ec58 0fbe 3b23 3ebe bda5 4e3e e744 a33d
000002b0: f627 c6be b5d0 223e e079 6e3d 4da9 ec3e
000002c0: a6e5 b83e 69d0 efbd 04fe ad3d 7109 9abe
000002d0: 2205 b43d c8e8 d63e cb1c 0bbf 7415 2fbd
000002e0: e598 153e 607f 36be 59a5 b8bb 65ee 973e
000002f0: 6d8d 2d3e 507b 6fbe aaf7 1cbe 2630 813e
00000300: 7858 d1bd ab6c 75bd 6f65 f43e ec2d b2be
00000310: 2ff1 2bbe 245e 9f3c d42a e9be 5266 90bd
00000320: e3f9 63bd 34da 24bd e086 973e fd90 6fbe
00000330: ff3f 523e 0f4d f0bc 8c04 883e ed78 4abe
00000340: 6a8c febc 06e2 503e 9f01 c03d 41a3 0ebe
00000350: 2990 cebe 725f 0dbe be38 d43e 85e8 16be
00000360: ccdf 873e 44b3 2ebe eb60 37bd 78d4 fd3d
00000370: 762b 963e f0da 00bf 005c bdbc cc8c 55bd
00000380: cdfe 223e 10bf e73e 30ff 9dbe 1121 b3be
00000390: c1f1 35be 5263 4fbe 71a9 88bc 5476 443e
000003a0: c061 87be 2991 dbbc 133f 86be 4e7a ccbd
000003b0: e9c6 7cbd e86c 0cbe 2d0c 5f3e 1255 35be
000003c0: 9ae4 bbbe f4a3 6ebe ee5c 8abe b866 5e3e
000003d0: 4445 843d 651d 8a3e b646 983e 92d0 253e
000003e0: 9231 0abd a749 19be e8ea 85be 4dc9 cbbc
000003f0: 25db fabc f593 293e c51c a53e b116 d23c

layers.0.bias f4 [64]
0.1405399 -0.20159808 -0.0015466982 0.09572986 0.12230886 0.038591877 -0.024742786 0.14862414
-0.27676743 0.058569036 0.19984038 -0.17837924 -0.15159021 -0.26548547 0.26826426 -0.030973693
-0.28588063 0.2690215 -0.23468821 -0.177113 0.021456113 0.24939159 0.007863628 -0.057432912
-0.06841411 -0.2016828 -0.12953813 -0.244837 0.1236242 -0.099338755 -0.070051 -0.14292294
-0.085373 -0.21178658 -0.15397112 0.19462466 -0.37034523 -0.11293516 -0.21522452 0.12691906
-0.09829808 0.10444993 -0.12758496 -0.0060881185 0.062042557 0.09165268 -0.060829088 -0.029951688
0.11299834 -0.093177825 -0.16388912 -0.06093797 -0.11474424 -0.045452915 -0.16610688 0.1151043
0.0033783764 -0.205358 0.04891499 -0.20317094 -0.35271552 0.1368295 0.15708105 -0.060607966
00000000: b1e9 0f3e ba6f 4ebe 94ba caba 040e c43d
00000010: 117d fa3d 8412 1e3d 62b1 cabc ed30 183e
00000020: 76b4 8dbe 16e6 6f3d f5a2 4c3e 0ca9 36be
00000030: 773a 1bbe b6ed 87be ef59 893e 8bbc fdbc
00000040: f25e 92be 30bd 893e 1b52 70be 1c5d 35be
00000050: bbc4 af3c 8260 7f3e 72d6 003c c63e 6bbd
00000060: b21c 8cbd f085 4ebe a5a5 04be 8db6 7abe
00000070: af2e fd3d 1e72 cbbd e676 8fbd 645a 12be
00000080: 0ad8 aebd 95de 58be 9baa 1dbe b04b 473e
00000090: e49d bdbe 8d4a e7bd d163 5cbe 12f7 013e
000000a0: 8150 c9bd d8e9 d53d a2a5 02be d77e c7bb
000000b0: 5620 7e3d 66b4 bb3d ec27 79bd 3e5d f5bc
000000c0: ac6b e73d 04d4 bebd 8dd2 27be 189a 79bd
000000d0: 07ff eabd d62c 3abd ec17 2abe cebb eb3d
000000e0: c067 5d3b 5e49 52be 165b 483d 0b0c 50be
000000f0: 2197 b4be 081d 0c3e dbd9 203e 0f40 78bd

layers.2.weight f4 [64, 64]
0.1617821 -0.007070528 -0.33118322 -0.36142737 -0.04766624 0.16381547 -0.12307794 -1.0028923
-0.96964663 -0.2362265 0.033555944 0.12903945 0.22862658 -0.10772265 -0.2334235 -0.15743932
-0.398264 0.09133873 0.07840517 -0.03373471 -0.6314837 0.14833802 0.34194076 -0.25831726
-0.34301418 -0.09841519 -0.18933712 -0.31809586 -0.56859255 -0.47481674 -0.29326677 -0.027850943
0.0065009375 -0.06901976 0.21424359 -0.33244392 -0.039739426 -0.06481197 0.24831389 0.1368247
0.0703242 0.012876413 -0.3778042 0.0138527155 0.02843051 -0.16999465 0.23608784 0.11427239
0.09012521 0.0002643313 0.24122274 -0.34401688 0.49205923 -0.05006178 -0.06587998 0.27715075
0.11761444 0.0034195525 0.31316257 0.18744911 -0.025937589 -0.2238703 0.03586457 0.012730403
0.12757535 0.08393434 -0.14082222 -0.017579405 -0.17756449 -0.06834046 0.1585628 0.14342073
0.34869733 -0.31215423 -0.19844119 0.08861692 -0.34842104 -0.08836405 -0.27732864 -0.26745
-0.8062588 -0.1283152 0.038839545 0.20117444 -0.45070443 0.058389205 -0.28124982 -0.40753812
-0.21617821 0.0037999488 -0.025899004 -0.070870064 0.22769313 -0.021553146 -0.24521394 0.060925525
0.4115879 -0.096042044 0.1335208 -0.14805792 -0.2078012 0.0051163645 -0.4883144 0.12444804
0.18865989 -0.37299523 -0.1299011 0.14974236 0.14988239 -0.08219503 0.074936494 0.20301414
0.037666015 0.21506736 0.3516189 -0.38696975 -0.056088302 -0.270338 0.2862916 0.4872071
0.1469626 -0.17974061 0.17083098 -0.02754179 -0.22754833 -0.27723736 0.045081615 0.11446206
-0.045701202 0.098951615 0.04340777 0.06136433 -0.019718494 -0.053064782 0.068931535 -0.1241242
-0.12283826 -0.10610107 -0.05146647 -0.13066936 0.09631649 -0.10645148 0.0456608 -0.1213993
-0.059084047 0.02100308 -0.021276843 0.021191811 -0.088650145 -0.06653498 0.011665114 0.12889683
-0.04242093 -0.023028402 -0.022578236 0.08391521 -0.0070857154 0.092665695 0.16011842 0.077764675
-0.12436024 -0.12187173 -0.116852686 -0.019315172 -0.123621926 0.03517636 0.013147107 -0.17971994
0.10317707 -0.025315134 -0.06541723 -0.14492342 0.036853693 -0.21015866 0.046555772 -0.059690442
-0.08435031 -0.0040110294 -0.018124158 0.017430501 -0.15925992 -0.050490867 0.006163521 -0.17322087
-0.10968675 0.08029562 -0.089263745 -0.0055164946 -0.0012292892 -0.022598336 0.017696893 -0.13264325
-0.042083062 -0.12985039 0.0339108 -0.22051772 0.06373132 -0.36434063 -0.11490391 -0.3783623
0.22973643 -0.059664216 -0.37710512 0.2866904 0.12806922 0.18617418 0.21524814 -0.009281757
0.013757937 -0.41696733 -0.060750823 -0.26275948 -0.19580328 0.03461339 0.33293602 -0.054419927
0.27332708 -0.11549451 -0.2521352 -0.24171643 0.3128844 0.071942165 -0.091323815 0.023928551
-0.18756601 0.043760553 -0.018221896 0.0315447 -0.11786404 0.098046534 0.39989308 -0.63490486
-0.19043142 -0.4211767 -0.08032531 -0.108359836 0.018352773 -0.010063066 0.26120842 0.26144463
-0.034531154 -0.1613254 -0.24603164 0.2081714 -0.1885364 -0.0133051835 -0.05332551 -0.08640524
-0.010363382 0.096081585 0.39737728 0.1544909 -0.011337994 -0.21410283 0.1715976 -0.24043211
00000000: 35aa 253e e3af e7bb d990 a9be 020d b9be
00000010: ad3d 43bd 3ebf 273e 4910 fcbd c65e 80bf
00000020: c33a 78bf 5ce5 71be f571 093d eb22 043e
00000030: 161d 6a3e b19d dcbd 9206 6fbe c637 21be
00000040: 42e9 cbbe cd0f bb3d e492 a03d 682d 0abd
00000050: eaa8 21bf ece5 173e dc12 af3e 2942 84be
00000060: 8e9f afbe e78d c9bd 97e1 41be 76dd a2be
00000070: 488f 11bf 2e1b f3be 1027 96be a927 e4bc
00000080: d105 d53b 3b5a 8dbd ac62 5b3e 1736 aabe
00000090: cfc5 22bd 23bc 84bd ff45 7e3e c61b 0c3e
000000a0: 2206 903d 97f7 523c 8d6f c1be 80f6 623c
000000b0: 1ae7 e83c 1413 2ebe 03c1 713e a507 ea3d
000000c0: 9193 b83d f295 8a39 1803 773e fb22 b0be
000000d0: 30ef fb3e 950d 4dbd 15ec 86bd b4e6 8d3e
000000e0: d7df f03d 921a 603b d856 a03e a9f2 3f3e
000000f0: 117b d4bc 423e 65be bae6 123d 2e93 503c
00000100: 1da3 023e c4e5 ab3d b333 10be af02 90bc
00000110: 77d3 35be 15f6 8bbd 495e 223e e2dc 123e
00000120: 7588 b23e aed2 9fbe 2b34 4bbe ca7c b53d
00000130: 3e64 b2be 36f8 b4bd 05fe 8dbe 35ef 88be
00000140: fa66 4ebf 0f65 03be 3716 1f3d ac00 4e3e
00000150: bbc2 e6be 8529 6f3d faff 8fbe d6a8 d0be
00000160: d25d 5dbe 9008 793b 262a d4bc 5324 91bd
00000170: 6328 693e 3990 b0bc 5d19 7bbe 0b8d 793d
00000180: a6bb d23e b1b1 c4bd adb9 083e 7f9c 17be
00000190: d6c9 54be 2da7 a73b 5804 fabe 9dde fe3d
000001a0: 0f30 413e 3bf9 bebe cb04 05be 1056 193e
000001b0: c57a 193e de55 a8bd 4e78 993d f0e2 4f3e
000001c0: ae47 1a3d 9e3a 5c3e 6407 b43e e620 c6be
000001d0: d9bc 65bd be69 8abe d094 923e 3673 f93e
000001e0: 5d7d 163e ec0d 38be 51ee 2e3e 529f e1bc
000001f0: 6e02 69be 0ef2 8dbe 80a7 383d 166b ea3d
00000200: 2f31 3bbd 25a7 ca3d 59cc 313d 2a59 7b3d
00000210: ae88 a1bc 755a 59bd fa2b 8d3d d434 febd
00000220: a092 fbbd 854b d9bd 81ce 52bd 30ce 05be
00000230: 9441 c53d 3c03 dabd d206 3b3d 32a0 f8bd
00000240: 1d02 72bd a70e ac3c c64c aebc 739a ad3c
00000250: 358e b5bd 7e43 88bd 091f 3f3c 88fd 033e
00000260: 92c1 2dbd 0fa6 bcbc fef5 b8bc bddb ab3d
00000270: 4a2f e8bb 83c7 bd3d 15f6 233e 1643 9f3d
00000280: 95b0 febd e397 f9bd 7650 efbd da3a 9ebc
00000290: 7e2d fdbd 1615 103d f766 573c 8108 38be
000002a0: 804e d33d af61 cfbc 78f9 85bd ce66 14be
000002b0: e6f3 163d d533 57be 44b1 3e3d f77d 74bd
000002c0: dbbf acbd f46e 83bb 1d79 94bc 69ca 8e3c
000002d0: 0815 23be 83cf 4ebd 5df7 c93b d060 31be
000002e0: 72a3 e0bd 0872 a43d e9cf b6bd b6c3 b4bb
000002f0: 1a20 a1ba 2520 b9bc 13f9 903c a2d3 07be
00000300: 4a5f 2cbd 80f7 04be 0de6 0a3d 66cf 61be
00000310: 9185 823d db8a babe be52 ebbd b4b8 c1be
00000320: 0740 6b3e 7762 74bd ec13 c1be 16c9 923e
00000330: 9424 033e 72a4 3e3e 026a 5c3e 8312 18bc
00000340: f868 613c be7c d5be dbd5 78bd 6988 86be
00000350: a880 48be c5c6 0d3d 9776 aa3e 6ee7 5ebd
00000360: 87f1 8b3e 6388 ecbd dd17 81be 8384 77be
00000370: 6232 a03e 6a56 933d fb07 bbbd cf05 c43c
00000380: 4e11 40be 443e 333d 1646 95bc 0435 013d
00000390: b462 f1bd 9fcc c83d c9be cc3e 2089 22bf
000003a0: 7400 43be 79a4 d7be 9981 a4bd c3eb ddbd
000003b0: 8e58 963c 8fdf 24bc 1cbd 853e 12dc 853e
000003c0: 8a70 0dbd 7c32 25be b8ef 7bbe e22a 553e
000003d0: b00f 41be fcfd 59bc da6b 5abd 3bf5 b0bd
000003e0: 2dcb 29bc 6cc6 c43d 0975 cb3e dd32 1e3e
000003f0: fec2 39bc c63d 5bbe 48b7 2f3e d633 76be

layers.2.bias f4 [64]
0.0032454606 -0.086937904 -0.16972294 -0.032567807 0.0062669734 -0.016468834 -0.078566976 -0.15881588
-0.12060795 0.085146226 0.043018684 -0.07995942 -0.0140747335 0.041226085 -0.079216346 -0.016557818
-0.1119872 0.08282102 -0.16623586 -0.06504284 0.15364866 -0.0056041637 -0.07061384 0.014730084
0.043130964 0.10874323 -0.23791727 -0.15362652 -0.24920972 -0.24121271 -0.09578092 -0.01865369
-0.0021335622 0.053794753 -0.13476223 -0.0037637625 -0.07691966 -0.10920842 -0.14087215 0.03062182
0.050743766 0.009878347 0.015160112 -0.14835863 0.08444121 0.059102956 -0.13532746 -0.013855513
-0.08693018 -0.2230754 -0.060212173 0.08083049 -0.06417275 -0.106390305 0.09260923 -0.12056812
-0.11787987 0.04431791 -0.02283999 -0.06741956 0.022880279 0.057799235 0.013974306 -0.091846496
00000000: cbb1 543b 800c b2bd dacb 2dbe d265 05bd
00000010: 2f5b cd3b a6e9 86bc b9e7 a0bd a1a0 22be
00000020: 4d01 f7bd 2561 ae3d 5c34 303d c4c1 a3bd
00000030: b699 66bc afdc 283d 2e3c a2bd 43a4 87bc
00000040: 8c59 e5bd 119e a93d bc39 2abe 2e35 85bd
00000050: 1356 1d3e 22a3 b7bb fd9d 90bd 7356 713c
00000060: 18aa 303d c5b4 de3d 96a0 73be 4550 1dbe
00000070: d530 7fbe 7700 77be c928 c4bd a0cf 98bc
00000080: 3cd3 0bbb e357 5c3d 1cff 09be 75a9 76bb
00000090: 0e88 9dbd aaa8 dfbd ca40 10be 9cda fa3c
000000a0: b2d8 4f3d cad8 213c 1e62 783c 53eb 17be
000000b0: 83ef ac3d f115 723d 4893 0abe 3c02 63bc
000000c0: 7308 b2bd e16d 64be 0aa1 76bd 758a a53d
000000d0: 016d 83bd 29e3 d9bd e8a9 bd3d 6bec f6bd
000000e0: 006b f1bd b286 353d ee1a bbbc 4413 8abd
000000f0: 6c6f bb3c e4be 6c3d 7df4 643c 041a bcbd

layers.4.weight f4 [64, 64]
0.2114769 0.13803394 0.081529394 0.2506577 0.35602862 0.42772615 -0.51922536 -0.06111596
0.091012225 0.07861894 0.08676104 -0.009095277 -0.35739598 0.0014575704 -0.16164428 -0.004310499
-0.12117948 0.29988587 0.5264441 0.04100486 -0.22499284 0.101921074 -0.27808958 0.3805305
-0.07574518 0.2570039 -0.053227507 -0.08466884 -0.002641452 0.3134222 -0.068877414 0.106331915
-0.23771508 -0.19822422 -0.2869254 -0.050357677 0.049276397 -0.71931916 0.1806693 0.30798912
-0.37057456 -0.022858856 0.17927903 -0.18258841 0.003707214 0.06050751 0.103921495 0.048250917
-0.12869662 -0.055889234 -0.47908667 0.13130091 0.10725623 -0.12030675 -0.048888218 0.24145257
0.15845212 -0.23034921 0.009899835 -0.5354289 -0.44359797 0.16713923 0.24401933 0.21090713
-0.17178135 -0.1907699 0.083418414 0.1604559 0.11175706 -0.109050915 0.19687307 -0.052635014
-0.06973396 -0.05668026 0.03248381 -0.15453212 -0.0030569136 0.061423108 0.08554981 0.24451649
-0.2588542 -0.1821914 0.36341053 -0.4978666 -0.24019797 0.15539826 0.2786816 -0.33696878
-0.07689416 -0.36833292 0.15308146 -0.036014177 0.07232156 0.19625288 -0.11031377 0.32521364
-0.33126435 0.07501845 -0.03917779 0.0060249516 -0.059196763 -0.26142052 -0.81502026 0.20947525
-0.3487917 -0.054342512 0.313386 0.012554797 -0.054239605 -0.40998372 -0.024664849 -0.03805283
-0.3578948 0.11887059 -0.11807296 -0.027080286 -0.18713562 0.053758327 -0.27438366 -0.09934426
0.7287184 -0.35541654 -0.110953465 -0.23160821 0.35129282 0.12565504 0.1755688 -0.047646217
0.022493629 0.09989258 0.1449618 0.019676039 0.119304106 -0.14238562 0.183816 0.07525802
-0.027000338 -0.33201614 0.451973 0.034346126 -0.34324858 -0.23624712 -0.0045214305 0.24149597
0.28806886 -0.047693428 -0.03993125 -0.39644405 0.13117178 -0.10650118 -0.22013995 0.29529244
0.07398217 0.22280923 -0.20723352 0.100576475 0.10719243 0.306306 -0.0854101 0.25352618
-0.20829034 0.07888487 -0.3534409 0.0631307 -0.07000415 0.2504573 0.0717875 0.26366907
0.10898543 0.045554098 0.5819856 0.20287032 -0.065187074 -0.0641496 -0.0007190775 -0.51077455
-0.0042564855 0.034812428 -0.15993832 -0.2974234 -0.40844786 -0.17848091 0.21266021 -0.16240199
0.3795422 -0.0692834 0.29463863 0.2259669 0.19893265 0.011273416 0.33322307 -0.08755581
-0.0986754 0.06367934 -0.09098805 -0.09043033 -0.032781042 0.077670865 -0.02367772 -0.08030364
-0.099984415 0.07649872 0.030046882 0.0067550647 0.07099089 -0.0526346 -0.1064742 0.03455777
0.04429582 0.073381744 -0.005052715 0.06860971 -0.02508766 -0.12058099 0.090044744 -0.11465971
-0.012786871 -0.050045025 0.03390135 -0.06034178 0.017935598 0.066554606 -0.076270595 0.11025137
-0.101339 -0.021658516 0.06620879 -0.044881985 0.113833 0.035618413 -0.15026256 0.04211478
-0.057021603 0.052869137 0.0614695 -0.11054876 -0.06174221 0.028815482 0.07765715 0.055625606
-0.024323044 -0.08550547 -0.004559999 0.027318293 -0.0025660032 -0.119210854 -0.02298015 0.080784425
-0.020190367 0.029929703 0.055638395 0.058688127 0.03923587 -0.13791768 -0.068832815 -0.002754087
00000000: 678d 583e c558 0d3e e2f8 a63d 3556 803e
00000010: 6249 b63e ecfe da3e f4eb 04bf bb54 7abd
00000020: 9e64 ba3d f802 a13d c6af b13d 5b04 15bc
00000030: 9bfc b6be f20b bf3a 1486 25be 163f 8dbb
00000040: f22c f8bd a48a 993e 0ac5 063f b6f4 273d
00000050: 8664 66be ffbb d03d c261 8ebe e5d4 c23e
00000060: 4a20 9bbd 0496 833e 1605 5abd db66 adbd
00000070: 361c 2dbb e078 a03e 9a0f 8dbd 8cc4 d93d
00000080: 956b 73be 4afb 4abe e3e7 92be da43 4ebd
00000090: 0cd6 493d 4d25 38bf 5f01 393e c0b0 9d3e
000000a0: f3bb bdbe 7f42 bbbc ec94 373e 75f8 3abe
000000b0: bbf4 723b b9d6 773d cbd4 d43d c1a2 453d
000000c0: 0cc9 03be 1cec 64bd d94a f5be bf73 063e
000000d0: 28a9 db3d 6363 f6bd 033f 48bd 583f 773e
000000e0: 4641 223e aae0 6bbe eb32 223c de11 09bf
000000f0: 461f e3be 8c26 2b3e 34e0 793e 0af8 573e
00000100: 73e7 2fbe 2f59 43be 46d7 aa3d 8d4e 243e
00000110: e3e0 e43d 1656 dfbd 1899 493e d097 57bd
00000120: aed0 8ebd 8f29 68bd be0d 053d ab3d 1ebe
00000130: 8056 48bb cc96 7b3d bd34 af3d 8862 7a3e
00000140: 8a88 84be 6290 3abe f210 ba3e 5fe8 febe
00000150: 75f6 75be b920 1f3e 5baf 8e3e 2c87 acbe
00000160: af7a 9dbd 2296 bcbe 63c1 1c3e 9a83 13bd
00000170: 531d 943d 84f6 483e 30ec e1bd 6782 a63e
00000180: 7b9b a9be 46a3 993d e478 20bd f56c c53b
00000190: 4e78 72bd e9d8 85be 2ba5 50bf ae80 563e
000001a0: d394 b2be 4196 5ebd 2174 a03e a3b2 4d3c
000001b0: 592a 5ebd 63e9 d1be f00d cabc 49dd 1bbd
000001c0: fd3d b7be 6d72 f33d 3cd0 f1bd 7ad7 ddbc
000001d0: 7ba0 3fbe b131 5c3d 047c 8cbe 0175 cbbd
000001e0: 4a8d 3a3f 28f9 b5be 923b e3bd b42a 6dbe
000001f0: a7dc b33e b7ab 003e 4fc8 333e ae28 43bd
00000200: 8f44 b83c 7b94 cc3d de70 143e a52f a13c
00000210: b655 f43d 89cd 11be 433a 3c3e e020 9a3d
00000220: d02f ddbc 05fe a9be 0169 e73e 86ae 0c3d
00000230: 47be afbe c4ea 71be 8228 94bb b84a 773e
00000240: c37d 933e 2f5a 43bd f38e 23bd b7fa cabe
00000250: e551 063e 4a1d dabd 5e6c 61be 9230 973e
00000260: f783 973d 1a28 643e 0635 54be 0afb cd3d
00000270: b487 db3d 24d4 9c3e 7eeb aebd 2fce 813e
00000280: 104a 55be 648e a13d 35f6 b4be ab4a 813d
00000290: 565e 8fbd f03b 803e 5305 933d a2ff 863e
000002a0: c133 df3d ef96 3a3d 02fd 143f 3dbd 4f3e
000002b0: cd80 85bd de60 83bd 7980 3cba 1fc2 02bf
000002c0: fd79 8bbb 7a97 0e3d dfc6 23be e147 98be
000002d0: 1420 d1be b3c3 36be 99c3 593e b54c 26be
000002e0: 5b53 c23e 75e4 8dbd e0da 963e de63 673e
000002f0: 00b5 4b3e 22b4 383c 379c aa3e 7650 b3bd
00000300: 5416 cabd 506a 823d f157 babd 8933 b9bd
00000310: 6a45 06bd e711 9f3d c7f7 c1bc 3c76 a4bd
00000320: a1c4 ccbd 5cab 9c3d e124 f63c 9759 dd3b
00000330: ac63 913d 6197 57bd 250f dabd 738c 0d3d
00000340: 896f 353d 2b49 963d 3f91 a5bb 3f83 8c3d
00000350: a384 cdbc 2bf3 f6bd 6169 b83d b6d2 eabd
00000360: 0680 51bc 03fc 4cbd 24dc 0a3d f128 77bd
00000370: aded 923c c84d 883d c233 9cbd 78cb e13d
00000380: d28a cfbd 336d b1bc 7998 873d 2cd6 37bd
00000390: 4721 e93d 9de4 113d 6ede 19be 8c80 2c3d
000003a0: 7c8f 69bd 4f8d 583d 71c7 7b3d 6367 e2bd
000003b0: 66e5 7cbd 720e ec3c b60a 9f3d add7 633d
000003c0: 1f41 c7bc 7e1d afbd 0b6c 95bb 9dca df3c
000003d0: 642a 28bb d224 f4bd de40 bcbc 4e72 a53d
000003e0: 4566 a5bc 232f f53c 16e5 633d f662 703d
000003f0: cbb5 203d 4b3a 0dbe 38f8 8cbd ea7d 34bb

layers.4.bias f4 [64]
-0.10140822 -0.02398201 -0.17379548 -0.13446638 0.04787534 0.08599569 -0.122769885 0.037813295
-0.12981372 -0.10054551 0.11029934 -0.08075047 0.045299254 -0.069240786 0.11979498 -0.1806205
-0.09256118 -0.051837154 0.06555637 -0.13965712 0.029609565 -0.10918116 0.032122243 -0.060306545
-0.22130497 0.013729117 0.088756435 0.119527996 -0.16442595 -0.075579956 0.04179141 -0.16595712
0.12835263 -0.13820893 -0.03799541 -0.16386598 -0.17642097 -0.0039479407 -0.19096445 0.012162426
-0.033640523 -0.025782658 -0.0041322256 -0.10689722 -0.11779996 -0.07397674 -0.13257986 -0.2120944
0.043878738 -0.051393792 0.06908675 -0.14089485 0.067180805 -0.05477859 0.09641803 0.082153104
0.07737663 0.00060898234 -0.11982504 0.083329946 -0.046364807 0.00018247435 -0.0874346 0.066829115
00000000: 1daf cfbd ec75 c4bc 71f7 31be 8eb1 09be
00000010: ef18 443d 821e b03d c76e fbbd 1de2 1a3d
00000020: e3ed 04be ceea cdbd 9fe4 e13d 8160 a5bd
00000030: b68b 393d 1dce 8dbd 1257 f53d 95f4 38be
00000040: b790 bdbd 3253 54bd 6b42 863d 4702 0fbe
00000050: c28f f23c 5f9a dfbd 9d92 033d ff03 77bd
00000060: c59d 62be 17f0 603c efc5 b53d 18cb f43d
00000070: 475f 28be aac9 9abd 782d 2b3d aaf0 29be
00000080: df6e 033e a486 0dbe 13a1 1bbd 7ccc 27be
00000090: b3a7 34be ba5d 81bb 2f8c 43be e944 473c
000000a0: a5ca 09bd 2736 d3bc 9f67 87bb eeec dabd
000000b0: 1b41 f1bd 1e81 97bd 04c3 07be 462f 59be
000000c0: 31ba 333d 4c82 52bd 5b7d 8d3d bd46 10be
000000d0: 1796 893d 845f 60bd d176 c53d e33f a83d
000000e0: a377 9e3d 1da4 1f3a d566 f5bd e4a8 aa3d
000000f0: 06e9 3dbd 9656 3f39 e910 b3bd b4dd 883d

layers.6.weight f4 [64, 64]
0.047852736 0.21986991 0.39080223 0.06053014 -0.3641576 -0.01910208 -0.15586902 -0.27723968
0.10485307 0.0218869 -0.19375242 0.06440761 -0.039491434 -0.023451786 0.08457916 0.014557599
-0.15497094 0.25932232 -0.060393866 0.057222757 -0.4083787 0.3540876 0.13634728 -0.14690872
0.067471854 -0.23418416 0.12922989 0.056512263 -0.029141674 0.060330663 -0.05939403 0.00494546
0.33876407 0.412827 -0.16200808 -0.086792335 -0.06873064 -0.08144101 0.02136395 0.02407083
0.111561425 -0.18014255 -0.28894392 -0.014507453 0.2532434 -0.0008180612 0.12882563 -0.33248055
-0.3929659 -0.48358646 0.004609894 -0.08598106 -0.05531231 0.08975318 -0.21829925 -0.5334442
-0.07989062 -0.05925307 -0.15032879 0.17216398 0.22685494 0.106103584 -0.62747574 -0.09386781
-0.5809556 -0.17411633 0.27343872 0.003833357 -0.12761857 -0.03462397 0.14870241 0.107955724
-0.44659472 -0.010623257 -0.20709728 -0.06430875 0.17668822 -0.264947 0.18126012 -0.15278585
0.033679787 0.51698756 -0.10131808 0.5093527 0.06370728 -0.26678112 0.24583948 -0.22233902
0.2517814 0.16843922 0.16347711 -0.032270998 0.09572793 -0.1741193 -0.24760564 -0.08597845
-0.40817982 -0.43133104 -0.22966813 -0.10615345 -0.013300759 -0.31818283 0.14895521 -0.31382316
0.36143106 0.5365903 -0.1422678 0.044431083 -0.15297598 0.056291435 -0.08775926 0.5531816
-0.6099838 0.58631045 -0.064802654 0.12979609 -0.07274823 0.3177127 0.4341907 0.40775907
0.08550109 0.07338207 0.027971452 0.0010686512 -0.65560323 0.08973668 0.45877323 0.15418842
0.06994028 -0.011178894 -0.038515683 0.11603522 -0.12787016 -0.1289383 -0.004297855 -0.01997962
0.052246973 0.0620476 -0.06900949 0.06557466 -0.022858199 0.10411822 -0.08684776 -0.06694729
-0.0072608655 -0.039445836 -0.10076592 -0.1652749 -0.07189922 0.001694913 0.05471968 0.1449356
0.06471719 -0.18448241 0.018818067 -0.12232338 0.09858243 -0.07447722 0.163846 -0.058355264
0.055311285 -0.07563398 0.053430103 0.055101365 -0.11011922 -0.09799627 0.10148117 -0.19437909
-0.06995335 0.021968875 -0.08532071 -0.016510308 0.08298349 0.065149434 -0.002461459 -0.17058602
-0.10966095 -0.027077675 -0.029609147 -0.074762754 0.009691578 -0.073130876 -0.08404191 -0.12360166
-0.0052614594 -0.0169133 -0.09137208 -0.18765303 0.24360926 -0.09175159 -0.07185048 -0.046975505
-0.015523682 0.24737331 -0.017039496 -0.008092999 -0.2880079 -0.09222808 -0.08067163 -0.25931993
-0.011840489 0.019035622 -0.2232218 -0.065197945 -0.11732906 0.033729993 0.061247617 -0.040501792
-0.025125796 -0.25806737 -0.2870459 0.2755728 -0.4861093 0.2397322 -0.012279403 -0.041052207
-0.092509285 -0.35205156 0.14089832 0.107148394 0.07905617 -0.19762221 -0.048504066 -0.14677125
0.34708777 0.22227342 -0.42409298 0.078479014 -0.017566111 0.009761532 0.028585952 0.389461
-0.05282722 -0.29400232 -0.4811665 0.0034699594 0.43179983 0.11529705 0.067016006 -0.2267895
0.29488495 -0.244824 0.08420796 0.020992152 -0.13781627 -0.0005018133 0.071959265 -0.3087804
-0.1937661 0.01713921 -0.60487705 0.10057131 -0.13920857 -0.12127575 -0.37899923 -0.0016686879
00000000: 3b01 443d 9425 613e 3b17 c83e 74ee 773d
00000010: dd72 babe f77b 9cbc 219c 1fbe 5cf2 8dbe
00000020: 35bd d63d 284c b33c 0967 46be 23e8 833d
00000030: c5c1 21bd f61d c0bc d737 ad3d ff82 6e3c
00000040: b4b0 1ebe e5c5 843e 8f5f 77bd 6962 6a3d
00000050: 0317 d1be f84a b53e 9f9e 0b3e 3d6f 16be
00000060: af2e 8a3d f9cd 6fbe d754 043e 6779 673d
00000070: 85ba eebc 491d 773d 2847 73bd 860d a23b
00000080: 7c72 ad3e 0f5e d33e 72e5 25be 2ec0 b1bd
00000090: a6c2 8cbd 8bca a6bd 7303 af3c 3030 c53c
000000a0: 517a e43d 4a77 38be 75f0 93be abb0 6dbc
000000b0: 1ea9 813e 2873 56ba deea 033e e43a aabe
000000c0: d432 c9be a598 f7be 980e 973b d716 b0bd
000000d0: 298f 62bd 84d0 b73d d789 5fbe cd8f 08bf
000000e0: b29d a3bd 59b3 72bd caef 19be c14b 303e
000000f0: a94c 683e d64c d93d 40a2 20bf c43d c0bd
00000100: 82b9 14bf 8d4b 32be 2900 8c3e 0f39 7b3b
00000110: 71ae 02be ddd1 0dbd 7245 183e e417 dd3d
00000120: 10a8 e4be 2b0d 2ebc 4f11 54be 4eb4 83bd
00000130: c2ed 343e 22a7 87be 419c 393e e573 1cbe
00000140: d1f3 093d 4c59 043f db7f cfbd f064 023f
00000150: f678 823d 8997 88be 58bd 7b3e d7ac 63be
00000160: 7ee9 803e 557b 2c3e 8b66 273e 982e 04bd
00000170: 010d c43d 544c 32be 558c 7dbe 7815 b0bd
00000180: f2fc d0be 6cd7 dcbe 1f2e 6bbe fb66 d9bd
00000190: 6deb 59bc dce8 a2be b787 183e 6ead a0be
000001a0: 7e0d b93e fb5d 093f a6ae 11be 5efd 353d
000001b0: bca5 1cbe d991 663d 20bb b3bd 4f9d 0d3f
000001c0: e627 1cbf 7118 163f 41b7 84bd 44e9 043e
000001d0: 06fd 94bd 3dab a23e 3e4e de3e ccc5 d03e
000001e0: 321b af3d 5749 963d 6324 e53c fc11 8c3a
000001f0: 9dd5 27bf ddc7 b73d 53e4 ea3e 92e3 1d3e
00000200: d93c 8f3d ae27 37bc 9fc2 1dbd e0a3 ed3d
00000210: 65f0 02be 6708 04be 05d5 8cbb 4dac a3bc
00000220: ec00 563d a025 7e3d d954 8dbd 024c 863d
00000230: 1e41 bbbc ef3b d53d 3ddd b1bd a91b 89bd
00000240: 8eec edbb f591 21bd 5d5e cebd d33d 29be
00000250: e63f 93bd d827 de3a be21 603d ff69 143e
00000260: 728a 843d f5e8 3cbe 5928 9a3c ae84 fabd
00000270: 96e5 c93d 8387 98bd 3fc7 273e ee05 6fbd
00000280: 168e 623d fde5 9abd 86d9 5a3d f8b1 613d
00000290: 3086 e1bd 45b2 c8bd 5cd5 cf3d 500b 47be
000002a0: b443 8fbd 12f8 b33c a0bc aebd a040 87bc
000002b0: 3ff3 a93d 116d 853d 6e50 21bb 1aae 2ebe
000002c0: ec95 e0bd 00d2 ddbc e28e f2bc 371d 99bd
000002d0: 6dc9 1e3c a4c5 95bd 2a1e acbd de22 fdbd
000002e0: 5268 acbb c38d 8abc 4921 bbbd 1e28 40be
000002f0: b574 793e 42e8 bbbd 5826 93bd 6369 40bd
00000300: 0b57 7ebc 6e4f 7d3e 6a96 8bbc 8098 04bc
00000310: c575 93be 13e2 bcbd 2b37 a5bd 95c5 84be
00000320: 9cfe 41bc 98f0 9b3c 4194 64be 8086 85bd
00000330: 384a f0bd 7628 0a3d c8de 7a3d 35e5 25bd
00000340: 9dd4 cdbc 6821 84be aef7 92be e117 8d3e
00000350: 51e3 f8be 5c7c 753e 8d2f 49bc 5c26 28bd
00000360: 8275 bdbd 1a40 b4be a647 103e 9e70 db3d
00000370: 34e8 a13d 7a5d 4abe 33ac 46bd 344b 16be
00000380: 7db5 b13e a59b 633e b722 d9be 9bb9 a03d
00000390: cee6 8fbc d5ee 1f3c 162d ea3c 6f67 c73e
000003a0: 5b61 58bd 7987 96be 755b f6be 4268 633b
000003b0: de14 dd3e dc20 ec3d b03f 893d 823b 68be
000003c0: 29fb 963e 25b3 7abe 3975 ac3d bcf7 ab3c
000003d0: b51f 0dbe 1f8c 03ba 615f 933d 7718 9ebe
000003e0: 9f6a 46be 8767 8c3c 39d9 1abf 55f8 cd3d
000003f0: b18c 0ebe 6c5f f8bd 300c c2be e0b7 daba

layers.6.bias f4 [64]
0.14808996 0.08712443 -0.09614058 0.1565624 -0.14666514 -0.023561154 0.18345705 0.068383195
-0.12214011 0.053934176 0.13416456 -0.026633374 0.10367769 0.10051914 -0.111715004 -0.09210846
-0.14901102 -0.08174021 0.038515735 0.054712426 -0.019169262 0.042251628 -0.019862683 -0.13831867
-0.14657602 -0.110406354 0.08062097 -0.099694885 -0.032569 -0.14044644 0.10459693 -0.1617802
0.069882765 0.16164166 -0.07476878 0.12288124 -0.20474821 0.042048734 -0.14980143 -0.097690314
0.15683508 0.11407303 -0.09417479 -0.08071762 -0.0991152 0.022149436 0.035912704 -0.1055748
-0.12110305 0.041208234 -0.07954648 -0.07019855 0.14935596 0.10063833 -0.081664175 0.102586746
-0.0669334 -0.12453293 -0.0675335 0.044401057 -0.15012436 -0.05105716 0.15196946 -0.12293817
00000000: e5a4 173e 4b6e b23d 5ae5 c4bd e551 203e
00000010: 632f 16be 5203 c1bc 2adc 3b3e 7d0c 8c3d
00000020: 9824 fabd 15ea 5c3d 6f62 093e 3c2e dabc
00000030: f854 d43d fbdc cd3d d6ca e4bd 5ca3 bcbd
00000040: 5896 18be 6967 a7bd adc2 1d3d 231a 603d
00000050: db08 9dbc 0b10 2d3d 11b7 a2bc 69a3 0dbe
00000060: 0618 16be ba1c e2bd 9b1c a53d d52c ccbd
00000070: 1267 05bd 31d1 0fbe ea36 d63d b5a9 25be
00000080: b21e 8f3d 6485 253e 6020 99bd 29a9 fb3d
00000090: 84a9 51be 4b3b 2c3d 8c65 19be dc11 c8bd
000000a0: 6099 203e 1f9f e93d b6de c0bd 484f a5bd
000000b0: e9fc cabd bc72 b53c 3319 133d 9a37 d8bd
000000c0: e004 f8bd f7c9 283d 44e9 a2bd 42c4 8fbd
000000d0: c5f0 183e 781b ce3d 8c3f a7bd 0019 d23d
000000e0: 6114 89bd 1f0b ffbd 014f 8abd e2dd 353d
000000f0: 33ba 19be 5021 51bd e29d 1b3e 02c7 fbbd

layers.8.weight f4 [64, 64]
-0.10135325 -0.14616644 0.10051854 0.030544838 -0.06409307 0.11859329 0.06661464 -0.008967494
0.018633293 -0.17048106 0.09235707 -0.003372279 0.050215088 -0.093540676 0.07035594 0.0356071
0.064144224 0.11957085 -0.011572279 -0.11147233 0.025069416 -0.00465701 -0.06816873 -0.092352
0.082023606 -0.020570446 -0.01283575 -0.027495652 -0.040856086 0.120546296 0.019957831 0.09569222
-0.02513697 -0.053155996 0.072174326 -0.03243787 -0.0806738 -0.05320201 -0.046695277 0.06232877
-0.14066634 0.008853061 0.09385181 0.017471578 -0.05784011 -0.03738475 -0.07476117 -0.085933
-0.026324615 0.021051386 0.11674377 0.045343027 0.03693038 0.056576233 -0.07546863 -0.15594855
-0.04192755 0.015341207 -0.12823533 -0.14500323 -0.08685094 0.08323245 -0.037322856 -0.07540776
-0.09498378 0.27149618 -0.022934169 -0.22522485 -0.51749927 0.21396007 0.23632538 0.5374817
-0.058252 0.10314657 -0.2134292 -0.0735752 -0.2273469 -0.17044237 0.13859054 -0.04870294
-0.036860496 -0.07607458 0.58541256 0.18043897 0.02385979 0.22711906 0.01439915 0.2567585
0.06897619 -0.010397691 0.0734413 0.05748619 -0.00013376353 -0.17490003 0.19186734 -0.07602375
0.17687331 0.34928745 0.0018678856 -0.3589052 0.3334777 0.09214885 -0.028777778 -0.36765334
-0.13298307 -0.10882531 0.021404874 -0.07519998 -0.01934924 -0.37042788 0.28417754 -0.14260063
0.04843229 0.1870072 0.054091662 -0.0535452 -0.35671484 0.48254 0.044728804 -0.13224311
-0.018975737 0.13735491 -0.089315094 0.22020984 -0.30947146 -0.04847481 -0.35250092 -0.20249884
0.01005656 0.0023211187 -0.0020434358 0.013039549 0.19812845 0.0028579582 0.0037113843 -0.011730708
-0.16961074 0.06678876 0.04906215 -0.06243037 -0.09845898 0.08761562 -0.041547775 -0.057091072
0.048954606 -0.03307216 -0.16050842 0.10114067 -0.03004986 -0.057194006 -0.06202818 -0.20695683
0.09665947 -0.04440698 -0.03159528 -0.11522159 0.101741746 0.0007648021 -0.08998495 -0.0672808
-0.09300413 -0.078094274 0.010151245 -0.030899428 -0.13681686 0.08631171 -0.07685085 0.030461833
-0.093729086 -0.040936336 0.027072862 0.09103192 0.09564333 -0.03678406 -0.060857587 0.09131963
-0.106236905 0.04037407 -0.058373332 -0.13081358 -0.013116412 0.027969014 -0.10265394 0.06682379
-0.12491876 0.078260675 0.07014528 -0.036513496 -0.10859671 0.09035455 -0.11449837 -0.17650782
-0.0035120095 -0.00914777 0.10594791 0.024555143 0.060349554 0.076740995 -0.12604222 -0.0031504005
-0.053565603 -0.142528 -0.050429977 -0.015352626 0.06660575 0.032172915 -0.05087679 0.050910152
-0.10376194 0.08139286 -0.06747056 -0.0023371754 0.10062823 -0.043252934 -0.044907767 -0.114125445
0.12010996 -0.0038856145 0.016156172 0.0956508 0.10487803 0.01644055 -0.045011465 -0.11231546
-0.005451595 -0.033064216 -0.09337923 -0.021426905 0.016237566 0.065334804 -0.08722284 -0.011694746
-0.13342094 -0.1413954 -0.106880985 -0.04140984 -0.08325322 0.03348123 0.03671351 0.016495585
0.007722363 -0.17580166 -0.014174759 -0.06878294 0.10674849 -0.06064243 -0.07442029 -0.038677387
0.05621768 0.12368428 -0.08461136 0.044484332 -0.036011495 0.049192097 0.00014532628 -0.028126264
00000000: 4b92 cfbd a8ac 15be aadc cd3d 2b39 fa3c
00000010: 3a43 83bd 0ae1 f23d 426d 883d 65ec 12bc
00000020: d9a4 983c 9692 2ebe b425 bd3d 7401 5dbb
00000030: 56ae 4d3d 4192 bfbd c616 903d c0d8 113d
00000040: 0c5e 833d 90e1 f43d a899 3dbc 9b4b e4bd
00000050: 605e cd3c d599 98bb 0c9c 8bbd 0c23 bdbd
00000060: fefb a73d 5a83 a8bc 0a4d 52bc 903e e1bc
00000070: b658 27bd fae0 f63d 9b7e a33c 48fa c33d
00000080: 0cec cdbc 1aba 59bd 22d0 933d 92dd 04bd
00000090: 4e38 a5bd 5aea 59bd 8c43 3fbd 744c 7f3d
000000a0: d60a 10be 6e0c 113c 6135 c03d 8e20 8f3c
000000b0: c0e9 6cbd c020 19bd 621c 99bd a4fd afbd
000000c0: b8a6 d7bc f573 ac3c 5c17 ef3d 9cb9 393d
000000d0: 4f44 173d 7bbc 673d 4c8f 9abd fab0 1fbe
000000e0: 39bc 2bbd b059 7b3c 1f50 03be ba7b 14be
000000f0: e8de b1bd c675 aa3d dadf 18bd 626f 9abd
00000100: db86 c2bd 8c01 8b3e 70e0 bbbc 58a1 66be
00000110: d57a 04bf 5918 5b3e 48ff 713e 6798 093f
00000120: a699 6ebd 823e d33d 2f8d 5abe 98ae 96bd
00000130: a0cd 68be 7288 2ebe aeea 0d3e bc7c 47bd
00000140: 08fb 16bd fdcc 9bbd 99dd 153f fec4 383e
00000150: 9b75 c33c e691 683e 6aea 6b3c da75 833e
00000160: 6443 8d3d 145b 2abc 6468 963d a476 6b3d
00000170: e042 0cb9 fe18 33be df78 443e 57b2 9bbd
00000180: 471e 353e ced5 b23e d7d3 f43a 6cc2 b7be
00000190: 97bd aa3e 89b8 bc3d 60bf ebbc 0f3d bcbe
000001a0: b72c 08be cedf debd 4659 af3c 7202 9abd
000001b0: 4c82 9ebc b9a8 bdbe b87f 913e e605 12be
000001c0: f060 463d d17e 3f3e 388f 5d3d 3652 5bbd
000001d0: 54a3 b6be 7c0f f73e 8d35 373d bd6a 07be
000001e0: 0173 9bbc c4a6 0c3e d5ea b6bd b07e 613e
000001f0: 0b73 9ebe 868d 46bd 007b b4be db5b 4fbe
00000200: 45c4 243c e91d 183b 2aeb 05bb d5a3 553c
00000210: 2fe2 4a3e 954c 3b3b b23a 733b 2832 40bc
00000220: 70ae 2dbe 8cc8 883d 65f5 483d fdb6 7fbd
00000230: dda4 c9bd d16f b33d 002e 2abd 54d8 69bd
00000240: a084 483d ac76 07bd 525c 24be d722 cf3d
00000250: 202b f6bc 4344 6abd 4311 7ebd 7eec 53be
00000260: 66f5 c53d 18e4 35bd 0d6a 01bd 4cf9 ebbd
00000270: fa5d d03d 007d 483a 084a b8bd 84ca 89bd
00000280: f378 bebd e4ef 9fbd 6851 263c cc20 fdbc
00000290: b819 0cbe 32c4 b03d fa63 9dbd 188b f93c
000002a0: 09f5 bfbd dcac 27bd e8c7 dd3c f16e ba3d
000002b0: a6e0 c33d e2aa 16bd ce45 79bd c905 bb3d
000002c0: bc92 d9bd 485f 253d e018 6fbd fff3 05be
000002d0: 38e6 56bc 461f e53c 3b3c d2bd e9da 883d
000002e0: 68d5 ffbd 2247 a03d 54a8 8f3d 2d8f 15bd
000002f0: f467 debd ce0b b93d 1f7e eabd 77be 34be
00000300: be29 66bb 87e0 15bc 38fb d83d de27 c93c
00000310: 1831 773d 622a 9d3d 3611 01be f376 4ebb
00000320: 9b67 5bbd dcf2 11be aa8f 4ebd 9589 7bbc
00000330: 9868 883d bfc7 033d 2e64 50bd 2a87 503d
00000340: 2481 d4bd 4db1 a63d 012e 8abd 4c2b 19bb
00000350: 2c16 ce3d fd29 31bd 35f1 37bd 9aba e9bd
00000360: 36fc f53d cba5 7ebb f359 843c 91e4 c33d
00000370: 4bca d63d 55ae 863c f15d 38bd a605 e6bd
00000380: 4ba3 b2bb 586e 07bd 9c3d bfbd 7a87 afbc
00000390: a504 853c 41ce 853d e3a1 b2bd 529b 3fbc
000003a0: 809f 08be f5c9 10be 6be4 dabd 5d9d 29bd
000003b0: aa80 aabd 9d23 093d e860 163d c021 873c
000003c0: e00b fd3b 5a05 34be 403d 68bc 12de 8cbd
000003d0: f49e da3d 3264 78bd aa69 98bd 2e6c 1ebd
000003e0: 8344 663d 2f4e fd3d b948 adbd 3435 363d
000003f0: ca80 13bd a77d 493d ba62 1839 0d69 e6bc

layers.8.bias f4 [64]
-0.06643045 0.054033816 -0.01209136 -0.04350179 -0.0842769 -0.14910789 -0.12937671 0.16483964
-0.07408634 -0.12531754 -0.10539919 -0.1317252 -0.065481775 -0.1187227 0.2287031 0.08784565
-0.12853865 -0.105931476 -0.1296555 0.0070229545 0.044327613 0.086873814 -0.031449776 0.115902305
0.07172361 -0.12871087 -0.16960387 -0.09156265 -0.09620633 0.06821878 -0.03276513 0.18305844
-0.07108471 0.17733389 -0.025298053 -0.16124979 0.15187055 -0.14725548 -0.028277341 0.068071455
0.088529445 -0.07051368 -0.023271976 0.14196955 -0.11969635 0.17224109 -0.086971894 -0.08920932
0.005168157 -0.07674129 0.08735801 0.12988678 -0.08757661 -0.0836057 0.048495285 -0.057598278
0.102131724 -0.06583037 0.20203772 0.1143293 -0.08173904 -0.011759864 -0.0510716 -0.114464924
00000000: b00c 88bd 9052 5d3d d71a 46bc ef2e 32bd
00000010: 5e99 acbd bdaf 18be 547b 04be b9cb 283e
00000020: 94ba 97bd 3e53 00be 88db d7bd f9e2 06be
00000030: 4f1b 86bd e324 f3bd 2531 6a3e 6ce8 b33d
00000040: a39f 03be 9af2 d8bd 69c4 04be d020 e63b
00000050: df90 353d e6ea b13d 7bd1 00bd 305e ed3d
00000060: d4e3 923d c8cc 03be a3ac 2dbe 3385 bbbd
00000070: d307 c5bd 4ab6 8b3d bb34 06bd ac73 3b3e
00000080: dc94 91bd 0497 353e dd3d cfbc aa1e 25be
00000090: f483 1b3e 24ca 16be e2a5 e7bc 0c69 8b3d
000000a0: ed4e b53d 7a69 90bd dfa4 bebc 7760 113e
000000b0: 5c23 f5bd f85f 303e 521e b2bd 60b3 b6bd
000000c0: a559 a93b 8a2a 9dbd c2e8 b23d 0a01 053e
000000d0: 5e5b b3bd 7739 abbd fea2 463d 2cec 6bbd
000000e0: 702a d13d 13d2 86bd fae2 4e3e 7b25 ea3d
000000f0: cc66 a7bd 72ac 40bc 7430 51bd 966c eabd

layers.10.weight f4 [64, 64]
-0.0058063734 0.07093802 0.029980501 -0.09763323 -0.1294793 -0.075170726 -0.010041119 0.15743735
-0.059568882 -0.077074826 -0.00059277285 -0.12112123 -0.054028437 -0.034764737 0.0067525636 0.05444336
0.0058958894 0.060054034 -0.06690591 -0.21834321 0.11359653 -0.0057383194 0.0891015 -0.1642356
-0.30015367 0.0042147315 0.07069405 -0.05054729 -0.07950173 -0.11629941 -0.0819422 -0.0076363143
-0.21626346 -0.18435319 -0.17363794 0.22442831 0.07869674 -0.067452334 -0.022558568 -0.17016445
-0.09832071 -0.09831552 0.062955886 -0.08607575 -0.075309746 0.36480686 -0.123612106 -0.08352816
-0.12912339 -0.5487608 0.16126212 -0.06270291 -0.08017452 0.1029661 -0.29436463 -0.041325122
-0.55978763 -0.07919744 0.42281306 -0.13704012 0.035437703 -0.48059705 -0.10105893 -0.096140176
-0.024369523 -0.20327881 -0.03186177 -0.05238481 0.031023568 -0.11369447 -0.13283578 -0.16572803
0.08762061 -0.028229421 -0.09227533 0.028614968 0.038237598 0.048352256 -0.42412034 -0.22919741
-0.1235211 -0.022962978 0.08760699 0.17358427 0.1933474 -0.25468466 0.14077048 -0.05720467
0.34122378 0.12093252 0.026061552 0.01011723 0.13015395 -0.044296835 -0.08317316 -0.14749208
0.3446207 0.6347812 0.30222103 -0.046078257 -0.10778093 -0.014870073 -0.00066875556 0.18675403
-0.020206183 0.024655357 -0.16265674 0.04271857 0.07162748 -0.6519782 -0.07304216 0.014001979
0.24007615 0.5485296 -0.40048972 -0.09288275 0.13640518 0.28852084 0.26052427 0.03129995
0.86840725 0.041300397 -0.4023291 -0.07563564 0.075563304 0.33465213 0.042145208 -0.1030909
-0.0799472 -0.20609266 -0.015313829 0.06080498 0.057232764 -0.04163777 -0.01833549 -0.123523556
0.098369345 0.03164736 -0.24085627 0.025033884 0.038202345 0.057634216 -0.29715204 -0.2347885
0.06637303 -0.041545756 0.11390956 0.05224136 0.11203955 -0.17921486 -0.0044692177 -0.17442296
0.2802619 0.023105944 0.025489086 -0.017040858 -0.22022802 -0.10600161 -0.062537715 -0.16078012
0.086796276 0.6190173 0.19207911 0.15254666 -0.15089054 -0.024536725 -0.009744342 0.045396995
-0.027052175 -0.08560864 0.1175689 -0.05977043 -0.13527817 -0.4062724 -0.07846521 0.09478624
-0.027771201 0.31618723 -0.16510712 -0.22161715 -0.0034511655 0.19952573 0.05397325 -0.10921941
0.63135356 0.083908916 -0.2894394 -0.06910043 -0.111523084 0.053214766 -0.091858014 -0.07659598
0.005044323 -0.3628557 0.11942394 0.049443144 -0.09782419 0.065634765 -0.082965225 -0.10495468
0.023309864 0.029102504 0.1104019 0.09682674 0.053288884 0.04514116 -0.47884992 -0.042341698
0.06046449 0.015418232 0.024140367 -0.026553962 0.36294785 -0.46386826 0.083308615 -0.2864671
-0.024597596 0.07279916 0.29719737 0.11241299 -0.32405332 -0.51664037 0.11497664 -0.13847002
-0.033389986 0.6981792 -0.096872024 0.09279464 -0.036614157 0.07738309 -0.0066878623 -0.092365555
-0.21510136 -0.073468216 0.026090238 0.012552073 0.046973653 -0.018383607 0.07811992 -0.07962167
0.061214056 -0.26336208 -0.13253392 -0.2541314 0.0075406684 0.1517429 -0.18193214 -0.030555679
0.4942053 -0.0064892415 0.4162747 -0.09993849 0.053682704 -0.35086617 0.0628178 -0.024167046
00000000: 6443 bebb f447 913d ab99 f53c eef3 c7bd
00000010: 3996 04be 1cf3 99bd 8183 24bc 4237 213e
00000020: 80fe 73bd 68d9 9dbd 5064 1bba 680e f8bd
00000030: ec4c 5dbd 7865 0ebd 9c44 dd3b 0000 5f3d
00000040: 4e32 c13b 38fb 753d f705 89bd 5d95 5fbe
00000050: 4ca5 e83d 8308 bcbb d97a b63d 612d 28be
00000060: bead 99be bb1b 8a3b 0bc8 903d ad0a 4fbd
00000070: ced1 a2bd 632e eebd 50d1 a7bd 0c3a fabb
00000080: 2b74 5dbe 15c7 3cbe 25ce 31be 89d0 653e
00000090: c22b a13d 7324 8abd bfcc b8bc 973f 2ebe
000000a0: 5e5c c9bd a659 c9bd 04ef 803d 7c48 b0bd
000000b0: ff3b 9abd f7c7 ba3e 5828 fdbd d010 abbd
000000c0: ec38 04be 967b 0cbf e621 253e 626a 80bd
000000d0: 8a32 a4bd e4df d23d f6b6 96be 8844 29bd
000000e0: 3e4e 0fbf 4432 a2bd f47a d83e 3f54 0cbe
000000f0: 2027 113d d110 f6be fcf7 cebd 24e5 c4bd
00000100: 98a2 c7bc 5228 50be 7d81 02bd 7491 56bd
00000110: 2325 fe3c a5d8 e8bd 1a06 08be 9cb4 29be
00000120: 6f72 b33d 6341 e7bc d9fa bcbd f069 ea3c
00000130: 079f 1c3d 040d 463d 4d26 d9be bab2 6abe
00000140: a1f8 fcbd db1c bcbc 4b6b b33d 13c0 313e
00000150: dcfc 453e 0766 82be 2326 103e 724f 6abd
00000160: e2b4 ae3e 78ab f73d 097f d53c bdc2 253c
00000170: 1447 053e 9970 35bd b156 aabd 2a08 17be
00000180: 2072 b03e 0581 223f b7bc 9a3e 8ebc 3cbd
00000190: 40bc dcbd 9ba1 73bc 6d4f 2fba 733c 3f3e
000001a0: 7087 a5bc 08fa c93c 7d8f 26be abf9 2e3d
000001b0: 6eb1 923d 0be8 26bf 2197 95bd 8e68 653c
000001c0: 86d6 753e 706c 0c3f fd0c cdbe 5039 bebd
000001d0: cdad 0b3e 01b9 933e 7063 853e 6034 003d
000001e0: f04f 5e3f 9b2a 293d 14fe cdbe dce6 9abd
000001f0: efc0 9a3d 8657 ab3e 74a0 2c3d 5221 d3bd
00000200: 5cbb a3bd f409 53be dbe6 7abc a50e 793d
00000210: e76c 6a3d 5e8c 2abd 4f34 96bc ebf9 fcbd
00000220: de75 c93d aaa0 013d 07a3 76be dc13 cd3c
00000230: 107a 1c3d db11 6c3d 5024 98be 666c 70be
00000240: 95ee 873d e22b 2abd 6a49 e93d 09fb 553d
00000250: fe74 e53d 1a84 37be 8472 92bb ef9b 32be
00000260: 7d7e 8f3e ad48 bd3c 7dce d03c 4599 8bbc
00000270: 7483 61be 5f17 d9bd c613 80bd 8ba3 24be
00000280: 3fc2 b13d eb77 1e3f 63b0 443e 3135 1c3e
00000290: 0d83 1abe 3e01 c9bc bca6 1fbc 33f2 393d
000002a0: 869c ddbc 9553 afbd f7c7 f03d d7d1 74bd
000002b0: 5c86 0abe f002 d0be 5eb2 a0bd 4a1f c23d
000002c0: 6e80 e3bc 4be3 a13e d711 29be 9bef 62be
000002d0: f32c 62bb 7950 4c3e 0e13 5d3d 6dae dfbd
000002e0: 63a0 213f 70d8 ab3d 6731 94be 8784 8dbd
000002f0: 3766 e4bd baf7 593d 0e20 bcbd 5ade 9cbd
00000300: d94a a53b 39c8 b9be 8a94 f43d e584 4a3d
00000310: 0d58 c8bd 856b 863d ace9 a9bd 7bf2 d6bd
00000320: 54f4 be3c 6068 ee3c 641a e23d 194d c63d
00000330: 7245 5a3d f0e5 383d d12b f5be 7d6e 2dbd
00000340: 9da9 773d c19c 7c3c 05c2 c53c b287 d9bc
00000350: 4dd4 b93e 2480 edbe b59d aa3d d1ab 92be
00000360: e680 c9bc ba17 953d 412a 983e c838 e63d
00000370: 51ea a5be 8b42 04bf df78 eb3d 16cb 0dbe
00000380: f0c3 08bd dfbb 323f d764 c6bd 1e0b be3d
00000390: baf8 15bd 077b 9e3d db25 dbbb 272a bdbd
000003a0: 8843 5cbe 8176 96bd 32bb d53c 36a7 4d3c
000003b0: 7267 403d 3899 96bc 56fd 9f3d b010 a3bd
000003c0: 97bb 7a3d 65d7 86be f9b6 07be 831d 82be
000003d0: b617 f73b 7e62 1b3e 6b4c 3abe e74f fabc
000003e0: 7a08 fd3e b4a3 d4bb f521 d53e 8dac ccbd
000003f0: 65e2 5b3d bba4 b3be 9ea6 803d f8f9 c5bc

layers.10.bias f4 [64]
0.19626611 0.02161212 -0.112598985 0.31644902 -0.3014111 0.14623071 0.17759345 0.085520595
-0.040701788 -0.11270837 -0.076282434 -0.13382852 0.07199091 -0.0695229 -0.31555513 0.3742958
0.052789226 -0.09090819 -0.2576914 0.30525166 0.06278466 0.14101042 -0.030429147 -0.09211392
0.3743878 0.026995888 -0.03964383 0.08834157 0.08721938 0.035666563 0.0612444 -0.011413043
0.047807734 -0.012793256 -0.040125992 -0.19367541 -0.0908014 0.046790093 0.2993197 0.061603073
0.117095426 -0.07911533 -0.09267678 0.27396202 0.10297919 -0.32981053 -0.35610974 0.079231076
0.058301076 -0.040279504 -0.1138407 0.1601843 0.0023861506 -0.24929373 -0.09150763 0.3678332
-0.0843027 -0.101949304 -0.16746324 0.06131988 0.03935847 -0.057674635 -0.17867646 -0.0771439
00000000: fcf9 483e e70b b13c 4c9a e6bd 9b05 a23e
00000010: 8e52 9abe 81bd 153e 0fdb 353e 6c25 af3d
00000020: ebb6 26bd a5d3 e6bd f739 9cbd 580a 09be
00000030: f86f 933d 0662 8ebd 7190 a1be b3a3 bf3e
00000040: 8439 583d 132e babd 21f0 83be f249 9c3e
00000050: 3e95 803d 0965 103e 8c46 f9bc 39a6 bcbd
00000060: c2af bf3e 7b26 dd3c 9261 22bd 6dec b43d
00000070: 13a0 b23d 1a17 123d 68db 7a3d c6fd 3abc
00000080: 0bd2 433d ce9a 51bc 275b 24bd d952 46be
00000090: 16f6 b9bd f8a6 3f3d 6f40 993e 8153 7c3d
000000a0: bacf ef3d 3807 a2bd 53cd bdbd c044 8c3e
000000b0: c1e6 d23d eddc a8be 0454 b6be e743 a23d
000000c0: 1ccd 6e3d 1ffc 24bd 5025 e9bd 5a07 243e
000000d0: f760 1c3b db46 7fbe 5a68 bbbd a254 bc3e
000000e0: e5a6 acbd ccca d0bd 7c7b 2bbe 8e2a 7b3d
000000f0: 5936 213d 3d3c 6cbd f6f6 36be 9ffd 9dbd
