watermark_reliability_release/watermarks/aiwei23/model/sub_net.pt (torch, 125557 bytes, 16 tensors)

layers.0.weight f4 [64, 16]
0.24818897 0.3929168 -0.26945642 -0.09067616 -0.80092794 0.11663699 -0.20885146 0.08487693
-0.47264782 0.22358753 -0.31729528 0.1216718 0.36809534 -0.3133122 0.07159876 -0.14804186
0.028108671 -0.07467979 0.34670973 -0.7404308 -0.6083706 -0.4237202 -0.20524332 0.08670373
-0.5415035 0.31437972 0.3651582 -0.38700587 0.31950936 -0.24514289 -0.25510514 -0.36855423
-0.37392128 -0.0030583818 -0.63298124 0.41399795 0.058700167 0.35598522 -0.0019333959 0.039605677
-0.72067547 -0.88535875 -0.22823527 -0.19836015 0.22679752 -0.59212834 0.0749853 0.036826428
-0.19315538 -0.41884068 -0.033533648 -0.06555617 -0.45139536 -0.49196377 -0.4461207 -0.20329018
0.41011047 0.123469904 -0.5575269 0.32442668 0.031029679 -0.46080688 0.19871914 -0.491156
-0.3216297 0.028254736 -0.2742337 0.07404133 -0.26652485 -0.31442338 -0.13307783 -0.32234296
0.0558936 0.3155621 0.47299334 0.26174146 0.1883708 -0.12881052 0.22034007 0.18380025
-0.13882281 -0.32826236 0.26040718 -0.35424292 -0.08548682 -0.25635898 0.048077125 0.009760984
0.47348958 0.3435234 0.30215856 0.1926592 0.37894747 -0.60403776 0.14683998 -0.08543045
-0.26636764 0.44095954 -0.45017126 -0.26588628 0.103192955 0.35130125 -0.04381489 0.21509671
-0.14845634 -0.4038426 0.28007317 -0.45706108 0.05517602 -0.63042724 0.39209718 0.3670806
-0.006756594 -0.55568004 0.09108383 0.32711405 0.3651961 -0.4358472 0.17776912 -0.116829336
-0.0542742 0.09558596 0.2420387 -0.24291004 0.429931 0.06675063 0.18593329 -0.47932795
0.2661351 -0.04475781 -0.32262442 -0.2752509 0.44827536 0.030992553 0.4965919 -0.29939663
0.08457762 0.10169253 0.37799975 -0.038357303 -0.2050592 -0.04003628 -0.15386467 -0.015339512
-0.30397576 -0.25153413 0.14510296 -0.20684044 0.14736584 -0.048692666 -0.06549209 0.23398398
-0.5577266 -0.13804775 -0.2103249 0.3965879 0.3397521 0.09890564 0.569389 -0.35618535
0.204324 -0.5411231 -0.6266079 0.01301458 0.28531244 0.10090248 -0.37698802 -0.22528046
-0.08859379 0.44247714 0.36206758 -0.27676824 0.42866275 -0.43496823 -0.046728436 -0.12396842
0.120572045 0.15681054 0.25455272 0.3103942 0.2836055 -0.096369654 -0.742787 0.039461862
-0.35770804 -0.0013731543 -0.3601022 0.22167878 0.29255545 0.07473019 0.24568704 -0.030083802
-0.38189912 -0.3012003 0.20520313 0.049157485 -0.31513077 0.33553573 -0.15515572 -0.39797902
-0.56946045 0.13529709 0.46732748 0.13281402 -0.25014022 0.33495972 0.26026595 -0.2667689
0.38271093 0.09618002 0.017538736 -0.51591927 -0.08656133 0.35925603 -0.086138114 -0.3257736
-0.09021691 0.329767 0.1340194 -0.0568707 0.05895848 0.22834143 -0.50539804 -0.29235896
-0.017759021 -0.084759526 0.092246175 0.012162598 -0.08735572 0.017924586 -0.22640958 0.08655058
0.0036806539 -0.10205419 -0.20338225 -0.035462573 -0.06699646 0.044576615 -0.22818372 0.010962228
0.17528479 -0.06366267 0.21792121 0.20759237 0.06800224 0.51626617 -0.16411889 -0.43632922
-0.4390143 -0.3402775 -0.2582729 0.18943954 -0.19082262 0.19514316 0.019863231 -0.11897697
00000000: 4025 7e3e 642c c93e 31f6 89be 6cb4 b9bd
00000010: 9d09 4dbf 60df ee3d 28dd 55be f5d3 ad3d
00000020: e5fe f1be 21f4 643e 8774 a2be 112f f93d
00000030: fe76 bc3e 756a a0be 5fa2 923d 4998 17be
00000040: 2844 e63c b8f1 98bd f083 b13e df8c 3dbf
00000050: 2dbe 1bbf dbf1 d8be 4e2b 52be ba91 b13d
00000060: f99f 0abf 61f6 a03e 04f6 ba3e a225 c6be
00000070: bb96 a33e bd06 7bbe 249d 82be 24b3 bcbe
00000080: 9c72 bfbe 226f 48bb 0f0b 22bf 8af7 d33e
00000090: 966f 703d b243 b63e 006a fdba 9039 223d
000000a0: 307e 38bf dfa6 62bf 82b6 69be ec1e 4bbe
000000b0: 9c3d 683e b995 17bf e591 993d 4fd7 163d
000000c0: 86ca 45be 4972 d6be 945a 09bd 5042 86bd
000000d0: 4b1d e7be ade2 fbbe ef69 e4be 4d2b 50be
000000e0: 00fa d13e cadd fc3d 15ba 0ebf 411b a63e
000000f0: f431 fe3c e1ee ebbe 087d 4b3e cd78 fbbe
00000100: a6ac a4be 7a76 e73c 5c68 8cbe fba2 973d
00000110: f275 88be 1afc a0be 8e45 08be 230a a5be
00000120: b0f0 643d 5b91 a13e 2f2c f23e fa02 863e
00000130: 46e4 403e e8e6 03be d4a0 613e 2236 3c3e
00000140: 9127 0ebe 0112 a8be 1754 853e 545f b5be
00000150: b713 afbd 7c41 83be 85ec 443d 89ec 1f3c
00000160: 3a6d f23e 4de2 af3e 87b4 9a3e 7448 453e
00000170: 6705 c23e 38a2 1abf 385d 163e 29f6 aebd
00000180: 5761 88be 73c5 e13e d97c e6be 3f22 88be
00000190: d456 d33d c2dd b33e 3e77 33bd 5042 5c3e
000001a0: f004 18be 75c4 cebe c065 8f3e e903 eabe
000001b0: 4000 623d ae63 21bf f6c0 c83e fdf1 bb3e
000001c0: 6b66 ddbb 0c41 0ebf 298a ba3d 7e7b a73e
000001d0: fcfa ba3e 5d27 dfbe 1c09 363e 3844 efbd
000001e0: a04e 5ebd 92c2 c33d fed8 773e 69bd 78be
000001f0: eb1f dc3e 8eb4 883d 4c65 3e3e 796a f5be
00000200: dc42 883e f753 37bd 072f a5be b0ed 8cbe
00000210: 5984 e53e 18e4 fd3c 4b41 fe3e 844a 99be
00000220: 0837 ad3d 2c44 d03d 2f89 c13e 8c1c 1dbd
00000230: 0afb 51be 15fd 23bd b38e 1dbe 9452 7bbc
00000240: b6a2 9bbe 15c9 80be df95 143e fbcd 53be
00000250: 12e7 163e f671 47bd b820 86bd 7f99 6f3e
00000260: 2cc7 0ebf 645c 0dbe 695f 57be 920d cb3e
00000270: fdf3 ad3e 0a8f ca3d 7ac3 113f ed5d b6be
00000280: 503a 513e 0b87 0abf 6069 20bf 1b3b 553c
00000290: 7914 923e f6a5 ce3d 9304 c1be ecaf 66be
000002a0: a970 b5bd 5d8c e23e ec60 b93e 91b4 8dbe
000002b0: af79 db3e 28b4 debe 5166 3fbd 28e3 fdbd
000002c0: 7aee f63d f192 203e bc54 823e fdeb 9e3e
000002d0: bd34 913e 745d c5bd 4a27 3ebf c3a2 213d
000002e0: 8225 b7be 6afb b3ba 515f b8be c3ff 623e
000002f0: d4c9 953e 240c 993d 6295 7b3e 4e72 f6bc
00000300: 4888 c3be ed36 9abe c520 523e 5c59 493d
00000310: d258 a1be 57cb ab3e 24e1 1ebe e8c3 cbbe
00000320: 29c8 11bf 528b 0a3e 8c45 ef3e 6600 083e
00000330: 6112 80be d77f ab3e 9441 853e ef95 88be
00000340: b0f2 c33e 08fa c43d 65ad 8f3c 4913 04bf
00000350: 1147 b1bd 68f0 b73e 2e69 b0bd cccb a6be
00000360: a5c3 b8bd 38d7 a83e 623c 093e 40f1 68bd
00000370: 727e 713d 56d2 693e c461 01bf 13b0 95be
00000380: 5e7b 91bc 6796 adbd 90eb bc3d a245 473c
00000390: 8ee7 b2bd 95d6 923c ead7 67be 6e41 b13d
000003a0: 2037 713b ca01 d1bd 7043 50be 3441 11bd
000003b0: 7135 89bd f895 363d fea8 69be eb9a 333c
000003c0: db7d 333e 9361 82bd bd26 5f3e 1893 543e
000003d0: c244 8b3d 052a 043f c80e 28be 8b66 dfbe
000003e0: 7bc6 e0be da38 aebe 583c 84be 70fc 413e
000003f0: 0167 43be 9cd3 473e 37b8 a23c 33aa f3bd

layers.0.bias f4 [64]
0.24365142 0.04559643 -0.20260493 0.2584137 -0.09386257 -0.24315117 -0.19376509 -0.18530037
-0.14345844 -0.089289755 0.09340333 -0.2654007 0.20245034 -0.10717747 -0.2424084 0.13229445
-0.025704002 0.031820793 0.012853873 0.16394064 -0.3131531 0.021944312 -0.26913267 0.10440856
-0.43215075 0.15337127 -0.33342952 -0.10141889 0.43918014 -0.26597938 0.10915432 -0.026424315
-0.28298587 0.10107219 -0.051010214 0.13446964 0.32774076 -0.20598926 0.13644774 -0.31689432
-0.19634512 -0.23526073 -0.1523306 -0.10708625 -0.39988762 0.01608217 0.09043644 -0.3659925
-0.23709072 0.33115754 -0.32619277 -0.38560423 -0.11838573 0.076847784 -0.0011876067 -0.061007082
-0.13872305 -0.11334731 -0.15164264 -0.37860495 -0.11735697 0.22695567 -0.49111587 0.010523503
00000000: c27f 793e 52c3 3a3d ab77 4fbe cd4e 843e
00000010: 053b c0bd 9ffc 78be 5b6a 46be 61bf 3dbe
00000020: c5e6 12be 8cdd b6bd 3f4a bf3d 9ae2 87be
00000030: 244f 4f3e dd7f dbbd e839 78be 3278 073e
00000040: 3391 d2bc 8556 023d 0d99 523c 0ee0 273e
00000050: 9a55 a0be 8fc4 b33c c2cb 89be 28d4 d53d
00000060: dd42 ddbe 5c0d 1d3e 46b7 aabe b5b4 cfbd
00000070: 38dc e03e 732e 88be 4d8c df3d ce77 d8bc
00000080: 86e3 90be f0fe ce3d 16f0 50bd 69b2 093e
00000090: a3cd a73e d9ee 52be f5b8 0b3e f93f a2be
000000a0: b20e 49be 30e8 70be 8efc 1bbe 0950 dbbd
000000b0: 12be ccbe c1be 833c be36 b93d 5e63 bbbe
000000c0: e9c7 72be 7b8d a93e bd02 a7be eb6d c5be
000000d0: 3874 f2bd 5f62 9d3d 78a9 9bba 90e2 79bd
000000e0: 6a0d 0ebe a222 e8bd 3548 1bbe 82d8 c1be
000000f0: da58 f0bd 1167 683e 8a73 fbbe c56a 2c3c

layers.2.weight f4 [64, 64]
-0.14004338 -0.20495063 -0.8257641 -0.3260273 -0.20212324 0.2066888 0.109884344 -0.17235272
-0.4773098 0.061875816 -0.21880879 -0.014112296 0.076441206 -0.4826289 -0.017271582 0.19287369
-0.6855625 -0.05789253 0.38569468 -0.09188192 -0.7878284 0.33737656 0.13474753 -0.15850441
-0.19199242 0.8950398 0.20632872 -0.07434189 0.224815 0.13930714 -0.8385403 0.22440158
0.6001025 0.37922177 -0.08667876 0.063441366 -0.118697286 -0.19316137 0.15025042 -0.0045208274
-0.24895678 0.018508572 -0.019534452 -0.080049574 -0.0034371216 -0.023472836 0.078424245 -0.3402224
-1.026303 -0.25084907 -0.45524168 -0.21683405 -0.0008889002 -0.23842409 0.066898614 0.10953897
-0.76840764 0.19302177 0.15430297 -0.23337877 0.10259076 -0.24883845 0.008090916 0.4308659
0.069982775 0.33780882 -0.46474484 0.31460795 0.09649323 0.29338023 -0.64466184 0.26410526
0.17022191 -0.47749954 0.5468801 -0.37734336 -0.41364378 0.18225014 0.090882 -0.58426344
0.18098478 -0.53045315 0.049318887 0.32080084 -0.6605415 -0.028984733 -0.01410041 -0.36475497
0.26319072 0.22406031 0.19610628 -0.0056293258 -0.29131046 0.1474969 -0.070755914 0.030702248
0.6347118 -0.59088683 -0.11853027 -0.6357055 -0.23335989 -0.026840804 -0.3151437 0.030786049
0.22979097 -0.5729861 -0.33485287 -0.12759349 0.15401395 0.24539356 -0.18035547 0.20176503
0.23961043 -0.3919617 -0.3488221 -0.15883775 -0.17816588 -0.14033486 -0.8973792 -0.6971063
0.4004936 0.16760877 -0.47575143 0.04972341 -0.16200027 -0.17351153 -0.056934416 -0.100155
0.04398729 -0.5994908 -0.24561405 0.37244746 0.022194691 -0.18893287 -0.2800609 -0.896065
0.105093285 -0.29413584 -0.2342039 0.16258156 0.09462912 -0.67570066 -0.05530232 0.07026959
0.22955324 -0.06482174 0.3497919 0.5685489 0.1833646 -0.17294003 0.16948593 0.099687725
-0.106016375 -0.1864095 0.18653658 0.09605151 0.10625935 -0.22130962 0.25521082 -0.12143634
0.35966536 -0.1640052 0.24576862 -0.055672076 -0.6687797 -0.21373545 0.17994033 -0.026556926
0.0477873 -0.055623777 0.008209388 0.36009687 0.09538869 0.211167 0.2771244 -0.035749942
-0.78961575 0.21339174 -0.8382623 -0.013785109 -0.4292642 -0.07809735 0.38177255 0.16502903
0.42627 -0.2669186 -0.07525279 -0.37983716 -0.4339315 -0.07126207 0.42461535 0.63320553
-0.46596602 0.5247293 -0.4092917 0.29566377 0.10006059 -0.5897343 -0.21695265 -0.646769
0.11483439 -0.26742482 -0.0022571133 -0.8340122 -0.04498353 -0.2372266 -0.06798601 -0.12062744
0.07990513 -0.55460405 0.18886954 0.37692818 0.19549319 -0.45234042 -0.42997253 0.23713857
0.28854722 -0.053634837 0.021759562 -0.15896131 -0.5667985 0.06477921 0.06382472 -0.5659771
-0.008607085 -0.38783404 -0.063419156 0.06482577 -0.0647814 -0.17172791 -0.2759285 0.06338588
0.26334426 -0.13271439 -0.5840291 0.2549822 0.05955529 -0.8291492 0.106909275 0.31128618
0.010158389 0.37367433 0.044764765 0.2931769 0.2016865 -0.43586114 -0.21472912 -0.19109093
-0.6834458 0.19713148 0.074461944 0.0075073107 0.14367719 0.25628322 0.1433176 0.36404186
00000000: 8867 0fbe 94de 51be 4765 53bf 0ded a6be
00000010: 65f9 4ebe 3ba6 533e 0b0b e13d 3b7d 30be
00000020: f361 f4be 7f71 7d3d 690f 60be 4237 67bc
00000030: 358d 9c3d 231b f7be 227d 8dbc ae80 453e
00000040: 0681 2fbf b820 6dbd c679 c53e 972c bcbd
00000050: 1faf 49bf 9fbc ac3e 42fb 093e fb4e 22be
00000060: a999 44be 5421 653f d647 533e 9040 98bd
00000070: e735 663e 88a6 0e3e 94aa 56bf 87c9 653e
00000080: 51a0 193f 5b29 c23e a284 b1bd 8ced 813d
00000090: 9017 f3bd 18cc 45be 3fdb 193e 7323 94bb
000000a0: 87ee 7ebe 4a9f 973c b706 a0bc 08f1 a3bd
000000b0: 5541 61bb 1b4a c0bc e49c a03d a131 aebe
000000c0: e65d 83bf 4a6f 80be 7015 e9be bf09 5ebe
000000d0: 1505 69ba 7225 74be 2402 893d f855 e03d
000000e0: 5db6 44bf 80a7 453e 9901 1e3e d8fa 6ebe
000000f0: 1b1b d23d 82cf 7ebe c38f 043c 759a dc3e
00000100: 2153 8f3d 47f5 ac3e 09f3 edbe 4b14 a13e
00000110: 3e9e c53d ef35 963e 8f08 25bf ce38 873e
00000120: a74e 2e3e d27a f4be 5600 0c3f 2633 c1be
00000130: 1ec9 d3be c89f 3a3e 5820 ba3d 4a92 15bf
00000140: 1354 393e c7cb 07bf 9a02 4a3d 0240 a43e
00000150: 3f19 29bf 6471 edbc 6805 67bc 2ac1 babe
00000160: efc0 863e 1170 653e 16d0 483e 3576 b8bb
00000170: a526 95be 6d09 173e 7ae8 90bd 4883 fb3c
00000180: 797c 223f 5c44 17bf 00c0 f2bd 98bd 22bf
00000190: e5f5 6ebe 3fe1 dbbc 845a a1be 0633 fc3c
000001a0: 534e 6b3e 38af 12bf d671 abbe dea7 02be
000001b0: d5b5 1d3e 7348 7b3e 1baf 38be 7e9b 4e3e
000001c0: 705c 753e 34af c8be cf98 b2be 5da6 22be
000001d0: 1e71 36be f1b3 0fbe a5ba 65bf 8f75 32bf
000001e0: 7f0d cd3e a2a1 2b3e b195 f3be c6aa 4b3d
000001f0: 66e3 25be 02ad 31be 1034 69bd 111e cdbd
00000200: 042c 343d 3b78 19bf 4082 7bbe 6fb1 be3e
00000210: a4d1 b53c 9e77 41be 2464 8fbe 8464 65bf
00000220: 263b d73d f998 96be 26d3 6fbe c87b 263e
00000230: e9cc c13d b8fa 2cbf af84 62bd 81e9 8f3d
00000240: 0110 6b3e 43c1 84bd ed17 b33e 6c8c 113f
00000250: eec3 3b3e 3117 31be b88d 2d3e 1429 cc3d
00000260: 1d1f d9bd 22e2 3ebe 7203 3f3e a7b6 c43d
00000270: 819e d93d fd9e 62be feaa 823e 9eb3 f8bd
00000280: 0f26 b83e fbf0 27be c5aa 7b3e 6708 64bd
00000290: 2535 2bbf 77dd 5abe 4742 383e e98d d9bc
000002a0: 9ebc 433d c2d5 63bd ab80 063c 9e5e b83e
000002b0: 255b c33d 293c 583e 40e3 8d3e 886e 12bd
000002c0: 4224 4abf 5d83 5a3e 5c98 56bf f0da 61bc
000002d0: 84c8 dbbe 81f1 9fbd b177 c33e 5ffd 283e
000002e0: 1040 da3e 8ea9 88be 221e 9abd 047a c2be
000002f0: 452c debe d9f1 91bd 2f67 d93e c219 223f
00000300: 1993 eebe a954 063f af8e d1be 3e61 973e
00000310: 91ec cc3d d4f8 16bf d628 5ebe a792 25bf
00000320: 4b2e eb3d e8eb 88be 14ec 13bb d381 55bf
00000330: a640 38bd 88eb 72be 403c 8bbd 850b f7bd
00000340: 4da5 a33d 88fa 0dbf 0467 413e bbfc c03e
00000350: 5e2f 483e 2a99 e7be 5c25 dcbe 74d4 723e
00000360: 76bc 933e 34b0 5bbd 1c41 b23c c1c6 22be
00000370: b519 11bf f6aa 843d 89b6 823d e0e3 10bf
00000380: bb04 0dbc 2f92 c6be e7e1 81bd 60c3 843d
00000390: 1cac 84bd 71d9 2fbe 8046 8dbe 75d0 813d
000003a0: 0fd5 863e 48e6 07be ee82 15bf 078d 823e
000003b0: 3ff0 733d 1f43 54bf 40f3 da3d e760 9f3e
000003c0: 5f6f 263c 3e52 bf3e 425b 373d 481b 963e
000003d0: e886 4e3e 3129 dfbe f3e1 5bbe 57ad 43be
000003e0: 4ef6 2ebf d6dc 493e 817f 983d e3ff f53b
000003f0: 1d20 133e 8e37 833e d9c1 123e b263 ba3e

layers.2.bias f4 [64]
-0.06597972 -0.12783298 -0.23424235 -0.23952067 0.060703475 -0.2057924 0.09994675 -0.03831801
-0.036774352 -0.09213732 -0.17213541 -0.17449944 -0.024440184 -0.022526706 -0.09747523 -0.07717766
-0.099995494 -0.019244626 0.114591755 -0.22581393 -0.03157869 -0.15975016 -0.22465107 -0.07969319
-0.19278622 -0.13600175 0.08501934 0.14161308 0.016176865 -0.25486404 -0.16202009 -0.015988171
-0.10596667 -0.2638311 -0.08390114 -0.021667635 -0.08544738 0.14274107 0.00023771086 -0.05725077
-0.22011693 0.05360864 0.24681476 -0.039034937 0.00063483533 -0.13373385 -0.16063596 -0.17719209
-0.064718105 -0.12691188 -0.15665597 -0.027489414 -0.3294491 -0.1505386 -0.1032404 0.0020494896
-0.15470949 -0.11181954 0.055593178 -0.05464725 -0.29695207 -0.02610488 -0.091974474 -0.12469144
00000000: 6020 87bd a6e6 02be 3add 6fbe e844 75be
00000010: 35a4 783d 3ebb 52be e2b0 cc3d 58f3 1cbd
00000020: b4a0 16bd 7eb2 bcbd 4444 30be fbaf 32be
00000030: c836 c8bc ed89 b8bc 18a1 c7bd 520f 9ebd
00000040: 70ca ccbd e8a6 9dbc 15af ea3d c43b 67be
00000050: a858 01bd 8c95 23be ee0a 66be 2f36 a3bd
00000060: c069 45be 0b44 0bbe 9f1e ae3d 0503 113e
00000070: 5885 843c 8a7d 82be 98e8 25be a0f9 82bc
00000080: 0e05 d9bd df14 87be 5cd4 abbd 5380 b1bc
00000090: 09ff aebd b72a 123e 0642 7939 c97f 6abd
000000a0: 5566 61be bc94 5b3d 02bd 7c3e 19e3 1fbd
000000b0: 146b 263a 87f1 08be c17d 24be d871 35be
000000c0: ed8a 84bd 30f5 01be 6c6a 20be 7b31 e1bc
000000d0: 8dad a8be ca26 1abe b46f d3bd bb50 063b
000000e0: 2a6c 1ebe a501 e5bd acb5 633d cbd5 5fbd
000000f0: 1a0a 98be e7d9 d5bc 1d5d bcbd 3a5e ffbd

layers.4.weight f4 [64, 64]
0.0066052224 0.28130424 -0.01949266 -0.20758416 -0.24891764 0.19141978 0.35342386 -0.55277544
0.080758095 0.5209734 -0.0082118865 0.064305715 -0.74903333 0.33388224 0.47692686 0.15493278
-0.35150263 -0.0563074 -0.33470613 0.6394251 0.368468 0.08294007 0.064721584 -0.3090501
-0.30133125 -0.47145644 -0.36534816 0.3108893 -0.077372424 -0.44540498 -0.20322785 -0.0010931226
-0.070466384 -0.11666107 0.21334267 -0.5300807 -0.24609439 0.06808974 0.24738537 -0.6648599
-0.4958302 0.20649064 0.3754777 0.04518003 0.32573897 -0.0014326144 -0.43469003 0.09431798
-0.13932508 -0.83778363 -0.16342533 0.36595136 0.30660394 0.04590984 -0.1613873 -0.47415105
0.39755496 -0.07650841 -0.13492008 -0.22499526 -0.39280993 0.13947341 -0.120924614 -0.3546358
-0.09809749 -0.113144 0.030845033 -0.07860435 -0.08306982 -0.07144887 -0.04330602 -0.11648704
0.025013415 -0.0902479 -0.04962356 -0.007495005 0.001307597 -0.08680215 -0.10295057 -0.03781632
0.07292382 -0.10427236 -0.076019086 -0.0730739 0.07777342 -0.064804584 0.058025382 -0.024235344
-0.1464473 -0.12088536 -0.008251803 -0.046510894 -0.055247866 0.00036400883 -0.0521576 0.016698409
0.045629606 -0.1526372 0.02619799 -0.12251611 -0.092159614 -0.1540856 -0.101953804 -0.08622352
0.060913138 -0.006208356 0.017064795 -0.07974706 0.066410474 0.09599857 -0.0215239 -0.03304443
-0.01919787 0.058248464 -0.06800999 -0.033985764 0.048003845 0.098716125 -0.059032924 -0.043813247
0.08209826 -0.107623726 -0.114537545 0.012621142 0.010391312 -0.012944694 -0.16991591 -0.039669205
-0.26097095 -0.23158777 0.413865 0.28098416 0.056525648 -0.033038374 0.22271647 -0.37186867
-0.042768437 0.46187678 0.083588235 -0.33175167 -0.44523495 -0.55791414 0.2682253 0.07688031
-0.41985267 -0.030111209 -0.2738027 0.6271232 0.09751036 -0.20895648 0.07548237 -0.14085217
0.10415541 -0.22618279 -0.115814105 0.30712125 -0.053511057 -0.17704189 0.19380316 0.4763176
0.018658366 0.32477134 0.12425629 -0.092867054 0.04552783 -0.5084861 0.39328977 -0.22088125
-0.23854353 -0.15661667 0.07986983 0.25915265 0.41350475 0.07362572 -0.5125632 0.22332415
0.3717804 -0.1257513 -0.2661648 0.24029855 0.24840692 -0.050686188 -0.39342943 0.3558929
-0.17694728 0.06419601 -0.17175296 -0.18389814 -0.84462124 -0.18627234 0.04424887 -0.008255854
-0.16152915 0.04444412 -0.1300922 0.025339551 -0.14045502 -0.18706524 0.1639224 -0.009902991
0.11323583 -0.032663774 0.04971932 -0.06343876 0.0065958416 -0.17854959 0.047895975 -0.012518766
-0.20264629 0.0842904 -0.09994956 -0.016909346 -0.050876606 -0.20866296 -0.002918028 -0.15230083
-0.1797825 -0.07829926 -0.083330445 0.0031256862 -0.15949139 -0.06678724 -0.073237 0.036738995
0.1493451 -0.13306145 0.048879113 -0.0024021794 -0.011132634 -0.13215563 -0.11329734 0.08665559
0.056119606 -0.015316172 -0.10563883 -0.13863957 -0.16279307 0.090823576 -0.11784864 0.025980394
-0.12608482 -0.01865021 -0.12424158 -0.08817567 0.02991452 0.004134116 0.0042764954 -0.050472144
0.12967601 -0.0004723256 0.02457481 0.029270494 -0.15008591 0.012187852 -0.072118506 0.1258971
00000000: 9f70 d83b 1c07 903e 12af 9fbc f190 54be
00000010: 44e4 7ebe 8c03 443e f9f3 b43e b182 0dbf
00000020: 8064 a53d 835e 053f 268b 06bc b7b2 833d
00000030: a6c0 3fbf 9df2 aa3e c22f f43e b3a6 1e3e
00000040: 27f8 b3be 97a2 66bd 9a5e abbe 5db1 233f
00000050: d6a7 bc3e 7cdc a93d c08c 843d d13b 9ebe
00000060: 1748 9abe bd62 f1be ea0e bbbe e22c 9f3e
00000070: 6f75 9ebd 1f0c e4be f61a 50be 1c47 8fba
00000080: ae50 90bd 00ec eebd 8076 5a3e 5eb3 07bf
00000090: 2b00 7cbe a272 8b3d 9752 7d3e 4234 2abf
000000a0: 75dd fdbe 4872 533e 9d3e c03e b20e 393d
000000b0: 42c7 a63e 90c6 bbba b18f debe c929 c13d
000000c0: 3cab 0ebe fd78 56bf f858 27be fa5d bb3e
000000d0: 31fb 9c3e f50b 3c3d b642 25be edc3 f2be
000000e0: 538c cb3e 71b0 9cbd 7d28 0abe 2865 66be
000000f0: 621e c9be 1ed2 0e3e 53a7 f7bd d392 b5be
00000100: 56e7 c8bd 0bb8 e7bd b9ae fc3c 51fb a0bd
00000110: 8320 aabd c953 92bd a761 31bd c290 eebd
00000120: efe8 cc3c e4d3 b8bd 1342 4bbd a998 f5bb
00000130: ad63 ab3a 53c5 b1bd c0d7 d2bd 49e5 1abd
00000140: 1559 953d bf8c d5bd e5af 9bbd c5a7 95bd
00000150: ac47 9f3d 44b8 84bd 06ac 6d3d 3389 c6bc
00000160: 48f6 15be be92 f7bd 9232 07bc 3582 3ebd
00000170: 964b 62bd 70d8 be39 35a3 55bd 1acb 883c
00000180: 1ce6 3a3d ed4c 1cbe 2b9d d63c bae9 fabd
00000190: 2ebe bcbd 9ec8 1dbe 28cd d0bd f595 b0bd
000001a0: 0e80 793d 776f cbbb 78cb 8b3c 6d52 a3bd
000001b0: 3702 883d e69a c43d e452 b0bc 9959 07bd
000001c0: da44 9dbc f195 6e3d d248 8bbd a834 0bbd
000001d0: ae9f 443d ae2b ca3d 82cc 71bd 8575 33bd
000001e0: 2223 a83d d469 dcbd a992 eabd e8c8 4e3c
000001f0: 5240 2a3c fb15 54bc 70fe 2dbe 2d7c 22bd
00000200: fc9d 85be 5825 6dbe 1de6 d33e 28dd 8f3e
00000210: 7087 673d 3f53 07bd c90f 643e 9265 bebe
00000220: f52d 2fbd 1d7b ec3e 4f30 ab3d 5bdb a9be
00000230: d6f5 e3be 76d3 0ebf d454 893e 6d73 9d3d
00000240: eef6 d6be c8ab f6bc de2f 8cbe 258b 203f
00000250: 83b3 c73d b0f8 55be 8096 9a3d 8d3b 10be
00000260: 6e4f d53d 769c 67be f22f edbd ff3e 9d3e
00000270: 692e 5bbd 784a 35be 5674 463e e7df f33e
00000280: 6ed9 983c 6e48 a63e 157a fe3d 1531 bebd
00000290: 647b 3a3d 252c 02bf 475d c93e b22e 62be
000002a0: c144 74be 1f60 20be cb92 a33d a8af 843e
000002b0: e5b6 d33e 15c9 963d 5837 03bf 16af 643e
000002c0: 005a be3e f3c4 00be c146 88be d310 763e
000002d0: 625e 7e3e 529c 4fbd 956f c9be 9837 b63e
000002e0: ab31 35be 3379 833d 02e0 2fbe cb4f 3cbe
000002f0: 1939 58bf 2dbe 3ebe 4e3e 353d 9043 07bc
00000300: e667 25be 0a0b 363d e436 05be e494 cf3c
00000310: 71d3 0fbe 088e 3fbe 46db 273e 2840 22bc
00000320: 30e8 e73d 73ca 05bd 7ca6 4b3d 2eec 81bd
00000330: ee21 d83b b4d5 36be 922e 443d 831b 4dbc
00000340: 8282 4fbe 72a0 ac3d 5bb2 ccbd 7885 8abc
00000350: fd63 50bd beab 55be 633c 3fbb c0f4 1bbe
00000360: e718 38be 5d5b a0bd 27a9 aabd 50d8 4c3b
00000370: b651 23be c0c7 88bd 48fd 95bd a17b 163d
00000380: eced 183e 4341 08be 7735 483d e26d 1dbb
00000390: a765 36bc ce53 07be 7008 e8bd 7c78 b13d
000003a0: acdd 653d aef0 7abc 2c59 d8bd 88f7 0dbe
000003b0: 3ab3 26be b601 ba3d a15a f1bd d6d4 d43c
000003c0: 611c 01be 53c8 98bc 5f72 febd 7295 b4bd
000003d0: 4c0f f53c 7b77 873b d821 8c3b e1bb 4ebd
000003e0: cac9 043e 78a2 f7b9 1d51 c93c adc8 ef3c
000003f0: 1fb0 19be 8eaf 473c deb2 93bd 2beb 003e

layers.4.bias f4 [64]
-0.09008052 -0.108729675 0.14262725 -0.2324439 -0.14339843 0.14192659 0.07942626 -0.14649563
-0.0607771 -0.017002953 -0.11840796 -0.40795335 -0.22079447 0.08743556 -0.0020767718 -0.08283979
0.061182454 0.17456965 -0.4179696 -0.25749394 0.15612759 -0.029158294 0.1963051 -0.10795013
0.05540084 -0.2423374 0.18724741 -0.14192595 0.09431751 -0.06182331 0.012041356 -0.15198573
-0.15176056 -0.23970008 -0.07832376 0.00851145 -0.18576851 -0.3986409 0.09877137 0.06538695
-0.15932493 -0.0046412507 0.20673956 0.080074064 -0.16475743 -0.1875355 0.24424326 -0.086278506
-0.11716861 -0.07800475 -0.3037154 -0.29377788 -0.006171461 0.15984766 -0.068040654 -0.073205695
-0.03491643 -0.23309188 0.09516249 -0.41498163 -0.10969122 0.119792886 -0.14372827 0.26455244
00000000: 237c b8bd aaad debd e10c 123e c605 6ebe
00000010: 0ad7 12be 3455 113e 3caa a23d f302 16be
00000020: 69f1 78bd c749 8bbc df7f f2bd 43df d0be
00000030: f217 62be 6a11 b33d 731a 08bb e8a7 a9bd
00000040: 749a 7a3d 63c2 323e 1d00 d6be 3fd6 83be
00000050: e9df 1f3e 60dd eebc 3404 493e f514 ddbd
00000060: feeb 623d 4c27 78be c9bd 3f3e 0955 11be
00000070: 8a29 c13d 703a 7dbd 1c49 453c 26a2 1bbe
00000080: 1f67 1bbe f073 75be 3568 a0bd 9c73 0b3c
00000090: 1a3a 3ebe a91a ccbe a548 ca3d 98e9 853d
000000a0: 1326 23be a215 98bb 89b3 533e dffd a33d
000000b0: 2cb6 28be 4e09 40be e81a 7a3e c9b2 b0bd
000000c0: 19f6 efbd f4c0 9fbd 9680 9bbe 0e6a 96be
000000d0: f839 cabb 1baf 233e e658 8bbd deec 95bd
000000e0: 8804 0fbd a3af 6ebe 8de4 c23d 7978 d4be
000000f0: caa5 e0bd f955 f53d 812d 13be 6b73 873e

layers.6.weight f4 [64, 64]
-0.10464898 0.06532061 -0.12146049 -0.060255542 0.04529568 -0.115191996 0.08180352 -0.07321788
0.025974277 -0.052521437 0.10525411 -0.10126573 0.07443903 -0.08513706 -0.050854098 -0.028884754
-0.115515694 -0.10871595 -0.07547796 0.08528884 0.052271355 -0.005800802 0.095510736 -0.0779463
0.0009928157 -0.032499757 0.0135331405 -0.106896736 0.04248555 -0.077990055 -0.080203064 -0.027211051
-0.00014136564 -0.029393032 0.016404979 -0.01837241 -0.10638872 -0.078758076 0.044954393 -0.0525311
-0.01933217 0.0053759953 0.011155906 0.061746534 0.026009902 0.07945774 0.059596352 -0.10660152
0.03302951 -0.0818577 0.013907306 -0.013474464 -0.03877411 0.06747393 -0.040206328 -0.13810824
0.007828534 -0.13281445 -0.055735186 -0.05441485 -0.048971802 -0.029427646 -0.0010217393 -0.10095768
0.018451361 0.008336797 -0.12375735 0.053604513 0.060286596 -0.0015896112 0.0127647305 0.05080451
0.017388027 -0.08964278 -0.039681792 0.095139 0.016905118 0.012159266 0.04432235 0.008813009
0.051728062 -0.08334171 -0.05801122 -0.09356563 -0.12029445 -0.12077464 0.044519797 -0.108870775
-0.05705987 -0.101015955 -0.045842662 -0.010259822 0.0546847 -0.115504995 -0.018398724 0.09354223
-0.091486424 0.06520161 -0.040552825 -0.03510025 -0.12368679 -0.097910866 -0.117932506 0.009469642
-0.120451316 0.08078769 0.0044035288 -0.09955274 0.11255555 0.050283138 -0.04585896 -0.0032930672
0.055841982 -0.08051444 -0.0059443614 -0.10223812 -0.10171957 -0.0912666 0.093772605 -0.028098296
0.051050954 0.10531598 -0.11414026 0.07569608 -0.12732318 -0.103831165 0.039994996 0.04363474
0.17312078 -0.09722041 0.055058114 -0.01425666 0.013931547 0.073586695 0.18911383 -0.108361974
0.091970235 -0.13450755 0.1249511 -0.16697733 0.09100663 -0.07557413 -0.012739434 0.14781146
-0.17737664 -0.04162934 -0.047197726 -0.10506793 -0.05023767 0.17142776 0.044412427 -0.107255794
-0.43752488 -0.0660003 -0.25593516 0.087460026 0.16703121 -0.18062085 0.1174457 0.29684046
-0.06049019 0.14811313 -0.090177 -0.35184315 -0.2358482 -0.26655698 -0.14157495 -0.02137401
-0.041078508 0.31989628 -0.321587 -0.035193674 -0.06055589 -0.08320152 -0.0059203496 -0.094429925
-0.08963007 -0.421752 -0.20943695 0.26752746 0.10068257 0.13076729 -0.10123302 -0.062288582
-0.1656083 -0.305611 -0.2607091 -0.16441552 -0.22937247 0.10260585 -0.007869711 -0.1554746
0.055367343 0.044978365 0.30059034 -0.04290899 -0.0012112133 -0.31684846 -0.06158291 -0.09361958
-0.118254624 -0.12893596 0.22854915 -0.043708477 0.20196715 -0.42635366 -0.013233933 -0.18422717
0.28798503 0.23420359 0.17242166 0.47884423 -0.3236315 -0.4416483 0.22757652 0.15943551
-0.30834207 -0.16187803 -0.4823874 -0.080902666 -0.13923295 0.012688954 -0.60346055 -0.81316555
-0.44907716 0.24167459 -0.28081766 -0.5027798 0.08587672 0.69812703 -0.09813658 -0.04857017
0.09124882 -0.14699164 -0.30864984 -0.38133386 -0.09849112 0.33130145 -0.5387328 0.0035534434
-0.117817566 -0.3417378 -0.07522208 -0.14356427 -0.2933201 0.09947419 -0.056206144 0.0069284486
0.35895914 0.3762906 -0.46592268 0.4418579 0.14380552 -0.40300363 -0.09682229 -0.16928269
00000000: 3452 d6bd d0c6 853d 47c0 f8bd 84ce 76bd
00000010: f787 393d c8e9 ebbd 9b88 a73d 42f3 95bd
00000020: 02c8 d43c b820 57bd 788f d73d 6864 cfbd
00000030: 7d73 983d 575c aebd 634c 50bd b89f ecbc
00000040: 7e93 ecbd 78a6 debd 3094 9abd eaab ae3d
00000050: 7d1a 563d a714 bebb 229b c33d 4fa2 9fbd
00000060: 5e21 823a 771e 05bd 1bba 5d3c adec dabd
00000070: 5405 2e3d 40b9 9fbd 8141 a4bd b6e9 debc
00000080: 8d3b 14b9 a8c9 f0bc bc63 863c bd81 96bc
00000090: 54e2 d9bd ea4b a1bd 1922 383d da2a 57bd
000000a0: 805e 9ebc 1e29 b03b 43c7 363c efe9 7c3d
000000b0: b812 d53c bdba a23d 4e1b 743d e651 dabd
000000c0: f449 073d 03a5 a7bd 78db 633c 00c4 5cbc
000000d0: 9ad1 1ebd c62f 8a3d 64af 24bd 3f6c 0dbe
000000e0: 4043 003c 8300 08be 944a 64bd 1be2 5ebd
000000f0: a896 48bd 3f12 f1bc e2eb 85ba e6c2 cebd
00000100: 4f27 973c 1097 083c 7e74 fdbd 6890 5b3d
00000110: 14ef 763d 805a d0ba 2923 513c 6418 503d
00000120: 5671 8e3c a296 b7bd 6089 22bd 3cd8 c23d
00000130: 9a7c 8a3c a837 473c 5a8b 353d 7064 103c
00000140: cee0 533d 0faf aabd 2c9d 6dbd 569f bfbd
00000150: f05c f6bd b258 f7bd 645a 363d a4f7 debd
00000160: 9cb7 69bd 74e1 cebd 84c5 3bbd d018 28bc
00000170: 10fd 5f3d e28d ecbd ecb8 96bc 1293 bf3d
00000180: 3c5d bbbd 6c88 853d b81a 26bd 48c5 0fbd
00000190: 804f fdbd 7e85 c8bd 9986 f1bd 8f26 1b3c
000001a0: 2eaf f6bd 0474 a53d 7a4b 903b 4fe2 cbbd
000001b0: 8683 e63d b1f5 4d3d 9bd6 3bbd 80d0 57bb
000001c0: 90ba 643d c1e4 a4bd ebc8 c2bb 3862 d1bd
000001d0: 5a52 d0bd fce9 babd da0b c03d 662e e6bc
000001e0: ce1a 513d e8af d73d 5ec2 e9bd 8c06 9b3d
000001f0: 0261 02be 6fa5 d4bd cbd1 233d 57ba 323d
00000200: 9346 313e 7f1b c7bd 9e84 613d c494 69bc
00000210: 2541 643c 9fb4 963d 0ea7 413e e2ec ddbd
00000220: e45a bc3d 59bc 09be 5de6 ff3d 1bfc 2abe
00000230: af61 ba3d 9cc6 9abd 0fb9 50bc e35b 173e
00000240: 39a2 35be 8783 2abd 6752 41bd db2d d7bd
00000250: 04c6 4dbd c28a 2f3e cee9 353d eda8 dbbd
00000260: 4303 e0be 2a2b 87bd ef09 83be 3e1e b33d
00000270: 3b0a 2b3e acf4 38be 5f87 f03d 79fb 973e
00000280: 90c4 77bd f8aa 173e b8ae b8bd c924 b4be
00000290: 3182 71be 287a 88be 06f9 10be 8c18 afbc
000002a0: f041 28bd 72c9 a33e 0da7 a4be 3e27 10bd
000002b0: 7409 78bd 8f65 aabd 7eff c1bb 7a64 c1bd
000002c0: f88f b7bd e1ef d7be a476 56be 5cf9 883e
000002d0: aa32 ce3d dce7 053e 4253 cfbd 5022 7fbd
000002e0: 3995 29be 0c79 9cbe aa7b 85be 8b5c 28be
000002f0: 9ee0 6abe 0423 d23d f6ef 00bc bc34 1fbe
00000300: dec8 623d 3c3b 383d fae6 993e 56c1 2fbd
00000310: 93c1 9eba f639 a2be 5d3e 7cbd 9fbb bfbd
00000320: 7b2f f2bd ca07 04be ca08 6a3e a907 33bd
00000330: 7ad0 4e3e 074b dabe 23d3 58bc 0ca6 3cbe
00000340: c672 933e 11d3 6f3e 4e8f 303e 122b f53e
00000350: 07b3 a5be ba1f e2be d209 693e 1043 233e
00000360: 03df 9dbe 5bc3 25be 7bfb f6be 4cb0 a5bd
00000370: 1593 0ebe 55e5 4f3c 647c 1abf 9e2b 50bf
00000380: 71ed e5be 8b79 773e 55c7 8fbe 2db6 00bf
00000390: 22e0 af3d 74b8 323f d5fb c8bd 84f1 46bd
000003a0: a9e0 ba3d fa84 16be 5a07 9ebe 313e c3be
000003b0: b6b5 c9bd 58a0 a93e 65ea 09bf e3e0 683b
000003c0: 564a f1bd 42f8 aebe 090e 9abd 8302 13be
000003d0: 0d2e 96be 20b9 cb3d 6a38 66bd 0a08 e33b
000003e0: 7ec9 b73e 29a9 c03e 6b8d eebe 333b e23e
000003f0: c141 133e 7e56 cebe c44a c6bd 7158 2dbe

layers.6.bias f4 [64]
-0.18947217 -0.14961919 -0.117640816 -0.05118108 -0.17516841 -0.13609637 0.19830866 -0.19170348
0.27089053 -0.20988065 -0.005648252 0.18264739 0.14177741 -0.09056316 0.009566952 -0.17623901
-0.17626156 -0.49596143 -0.2904471 0.19114266 -0.16898412 -0.27661633 0.12462672 0.17419189
-0.10196131 -0.1347751 0.0945708 0.16081965 -0.16315816 -0.12981986 -0.13031892 -0.13329734
-0.19820346 -0.15250069 0.07743815 0.17847031 0.19921222 -0.22985311 -0.099279866 0.1080221
-0.07005964 -0.17745346 0.1445848 -0.27394462 0.17253935 -0.13476525 0.084955074 -0.012627077
0.0030567225 0.018931935 -0.12846418 0.15328065 -0.20184986 -0.0701631 -0.22627817 0.019577608
0.07635113 0.17180094 0.15060058 -0.11120107 0.10323807 0.06221324 -0.41470832 -0.10088929
00000000: fe04 42be c635 19be abed f0bd 41a3 51bd
00000010: 595f 33be d95c 0bbe 6d11 4b3e eb4d 44be
00000020: 2ab2 8a3e f4ea 56be f914 b9bb eb07 3b3e
00000030: 192e 113e 2e79 b9bd b4be 1c3c 0078 34be
00000040: e97d 34be a8ee fdbe 7bb5 94be e7ba 433e
00000050: 2c0a 2dbe a8a0 8dbe 4b3c ff3d 5c5f 323e
00000060: 17d1 d0bd 7c02 0abe 56ae c13d e8ad 243e
00000070: ef12 27be 7fef 04be 5372 05be 197f 08be
00000080: d9f5 4abe 2429 1cbe e597 9e3d ecc0 363e
00000090: 4afe 4b3e 9d5e 6bbe 3e53 cbbd b13a dd3d
000000a0: 6e7b 8fbd 5cb6 35be 0a0e 143e 7842 8cbe
000000b0: 28ae 303e e7ff 09be edfc ad3d cde1 4ebc
000000c0: 4b53 483b 2517 9b3c 1d8c 03be 9af5 1c3e
000000d0: bbb1 4ebe acb1 8fbd 77b5 67be 3861 a03c
000000e0: fb5d 9c3d 96ec 2f3e 0a37 1a3e 63bd e3bd
000000f0: 7b6e d33d 4fd3 7e3d a654 d4be 0b9f cebd

layers.8.weight f4 [64, 64]
0.06528871 -0.05617411 0.09220692 0.9764414 -0.104062736 0.008895412 -0.31541777 0.0128199635
0.15433513 -0.07729089 0.0046787877 0.19017212 -0.28839725 -0.15877143 0.5216722 -0.15810885
-0.013379395 0.47408223 0.20152397 -0.2509385 0.6063264 0.3858394 0.086632445 0.4312025
-0.05846651 0.42192054 0.31709048 0.036590416 0.08796428 0.04464597 0.5060074 -0.38381323
0.35809 -0.03564684 -0.36440486 -0.44089893 0.03259534 -0.09387613 -0.43654516 -0.2873709
-0.09565881 0.45610386 -0.39268446 0.11122541 -0.054592628 -0.08850925 -0.31669477 0.46715677
-0.028492138 -0.44691467 0.11153448 -0.011276067 0.035448655 -0.16264802 0.06423008 -0.44415796
0.04270031 0.03182706 0.03197704 0.1201204 -0.054943427 -0.2467921 0.36543667 0.03421618
0.06708128 0.023560455 0.16266456 -0.5621904 -0.11048457 0.00080631615 0.0859937 -0.47920042
-0.6349895 0.03554396 -0.2458384 -0.2215722 0.31291005 -0.24738444 0.3790107 -0.14636043
-0.061082367 0.41761863 -0.24040216 -0.16864827 -0.3092636 -0.31879744 -0.428383 -0.4423466
-0.20813243 0.011016985 -0.2396978 -0.16891871 0.01792577 -0.0546289 -0.0062096715 -0.4412065
0.060605492 -0.060839254 -0.050588563 0.15642142 -0.10020108 0.1352711 0.19710381 0.10581561
-0.05304294 -0.42621717 0.00660112 -0.10852446 -0.1418017 -0.11589101 0.1179635 0.27975357
-0.24043112 0.2800962 0.06358165 -0.25012445 0.09046757 0.09149946 0.07473657 0.11692282
-0.23924875 0.21436854 0.12084085 0.04934599 0.0787552 0.14984654 0.2995132 -0.12191323
-0.027887171 0.058945477 0.2084908 -0.37837714 -0.111679174 -0.061342113 0.11488799 0.11255394
-0.05518603 0.0726425 0.28176188 -0.25117326 0.35750794 -0.22112674 -0.05654274 0.15008214
0.083819285 -0.81453586 -0.15732294 -0.12286239 -0.27386367 -0.48845157 0.04032541 -0.15716712
0.19275334 -0.19704962 0.16919465 0.2045059 0.062492453 -0.113963164 -0.027067035 0.5111497
-0.1487693 -0.04529174 -0.30501753 0.016097676 0.30385524 -0.008036313 0.10483755 0.07715294
0.020772753 -0.5036905 -0.21761093 -0.4472257 0.31919593 -0.11786571 -0.09897252 0.16888735
0.25892058 -0.19155738 -0.073768914 0.35530058 0.13037921 0.022752551 -0.015247626 0.39684263
0.101761185 0.17112926 -0.2406225 -0.0019927376 -0.14390422 0.16916506 -0.4515659 -0.061198168
-0.10736228 -0.0031510186 0.2643955 -0.5407995 0.0023063065 -0.08769445 -0.09271067 0.17353414
-0.13271292 0.20102587 0.35705185 -0.319023 0.013833592 -0.2525046 0.20685014 0.13117337
-0.022442518 -0.8685659 0.23233908 -0.023152087 -0.39407703 -0.094802044 -0.02712857 -0.19511849
0.37696442 -0.21517229 0.16112867 0.35201302 0.029983588 0.012163491 -0.25867304 0.6339247
-0.026507016 0.049932253 -0.26568872 -0.041746184 -0.047744043 0.08225916 0.16122635 -0.008302297
0.029024046 -0.22397277 -0.25941792 -0.44543445 0.16433176 -0.07837269 -0.011080147 0.02963704
0.21916364 -0.3839458 -0.121344395 0.16577211 -0.013785735 0.19143057 0.03079093 0.31358203
-0.029087622 0.33752608 -0.4201918 -0.00064158987 -0.36634204 -0.08422659 -0.52484745 -0.019544132
00000000: 16b6 853d d316 66bd fbd6 bc3d 10f8 793f
00000010: d81e d5bd 10be 113c 707e a1be d30a 523c
00000020: 070a 1e3e b04a 9ebd 8450 993b 7bbc 423e
00000030: cea8 93be fa94 22be 4f8c 053f 49e7 21be
00000040: 4035 5bbc e8ba f23e 4d5c 4e3e 037b 80be
00000050: 3538 1b3f be8c c53e 5a6c b13d 93c6 dc3e
00000060: 947a 6fbd f805 d83e af59 a23e d5df 153d
00000070: 9e26 b43d b1de 363d b389 013f 2b83 c4be
00000080: 9357 b73e 6c02 12bd 4693 babe 81bd e1be
00000090: b182 053d 2142 c0bd d982 dfbe 4722 93be
000000a0: c4e8 c3bd 7286 e93e f00d c9be 26ca e33d
000000b0: 859c 5fbd 5644 b5bd d125 a2be 2c2f ef3e
000000c0: 5868 e9bc 00d2 e4be 306c e43d 41bf 38bc
000000d0: 9c32 113d 348d 26be 0f8b 833d ac68 e3be
000000e0: 85e6 2e3d 175d 023d 5bfa 023d af01 f63d
000000f0: 5c0c 61bd 11b7 7cbe 841a bb3e 4426 0c3d
00000100: e961 893d db01 c13c 8a91 263e b6eb 0fbf
00000110: bc45 e2bd f65e 533a 771d b03d c259 f5be
00000120: ac8e 22bf 8b96 113d 10bd 7bbe d3e3 62be
00000130: bf35 a03e 5952 7dbe b10d c23e 82df 15be
00000140: 8131 7abd 1cd2 d53e fc2b 76be 22b2 2cbe
00000150: cc57 9ebe 6b39 a3be 0455 dbbe 417b e2be
00000160: ab20 55be 9680 343c 5773 75be 07f9 2cbe
00000170: 10d9 923c 8ec2 5fbd 807a cbbb d2e5 e1be
00000180: 773d 783d 9532 79bd f435 4fbd f02c 203e
00000190: 3936 cdbd 8284 0a3e 95d5 493e dbb5 d83d
000001a0: 8e43 59bd 2339 dabe 354e d83b 1242 debd
000001b0: 7734 11be 4458 edbd d996 f13d dc3b 8f3e
000001c0: 9333 76be c568 8f3e 1937 823d 5010 80be
000001d0: 1047 b93d 1264 bb3d 7d0f 993d 3b75 ef3d
000001e0: a0fd 74be 6d83 5b3e 687b f73d 051f 4a3d
000001f0: 684a a13d 5f71 193e cb59 993e a5ad f9bd
00000200: a373 e4bc d070 713d 9d7e 553e a6ba c1be
00000210: 0db8 e4bd de41 7bbd 654a eb3d ae82 e63d
00000220: bf0a 62bd 97c5 943d 1843 903e c899 80be
00000230: 480b b73e 0c6f 62be 5c99 67bd 22af 193e
00000240: 72a9 ab3d 6c85 50bf 4419 21be 479f fbbd
00000250: dc37 8cbe 5316 fabe 422c 253d 6bf0 20be
00000260: 2261 453e 60c7 49be 5d41 2d3e ff69 513e
00000270: 16f8 7f3d 8565 e9bd b0bb ddbc b5da 023f
00000280: fb56 18be d583 39bd 422b 9cbe 46df 833c
00000290: ea92 9b3e bdaa 03bc 12b5 d63d 5c02 9e3d
000002a0: 9f2b aa3c dcf1 00bf 66d5 5ebe c4fa e4be
000002b0: a66d a33e 9463 f1bd 1bb2 cabd cef0 2c3e
000002c0: 3d91 843e 9e27 44be 2814 97bd f5e9 b53e
000002d0: 2182 053e 8f63 ba3c 2ed1 79bc f52e cb3e
000002e0: 2b68 d03d 823c 2f3e bf65 76be 9798 02bb
000002f0: a15b 13be 9b39 2d3e a533 e7be eeaa 7abd
00000300: c1e0 dbbd 5281 4ebb d95e 873e d671 0abf
00000310: 6725 173b 2699 b3bd 17df bdbd efb2 313e
00000320: e5e5 07be bad9 4d3e 80cf b63e fc56 a3be
00000330: 4aa6 623c 4848 81be 86d0 533e 5052 063e
00000340: 5fd9 b7bc 565a 5ebf 4cea 6d3e 72a9 bdbc
00000350: 77c4 c9be 9327 c2bd bc3c debc 24cd 47be
00000360: 7b01 c13e 2056 5cbe eafe 243e 0d3b b43e
00000370: 24a0 f53c 6149 473c cb70 84be e448 223f
00000380: 3e25 d9bc c385 4c3d 5a08 88be 0cfe 2abd
00000390: 428f 43bd 7e77 a83d 8518 253e 5c06 08bc
000003a0: d6c3 ed3c 1e59 65be 6dd2 84be fc0f e4be
000003b0: 9646 283e dc81 a0bd 8189 35bc 61c9 f23c
000003c0: 6f6c 603e 8b94 c4be 6983 f8bd 2ac0 293e
000003d0: 90dd 61bc 6006 443e 433d fc3c d38d a03e
000003e0: 2a49 eebc 38d0 ac3e 6123 d7be 5e30 28ba
000003f0: 2f91 bbbe fe7e acbd 675c 06bf 041b a0bc

layers.8.bias f4 [64]
0.02073814 0.026357483 0.19853118 0.15921088 -0.17077053 -0.06612694 -0.110184126 -0.047273204
-0.009669845 -0.21723089 0.046282552 0.108659245 -0.2867426 -0.23569682 -0.27022782 -0.23953916
0.20668237 -0.08041791 0.021264784 0.14177468 -0.12462762 -0.11155949 -0.13436405 -0.14169787
-0.10636182 -0.19608745 0.22942024 0.020203827 0.26978824 0.061891098 -0.08507056 -0.09375433
0.18093118 -0.024302028 0.01784833 -0.17790546 0.18273832 0.11716941 -0.10578291 0.17660916
-0.30951354 0.18017139 0.17961009 0.04688204 -0.10302344 0.22958885 -0.12930663 -0.07030689
0.22410378 0.16182746 0.13500427 0.025843592 -0.13557534 -0.2705959 -0.14662112 -0.039658256
0.17878242 0.1339931 -0.24798702 -0.22432011 -0.1323429 -0.11890295 0.14968008 -0.15014564
00000000: 08e3 a93c a6eb d73c c24b 4b3e 2d08 233e
00000010: 78de 2ebe 906d 87bd 37a8 e1bd 8ca1 41bd
00000020: 456e 1ebc c671 5ebe c692 3d3d bd88 de3d
00000030: edcf 92be 825a 71be 4d5b 8abe c149 75be
00000040: 8ba4 533e 25b2 a4bd 7c33 ae3c 622d 113e
00000050: c43c ffbd 4d79 e4bd bb96 09be 3f19 11be
00000060: 3ad4 d9bd 26cb 48be 24ed 6a3e 7f82 a53c
00000070: af21 8a3e 8581 7d3d 7939 aebd 4502 c0bd
00000080: 0646 393e 0c15 c7bc a936 923c d92c 36be
00000090: c11f 3b3e 84f6 ef3d b6a4 d8bd 08d9 343e
000000a0: 8f78 9ebe d97e 383e b5eb 373e 6207 403d
000000b0: f4fd d2bd 5719 6b3e f568 04be 0ffd 8fbd
000000c0: 767b 653e 19b6 253e 8f3e 0a3e f1b5 d33c
000000d0: 43d4 0abe 8c8b 8abe d923 16be b270 22bd
000000e0: bd12 373e 7d35 093e 4ff0 7dbe 2cb4 65be
000000f0: e684 07be 6483 f3bd bc45 193e c7bf 19be

layers.10.weight f4 [64, 64]
-0.05436619 0.0120635275 -0.0065888097 0.044949103 0.044714466 0.04352709 -0.08169801 -0.084463485
-0.07717836 0.0661435 -0.059684932 -0.09910129 -0.09735764 -0.070107676 0.031161323 -0.07653651
-0.13483018 0.11902879 -0.013245493 0.091639414 0.022494435 -0.037004344 -0.008558072 -0.018032536
0.06506635 -0.070779145 -0.16304947 -0.045870185 0.0078045637 -0.024556324 0.06945188 0.0153125115
0.06938707 -0.1007693 -0.12268707 0.10926792 -0.07054209 -0.012191224 0.06894755 -0.028505286
-0.06344345 0.025863398 -0.026834544 -0.0816847 0.0072716773 -0.10713653 0.0036710948 0.1151101
-0.076336965 0.049370833 0.047698215 -0.08826569 -0.003763646 -0.032610714 0.12432048 0.0788751
-0.11595374 -0.06858426 -0.13697523 0.0068057925 -0.1111927 0.06933226 -0.049493525 -0.10092758
0.09164439 -0.17932731 0.03521826 -0.20208149 0.10470152 -0.052499488 0.10347854 0.05364836
-0.03840086 0.025065497 0.057479445 0.047662634 -0.11225362 -0.055490825 0.03865323 0.047655664
-0.047414355 -0.0882084 -0.2387477 -0.12631531 -0.121945366 -0.09643251 -0.11955428 0.11832473
0.0022906184 -0.005719155 0.040323455 -0.021461902 -0.062438652 -0.08571914 0.08544166 -0.042846616
-0.17731494 0.018623441 -0.040241253 0.08119682 -0.014917676 -0.005378824 0.06661718 -0.10782595
-0.0073847594 0.00999949 -0.15813315 0.003118274 -0.11661175 -0.03870256 0.00057989603 -0.066525295
-0.04171961 0.04940474 -0.15508309 0.014812232 -0.058630913 -0.067793444 0.063827135 0.035859656
-0.20620304 -0.14023553 -0.09014043 -0.03552764 -0.028483078 -0.098871976 -0.027760569 0.039848
-0.15604775 0.195984 0.07337985 -0.15895575 -0.031356156 0.09281874 0.058555435 0.15271623
0.13304588 0.105748914 0.31202823 -0.14030492 0.051372904 0.17832652 0.23858972 -0.057919167
0.067179896 -0.03025719 0.23046423 0.08506145 0.0030899346 0.041539278 -0.056039147 0.11659838
0.053415634 -0.014699079 -0.19301166 -0.09241273 0.29292312 0.0895863 -0.034265094 -0.2826449
0.008519539 0.016632082 0.5954361 0.032842062 0.29803586 0.14939335 0.07240189 0.16611695
-0.54769737 0.22075966 0.30985156 -0.108498596 0.026658464 0.14910114 0.03780534 -0.022785064
-0.21226461 0.27269104 -0.15021554 0.37494317 -0.062204853 0.27529633 -0.029235661 0.009270586
-0.05188385 0.30317426 0.12140303 0.029823972 -0.05704938 0.05372575 0.22546458 0.2958084
-0.14032747 0.048525188 -0.4392086 -0.09566007 -0.03910603 0.060069256 0.06905443 -0.089214474
0.040781453 -0.066236824 -0.06013236 0.006228801 -0.22793235 0.740292 0.10886108 0.0199422
-0.10201764 -0.051701244 -0.002660121 -0.2502796 0.062479883 -0.10546229 0.0091706235 0.012552604
0.015132087 0.11130506 -0.13870522 -0.007277879 -0.035933 0.08120996 -0.06395591 -0.12334519
-0.26701835 -0.033713937 0.023789043 -0.01802633 0.076505415 -0.0566037 -0.07011919 -0.3376394
-0.14781347 -0.022165252 -0.16407046 0.018370796 -0.049967926 -0.11140313 0.0811748 0.12071922
-0.10234172 0.061981454 -0.30538344 0.32680845 0.048261836 -0.10845582 -0.1455313 0.25215402
-0.13248718 0.06571691 -0.0022110757 0.6214318 -0.117181465 0.04093578 -0.031965327 0.29170415
00000000: 15af 5ebd 1aa6 453c f1e6 d7bb 8d1c 383d
00000010: 8426 373d 7649 323d 4951 a7bd 31fb acbd
00000020: b00f 9ebd 3e76 873d 3078 74bd 9ef5 cabd
00000030: 7163 c7bd 9d94 8fbd 0846 ff3c 2cbf 9cbd
00000040: ec10 0abe 5ec5 f33d a003 59bc 72ad bb3d
00000050: 4046 b83c de91 17bd 2837 0cbc f8b8 93bc
00000060: 8241 853d a8f4 90bd 71f6 26be 60e2 3bbd
00000070: 6dbd ff3b 582a c9bc ca3c 8e3d 54e1 7a3c
00000080: cf1a 8e3d 2260 cebd 5c43 fbbd dcc7 df3d
00000090: 5f78 90bd b3bd 47bc 6034 8d3d eb83 e9bc
000000a0: a4ee 81bd 7adf d33c 1ed4 dbbc 4f4a a7bd
000000b0: 4047 ee3b 666a dbbd c096 703b d8be eb3d
000000c0: 8e56 9cbd 1239 4a3d 345f 433d a4c4 b4bd
000000d0: 80a7 76bb d092 05bd bc9b fe3d 4589 a13d
000000e0: 2879 edbd e875 8cbd 3c43 0cbe 2003 df3b
000000f0: 00b9 e3bd 12fe 8d3d b9b9 4abd 1eb3 cebd
00000100: 0eb0 bb3d 94a1 37be 0641 103d 73ee 4ebe
00000110: c06d d63d b409 57bd 8fec d33d 62be 5b3d
00000120: 384a 1dbd 2856 cd3c 916f 6b3d e539 433d
00000130: 3ae5 e5bd 594a 63bd d952 1e3d 9632 433d
00000140: 8e35 42bd 9ba6 b4bd 477a 74be cd58 01be
00000150: 7ebe f9bd 687e c5bd e0d8 f4bd 3c54 f23d
00000160: 331e 163b c067 bbbb 352a 253d dfd0 afbc
00000170: acbf 7fbd 848d afbd 09fc ae3d ef7f 2fbd
00000180: 0c92 35be 3090 983c 03d4 24bd 854a a63d
00000190: 4569 74bc d940 b0bb 976e 883d dad3 dcbd
000001a0: dafb f1bb e7d4 233c a8ed 21be f55b 4c3b
000001b0: 24d2 eebd 9386 1ebd 2a04 183a 6a3e 88bd
000001c0: 2fe2 2abd a05c 4a3d 1ace 1ebe 01af 723c
000001d0: f826 70bd 4ad7 8abd cdb7 823d 93e1 123d
000001e0: e426 53be e799 0fbe 8c9b b8bd 6e85 11bd
000001f0: 5855 e9bc 647d cabd 226a e3bc a837 233d
00000200: fbca 1fbe 08b0 483e 2d48 963d 4cc5 22be
00000210: 506f 00bd c017 be3d d3d7 6f3d a561 1c3e
00000220: 2e3d 083e e392 d83d 2ac2 9f3e 18ac 0fbe
00000230: 656c 523d 3a9b 363e dd50 743e a63c 6dbd
00000240: 9d95 893d eddd f7bc d1fe 6b3e b334 ae3d
00000250: 8080 4a3b 1725 2a3d 4e89 65bd 22cb ee3d
00000260: 5aca 5a3d 68d4 70bc d9a4 45be e342 bdbd
00000270: 05fa 953e 0679 b73d 8e59 0cbd d5b6 90be
00000280: 8995 0b3c 0140 883c 806e 183f 6685 063d
00000290: 2898 983e 92fa 183e 7147 943d 901a 2a3e
000002a0: e535 0cbf d20e 623e dda4 9e3e 8334 debd
000002b0: da62 da3c f8ad 183e c6d9 1a3d bea7 babc
000002c0: e55b 59be 299e 8b3e 1ad2 19be 8df8 bf3e
000002d0: 84ca 7ebd a4f3 8c3e a07f efbc a8e3 173c
000002e0: 2984 54bd a839 9b3e 27a2 f83d 6751 f43c
000002f0: 9cac 69bd 880f 5c3d 30e0 663e 3374 973e
00000300: 01b2 0fbe 59c2 463d f3df e0be 6de9 c3bd
00000310: a52d 20bd 2e0b 763d 696c 8d3d 14b6 b6bd
00000320: 740a 273d 2ca7 87bd 594d 76bd f81a cc3b
00000330: 1967 69be c783 3d3f 8ff2 de3d d35d a33c
00000340: a0ee d0bd afc4 53bd 6d55 2ebb a624 80be
00000350: e8ea 7f3d 9dfc d7bd 6240 163c 70a9 4d3c
00000360: 93ec 773c e8f3 e33d be08 0ebe 467b eebb
00000370: 7b2e 13bd 6851 a63d 51fb 82bd 679c fcbd
00000380: a1b6 88be a017 0abd 3de1 c23c f4ab 93bc
00000390: dfae 9c3d 48d9 67bd a69a 8fbd 12df acbe
000003a0: 6a5c 17be e793 b5bc 1602 28be 5a7e 963c
000003b0: 2bab 4cbd 5327 e4bd f93e a63d a33b f73d
000003c0: 8998 d1bd 44e0 7d3d 385b 9cbe 7053 a73e
000003d0: 34ae 453d 161e debd 2806 15be 551a 813e
000003e0: b8aa 07be 9696 863d b2e7 10bb 2816 1f3f
000003f0: d6fc efbd 47ac 273d 13ee 02bd 3f5a 953e

layers.10.bias f4 [64]
-0.1123863 -0.1440019 0.024958584 -0.52321607 0.1819172 -0.07631238 -0.1583667 -0.22519915
-0.12363898 -0.102900736 -0.10028143 -0.07358737 0.17405526 -0.06336227 -0.1923754 -0.077633046
-0.15361978 -0.1222667 0.053880468 0.0489921 0.18547685 -0.26232228 -0.19797188 -0.18566692
-0.18695736 -0.17595175 -0.22129658 -0.15688124 -0.08911833 -0.11038793 0.14403105 -0.20346323
-0.12071517 0.07045868 -0.21090709 -0.10580955 0.037600443 0.12767948 -0.07845199 0.17223872
0.22188856 -0.14582172 -0.14688784 0.11232976 -0.008128127 -0.03238146 -0.3220532 -0.13526076
-0.17598535 0.1175908 0.01408007 -0.18143728 0.30812353 0.11593181 -0.26785064 -0.14429468
-0.08672837 -0.09684597 0.1309722 -0.10273818 0.06473909 0.11386524 0.18022764 -0.21085119
00000000: ca2a e6bd 3c75 13be f275 cc3c 7df1 05bf
00000010: 8148 3a3e aa49 9cbd e12a 22be 9b9a 66be
00000020: 6f36 fdbd 9fbd d2bd 5a60 cdbd fab4 96bd
00000030: 8b3b 323e 14c4 81bd 0ffe 44be 13fe 9ebd
00000040: 814e 1dbe f766 fabd c4b1 5c3d f1ab 483d
00000050: a5ed 3d3e 1b4f 86be 24b9 4abe 781f 3ebe
00000060: c071 3fbe b22c 34be 929b 62be 7aa5 20be
00000070: ac83 b6bd 1113 e2bd e07c 133e aa58 50be
00000080: 8439 f7bd a44c 903d 07f8 57be adb2 d8bd
00000090: ec02 1a3d 69be 023e 70ab a0bd 595f 303e
000000a0: c136 633e 4a52 15be c469 16be 250d e63d
000000b0: d62b 05bc 6ca2 04bd 28e4 a4be cc81 0abe
000000c0: 8135 34be 72d3 f03d 18b0 663c b2ca 39be
000000d0: 5ec2 9d3e a86d ed3d b823 89be fcc1 13be
000000e0: a59e b1bd 2e57 c6bd 941d 063e 6568 d2bd
000000f0: ee95 843d 2e32 e93d 988d 383e 60e9 57be
