watermark_reliability_release/watermarks/aiwei23/model/sub_net.pt (torch, 125990 bytes, 16 tensors)

layers.0.weight f4 [64, 16]
000000 50 69 16 bf f6 6d c6 be 85 23 56 3e 62 78 fa be
       -0.58754444 -0.3875577 0.20911987 -0.4891997
000010 f7 cd 68 3e f9 0a a3 3d 2a 05 1b 3e cf 6a 98 be
       0.2273482 0.07961077 0.15138689 -0.29768988
000020 47 8e da be ab 17 73 be 3a 18 43 3e ee 1c 6e bd
       -0.42686674 -0.23739497 0.1905221 -0.05813306
000030 85 9e 35 3e 23 ec 2b be f2 95 a7 3e 7c 6b 29 3e
       0.17736252 -0.16789298 0.32731587 0.16544908
000040 e8 53 12 3e dc 96 4c 3e 38 54 06 be e4 4c 3a bf
       0.1428982 0.19979423 -0.13118064 -0.72773576
000050 b4 0d 99 3b fc 84 4e bf cb af 16 bf da c8 7d 3e
       0.004670823 -0.8067167 -0.5886199 0.2478365
000060 73 67 2c bf 01 a0 a0 bd 7c f3 80 3e f5 1a 76 3e
       -0.6734535 -0.07843018 0.25185764 0.24033721
000070 6a 64 3f 3e 67 3a 9b be 82 24 6a bd b2 86 0d bf
       0.18690649 -0.30317995 -0.057163723 -0.55283654
000080 a5 f1 08 3f 78 44 59 bd 29 1b 88 3d f3 54 a0 3e
       0.5349372 -0.053043813 0.066458054 0.3131481
000090 78 2f 0e 3d 96 4a 73 be 89 76 be be f3 16 c2 be
       0.03471324 -0.23758921 -0.3719981 -0.37908134
0000a0 d0 bb 99 3d e7 ed e6 bd dd ee 42 3e 6c ab ee bd
       0.075065255 -0.11275845 0.19036432 -0.1165379
0000b0 c9 4b 27 be 0b 83 ef be c9 86 d8 be 21 5e 60 be
       -0.16337503 -0.46779665 -0.42290333 -0.21910907
0000c0 6d 36 5a 3d 4d 04 f7 3e 50 6d 23 be 16 a6 bc bd
       0.05327456 0.4824547 -0.15959668 -0.09211366
0000d0 1a 16 35 be df 57 53 be a6 6d 3b be fd cb 99 bd
       -0.17684212 -0.20638989 -0.18303546 -0.07509611
0000e0 74 76 24 bf 54 18 1a 3d 79 40 10 bf c9 2d fd 3d
       -0.64243245 0.037620857 -0.5634838 0.123622485
0000f0 ae 3c de 3e a7 d7 e4 3e 87 14 41 bc 2d b5 66 3d
       0.4340567 0.4469578 -0.011784679 0.056325126
000100 e2 94 3a bf d5 0f cc be 82 97 b0 3d 03 8f d1 bd
       -0.7288343 -0.3985583 0.08622648 -0.102323554
000110 31 c3 d9 be f7 cc 4b 3e 7a 16 1c bd 04 45 fc 3e
       -0.42531732 0.19902407 -0.038107373 0.49271405
000120 13 19 77 be d8 17 b3 be 3f 3e 83 bc 82 a2 c7 3d
       -0.24130659 -0.3497913 -0.016020892 0.09747793
000130 4d 83 79 be a4 ae 9a be 26 d3 b8 bd ad 6c ef bc
       -0.24366494 -0.30211365 -0.09024648 -0.029226625
000140 55 85 b2 3e ab 21 d0 3e e8 08 1c be 75 42 d8 bd
       0.3486735 0.40650687 -0.15237772 -0.10559551
000150 39 8e 1b be 02 0f 92 be 1b 3c 69 bf 6f b3 f1 bc
       -0.15190972 -0.28527075 -0.9110734 -0.029504506
000160 44 27 9f 3e b4 a1 da 3e 8b 35 a3 be 77 76 b6 3c
       0.31084645 0.42701495 -0.31876788 0.022273285
000170 7c 68 46 3e 69 cd 9c be a8 8b f2 bd 55 77 3a be
       0.19375795 -0.30625466 -0.118430436 -0.18209584
000180 e7 48 80 3e a0 a4 7c 3e e3 c1 af be e4 35 07 bd
       0.2505562 0.24672174 -0.3432761 -0.03301038
000190 b8 c9 cc be fb 5c 4a be e1 10 46 bc 8f e3 9d be
       -0.3999765 -0.19762032 -0.012088985 -0.30837676
0001a0 6e cb ba 3e e5 b7 37 bf ad 7f 7e 3e e1 4b d8 3d
       0.3648333 -0.71764976 0.24853392 0.10561348
0001b0 73 2a a2 be ea c8 46 3d b8 69 23 bf dd 13 2e bf
       -0.3167301 0.04853145 -0.6383319 -0.6799906
0001c0 23 c1 94 be b1 eb 95 bd 74 13 eb 3d 2b 4c 9d be
       -0.29053602 -0.07320345 0.1147832 -0.30722174
0001d0 ff 01 1d 3f 46 9e c1 bd 1f 53 68 bf e5 87 42 3d
       0.6133117 -0.094540164 -0.9075183 0.04749288
0001e0 2d 1a a8 3a 26 13 16 3e 6b 54 5a 3d 76 2c c8 bd
       0.0012825184 0.14655742 0.053303163 -0.09774105
0001f0 63 71 9d be 8f ff 00 bf 8e a8 2f be 38 43 89 3d
       -0.3075057 -0.5038995 -0.17154142 0.06702274
000200 e2 7e 4b 3d 24 7d 20 bf 73 91 91 be 44 1c a8 3e
       0.04968155 -0.6269095 -0.2843128 0.32834065
000210 d2 a4 3f 3e 0f f4 1f be 0a 6d a8 3d 31 1b 10 bf
       0.18715218 -0.15620445 0.082239226 -0.5629149
000220 be c7 a5 3e 9a 85 16 bf a9 70 50 bd 8c ca a9 3e
       0.32378954 -0.5879761 -0.05088869 0.33162344
000230 25 5b b1 3d 22 db c4 bd ec 7b 08 be 46 c9 1f be
       0.086599626 -0.09612109 -0.13328522 -0.15604123
000240 ac ab 3a bf f3 af 41 3e a7 91 3e 3e a1 af be b9
       -0.729182 0.18914776 0.1861025 -0.00036370478
000250 82 9d 65 bf 20 f3 2c 3d f9 84 36 3e 4d ed 23 bd
       -0.8969346 0.04222405 0.17824163 -0.04002123
000260 cd bf 0d 3e 3e 65 08 3d 67 e8 2d be 26 c5 e9 be
       0.13842697 0.033299677 -0.16983186 -0.45658225
000270 77 ed 3c 3e d2 35 b5 bd ec f6 c3 3e 3a 61 1b 3d
       0.1844996 -0.08848156 0.38274324 0.03793452
000280 2e 61 03 bd c3 11 ab bd 33 17 c1 3e 3d 81 13 be
       -0.0320751 -0.08352997 0.37713012 -0.14404769
000290 6f 80 0a 3e 72 bb 93 3e 42 59 b6 3d a0 8a 8a be
       0.13525556 0.28853947 0.08903743 -0.27058887
0002a0 7e ec 4d bd 93 2f 8d be 06 39 88 be 89 62 1a be
       -0.050274365 -0.2757536 -0.26606005 -0.1507665
0002b0 19 55 e9 3e 56 fb e1 be 5d 01 82 be 13 fa 36 3e
       0.45572737 -0.44137067 -0.25391665 0.17868833
0002c0 3c bb d8 3c aa 49 0f 3c 95 58 ba 3e 4a 95 38 be
       0.026456468 0.00874559 0.36395708 -0.180257
0002d0 12 34 29 be 4b bf f6 bd da e5 23 3e 0a 4c 5e 3e
       -0.1652377 -0.12048205 0.1600565 0.21708694
0002e0 f1 af 91 be 63 9d 5a bd d0 33 1d 3e 21 4a 09 bf
       -0.28454545 -0.053372752 0.15351796 -0.53628737
0002f0 33 35 40 3e b1 1a 9a 3d 72 63 0e bf a7 3f 8d 3e
       0.18770294 0.07524622 -0.5562049 0.27587625
000300 c8 de ce 3d fd d6 a0 be 23 0b b3 bd 8d 70 c4 3e
       0.10101086 -0.31414023 -0.087423585 0.3836712
000310 cb 07 c2 bd b4 cd f4 bd db e1 81 bd db 8e ed be
       -0.09474143 -0.11953297 -0.06341907 -0.46398053
000320 13 16 8d 3e 4e 4b 3a bd 53 2b 72 3e ec 0a c0 3d
       0.27555904 -0.045481972 0.2364934 0.09377083
000330 ab ff d6 3e 89 07 97 bd 33 e8 45 be dc 4f a0 3d
       0.41991934 -0.07374484 -0.19326858 0.07827732
000340 2f 28 e1 3e 1b 2f 4a 3e 51 3d 09 bf 05 ea cf be
       0.4397597 0.19744532 -0.53609186 -0.4060823
000350 c7 23 8b be e5 29 87 be 18 3e 00 3d a6 bd b0 be
       -0.27175733 -0.2639915 0.031309217 -0.3451969
000360 66 3e a2 bf d8 1a 20 3e 96 50 ab be 16 89 c3 3b
       -1.2675292 0.1563524 -0.3345992 0.0059672697
000370 2c ec ac be c4 60 55 3d 7b ac b7 3e 9b 0b 41 bd
       -0.33773935 0.052094236 0.3587378 -0.04713021
000380 a4 b8 fb bd 36 29 01 3e 4a a4 04 be a8 56 6c bd
       -0.12291077 0.12613377 -0.12953296 -0.05769983
000390 20 48 81 bc 90 87 41 3d 44 3c 02 be 0c ac 46 be
       -0.015781462 0.047248423 -0.12718302 -0.19401568
0003a0 d0 f8 5e be 70 83 80 3c b0 c3 48 be e8 13 3d be
       -0.21774602 0.015687674 -0.19605899 -0.18464625
0003b0 3c c1 2c be d0 a2 ec bc 6e 6b 26 be 10 94 4b bd
       -0.16870588 -0.028886229 -0.16251919 -0.04970175
0003c0 82 31 d8 be 47 2a 84 3e d0 bb 78 bd fc fe c1 3e
       -0.4222527 0.25813505 -0.060725987 0.3788985
0003d0 c2 43 a2 be 6c b9 47 3e e3 51 f8 3e db 89 32 3c
       -0.3169232 0.19504327 0.48499975 0.010897125
0003e0 29 3c c2 be d4 0a d7 3e 2e 3c e9 3d 13 9b 19 be
       -0.37936524 0.4200045 0.113884315 -0.15000562
0003f0 f7 52 46 be 66 10 2b be e6 b6 9e be 3b 8f ee 3d
       -0.19367586 -0.16705474 -0.30998915 0.11648413

layers.0.bias f4 [64]
000000 3f a7 3b 3e fb d5 31 3c 62 96 02 be 5e 07 77 be
       0.18325518 0.01085424 -0.12752679 -0.24123904
000010 03 39 ca 3e b6 a0 ac be 0f ed 09 3e fd ff b3 3d
       0.3949662 -0.33716363 0.13469337 0.0878906
000020 4b a6 50 3e fe 99 0e be 75 fc b1 be 43 13 10 be
       0.20375936 -0.13925931 -0.34762922 -0.14069848
000030 10 9d 5d 3c a9 a4 4a 3a 28 ab 5e be d6 1b 49 be
       0.013526216 0.0007730225 -0.21744978 -0.19639525
000040 d2 75 9b bc d2 38 06 3e 84 9d ef bd 8d 86 b9 bd
       -0.01897708 0.13107613 -0.116999656 -0.09058867
000050 90 9a ff bd 87 9b 82 be 5e 39 ce bd 04 7a 10 3e
       -0.12480652 -0.25509283 -0.10069536 0.14109045
000060 91 c3 88 bd 97 e0 60 be b9 91 be 3d 99 54 5a be
       -0.06677926 -0.21960674 0.09305138 -0.21321334
000070 09 54 39 be 2d 75 49 3e a9 fb bd bd bb 85 ad bd
       -0.18098463 0.19673605 -0.09276516 -0.08472773
000080 a7 0b 21 be d3 69 3d 3e 58 90 20 be 04 56 63 3d
       -0.15727101 0.184974 -0.15680063 0.055501953
000090 ba 17 1b be 6b 03 91 be 72 1d 8f be 48 10 62 be
       -0.1514577 -0.2832292 -0.27952152 -0.22076523
0000a0 51 e5 1a be b5 21 08 be 6c 04 59 be ef 11 06 be
       -0.1512654 -0.13294108 -0.21193093 -0.13092779
0000b0 b2 42 05 be 5e f0 7c 3e 9f 42 77 bd c1 61 dc be
       -0.13013723 0.24701068 -0.06036627 -0.4304333
0000c0 63 d9 5f be ae 7d 56 3d e1 55 05 be 29 3c 00 be
       -0.2186027 0.05236595 -0.13021041 -0.1252295
0000d0 5e cf f0 3d a6 54 24 be 8f 2d cf bd 39 7a de bd
       0.11758302 -0.16047916 -0.101161115 -0.10863156
0000e0 a7 50 f2 bd 04 9b 59 3e 20 d9 30 3e 6f f3 77 be
       -0.118317895 0.2125054 0.17270327 -0.24213956
0000f0 b4 06 e3 be a2 eb 1f bd 05 f7 41 be 6d 65 87 be
       -0.44341052 -0.039043076 -0.18941887 -0.2644457

layers.2.weight f4 [64, 64]
000000 e5 f0 ed be 65 08 24 3e 18 be e7 3e 50 5b 51 3d
       -0.4647285 0.16018827 0.45262218 0.051112473
000010 31 e2 ac be 14 32 43 bd fa cb 84 3e de f2 5a 3d
       -0.3376632 -0.04765518 0.25936872 0.053454272
000020 45 a4 56 bd a5 b7 6a 3c 42 2f 97 3d 1e 8f b2 bd
       -0.052402753 0.014326011 0.073820606 -0.08718704
000030 d5 4c f9 3d 13 d6 03 bd ce 57 9a bd da e3 19 be
       0.12172858 -0.03218658 -0.07536279 -0.15028325
000040 c5 7d b2 be e5 1f 59 be f4 49 6c be 7e c8 75 3e
       -0.3486158 -0.21203573 -0.23075086 0.24002263
000050 7d 0b c1 3e a2 5b 62 3d 06 b9 c6 3e e4 b3 8e 3d
       0.37704077 0.05526317 0.38813037 0.06967905
000060 6f 78 93 3e f1 45 89 be 10 3b 51 3e 5e 25 ce be
       0.2880282 -0.26811174 0.20432687 -0.40262884
000070 10 ae 22 be d6 79 47 be b5 16 90 3d 61 65 3e be
       -0.15886712 -0.1948007 0.07035581 -0.1859336
000080 db a4 39 3e 29 60 82 bd 4e 7f d2 3e 89 86 a8 3d
       0.18129294 -0.06365997 0.4111275 0.082287855
000090 24 e8 95 be 48 d8 78 be 3f ca 98 3d 85 9c 07 bd
       -0.29278672 -0.24301255 0.074604504 -0.033108253
0000a0 c6 7d ef be e2 d4 bf bd 12 4f 87 3e a5 19 8b 3d
       -0.46775645 -0.09366776 0.26427513 0.06792001
0000b0 b1 1f a8 be f5 26 9e be fd ee b9 3e a4 33 32 be
       -0.3283668 -0.30889097 0.36315146 -0.17402512
0000c0 8e b0 75 be be 39 0f be 9a 39 91 3e de 08 83 3e
       -0.23993132 -0.1398687 0.2836426 0.25592703
0000d0 7f 49 05 bf 1e 43 92 be d5 4c 2f bd 21 a9 d0 3d
       -0.5206527 -0.2856683 -0.042797882 0.10188509
0000e0 15 fe d1 3b 61 2a 0c 3d 3d d1 71 be 2c 67 a8 3e
       0.0064084628 0.034220103 -0.23614974 0.32891214
0000f0 d0 fb 6a bd dd 5b 91 bd 73 51 3c be a0 69 8f 3e
       -0.057369053 -0.070976 -0.18390445 0.28010273
000100 09 4a 7f bd cc 15 21 3d 88 11 65 3d 14 c6 5c 3c
       -0.062326465 0.039327428 0.055924922 0.01347496
000110 98 5c 90 bb d8 db f5 bd e9 c1 13 bd 42 1f 8b 3d
       -0.0044055693 -0.120048225 -0.0360736 0.06793071
000120 ef ae 83 3d 1a 35 c8 3d 37 72 1d bd ff 78 18 bd
       0.0642985 0.09775753 -0.038439002 -0.037224766
000130 61 06 ae bd 9e 90 a4 3d b2 5c fa bd af ae f6 bd
       -0.084973104 0.08035396 -0.122247115 -0.12045037
000140 00 be 97 3c f7 1f bf bc 0b ec 1c bc a5 b6 0e be
       0.018523216 -0.023330672 -0.009577761 -0.13936861
000150 b5 be 30 bd 39 2d c6 bd 71 d9 07 be 45 06 81 bd
       -0.043150622 -0.09676594 -0.13266541 -0.06300024
000160 dd 5e c5 bc d7 35 f1 bd ac 00 01 be 02 d5 d2 bd
       -0.024093086 -0.11777847 -0.12597913 -0.10294534
000170 6a 0d 87 3d 9f b2 b6 bd 21 7b 95 3b 9e d3 60 3d
       0.065943554 -0.08920788 0.0045617973 0.054889314
000180 c3 ef 38 bd bf 97 4d bd 15 75 f1 bc a6 6c 8f bd
       -0.04515053 -0.050193544 -0.029474774 -0.07003145
000190 69 28 07 be ea 11 9c 3c 54 38 cd bd 2e 30 95 bd
       -0.13199009 0.01905151 -0.10020509 -0.0728458
0001a0 d5 8c 3c bd 4b f3 ab bc a0 51 81 bd 6a 1b e8 3c
       -0.046032745 -0.020990035 -0.06314397 0.028333385
0001b0 c9 fc 12 bd 37 da 5f 3c da 94 35 3c 4c df 81 3d
       -0.035885606 0.013662866 0.011082852 0.063414186
0001c0 ab da 99 bd 5c 21 91 bd c5 79 01 be e7 17 9a bb
       -0.07512411 -0.07086441 -0.12644108 -0.0047025564
0001d0 60 ce eb bd 1a 99 0c 3a 16 52 3b 3d a9 e2 9c bd
       -0.11513972 0.000536339 0.04573258 -0.076604195
0001e0 35 fa ed bc 85 15 5f bd 91 f2 9a 3d ea a4 4b bb
       -0.029049972 -0.054463882 0.07565797 -0.0031073638
0001f0 ef a3 7f 3c db 33 b5 3d 5d 38 e4 3d be fa 82 bd
       0.01560305 0.08847781 0.11143563 -0.063954815
000200 88 a9 a9 bd 87 c1 91 be 3f c7 03 bf b4 40 7e bf
       -0.08284289 -0.28467962 -0.514759 -0.9931748
000210 ba 08 74 3e d4 63 77 be 3d 1a 64 bf 56 25 13 3f
       0.23831454 -0.24159175 -0.89102536 0.57478845
000220 a4 8c 0e be 31 09 14 bf 05 b5 33 bd 3e a4 d4 3d
       -0.13920838 -0.57826525 -0.043873806 0.10382889
000230 8a 9f c8 be bb 98 45 3f 1c 55 e4 3d bc 96 ab be
       -0.3918422 0.77186173 0.11149046 -0.3351344
000240 60 ec 0e 3d 71 f2 fe be c2 1e 37 be a3 b9 5d bd
       0.034893394 -0.49794343 -0.17882827 -0.054132115
000250 19 bc c8 bb 1b 6d 20 bd 32 58 32 3e 60 09 50 3d
       -0.0061259386 -0.03916655 0.17416456 0.05079019
000260 5a be 82 be 1a b3 89 3d 5e 44 ce be f1 48 ef 3d
       -0.25535852 0.06723614 -0.40286535 0.11683834
000270 d6 66 c1 3e 36 29 03 be 1b 3e 6b be f7 90 e4 bb
       0.3777377 -0.1280869 -0.2297291 -0.006975289
000280 dd 57 9b bc 0e be 16 3c 24 b9 e4 be 71 2e cd be
       -0.018962795 0.009200586 -0.446725 -0.40074494
000290 46 01 68 3e c6 89 a0 3e 3c 3e 70 bd dd 4e bb be
       0.22656736 0.31355113 -0.0586531 -0.36583605
0002a0 82 f2 c0 3d ab f4 48 3e d4 f2 4f 3e db d0 4c be
       0.09421255 0.19624583 0.20307475 -0.20001547
0002b0 b1 38 18 3e d0 81 b0 3e 9b 8b 5b 3c 94 fa 84 bd
       0.14865376 0.3447404 0.013399984 -0.064931065
0002c0 b5 30 2f 3e 55 0c 8e bd c6 60 c1 3e 5f 95 10 3e
       0.17108424 -0.06935946 0.37769145 0.1411948
0002d0 f9 86 e0 bd 08 db a7 3d 1c ed 54 be 56 71 49 bc
       -0.10963244 0.08196074 -0.20793575 -0.012295088
0002e0 87 76 c0 be 0d 43 50 be 44 5b 38 3e 8a ac 5e 3c
       -0.3759043 -0.20338078 0.18003565 0.013590941
0002f0 5a 65 86 3e 27 d4 9b bd ff fd 6e bf aa 3f 98 3e
       0.262492 -0.07608824 -0.9335632 0.29736072
000300 f3 54 10 be cd af 99 3e e6 f6 16 bf c8 bd 09 3e
       -0.14094906 0.30016938 -0.5897049 0.13451302
000310 11 8c ae be fe 60 5a be 29 80 2a 3f 61 6c ad 3e
       -0.34091237 -0.21326062 0.66601807 0.3387175
000320 5d 10 3a 3d 72 7d c1 be b8 36 72 be cc 67 a7 be
       0.04542576 -0.3779102 -0.23653686 -0.32696378
000330 65 59 24 bd 60 dd 1b bf 3e 13 ee bd a5 ea 75 be
       -0.040124316 -0.60884666 -0.11624764 -0.24015291
000340 44 ec a7 bd fc e6 1c 3e 2d 79 63 3e fc 23 1d 3e
       -0.08199361 0.15322489 0.22214194 0.15345758
000350 42 ba 97 3e d8 d3 e0 3d 0c a2 03 3f fc fc 55 be
       0.2963429 0.10977906 0.5141914 -0.20897287
000360 17 ca a4 3e 3d ea df bd d0 9b 66 be 5d 7e aa 3e
       0.32185432 -0.10933349 -0.22520375 0.33299533
000370 4a 05 94 be 68 be b4 3e 02 06 29 3e c1 38 f5 bd
       -0.28910285 0.35301518 0.16506198 -0.119737156
000380 fe f9 da bc 46 0b 6d 3d d8 c6 94 3e fd f2 0e bf
       -0.026730534 0.05787208 0.29057956 -0.5583952
000390 8d cc b1 3e 5f 1a 0d 3e 5a 29 9f bd 74 da 84 b7
       0.34726372 0.13779591 -0.07771559 -1.5837351e-05
0003a0 0e 87 85 be a6 bc 0d be 33 2c 0b 3c c8 b5 6a 3e
       -0.260796 -0.13841495 0.008494425 0.22920907
0003b0 e1 88 ff bd 0c 62 a3 3e 4c 92 54 be 8d c9 85 be
       -0.124772795 0.3191074 -0.20758933 -0.26130334
0003c0 f3 b4 8b 3e 69 bd 1b 3f 34 a2 eb be f9 78 86 3e
       0.2728649 0.6083589 -0.4602219 0.2626417
0003d0 d9 ca 92 bd 6d fd ef 3a d5 1c bf 3e 5a a5 49 bc
       -0.07167596 0.001830978 0.37326685 -0.012307489
0003e0 4e d3 8d bd 3d cb 9f 3c b3 62 a5 3d b2 8c e3 be
       -0.06925069 0.019506091 0.08075466 -0.4444328
0003f0 82 bd cb bd 4a ad bd 3e 2f 4e 83 3e 30 3d 00 bd
       -0.09948255 0.37046272 0.25645587 -0.031308353

layers.2.bias f4 [64]
000000 f6 7e 3e bc 6b f2 e5 bd d1 44 46 bc 2d 06 5e be
       -0.0116269495 -0.11227878 -0.012101368 -0.21682043
000010 f7 7d 35 be a1 e8 c7 3c ef 6c 08 3d 09 76 17 be
       -0.17723833 0.024402918 0.033307012 -0.1479112
000020 64 a9 bc 3d b2 98 c8 bd 97 fb 07 bd e5 f5 24 be
       0.09211996 -0.09794749 -0.03319892 -0.16109426
000030 e9 1b bf 3d a7 5b 2c be 7d fc d9 bd 3d 10 ea 3d
       0.09331495 -0.16831838 -0.106438614 0.114288785
000040 27 48 99 bd c0 9a 03 3d 2f 13 2c bd f1 85 88 3d
       -0.07484465 0.032130003 -0.042010482 0.06666172
000050 94 4b 60 bd 95 cf dd 3c 08 23 0f be a9 e4 7b bc
       -0.054759577 0.027076522 -0.13978207 -0.015374341
000060 64 a7 1c be 88 f2 00 be 7f a7 81 be cb 05 8a 3d
       -0.1529823 -0.12592518 -0.25323102 0.06739386
000070 94 2a e9 bb 91 d6 19 be 87 8a 47 bd 2f 12 04 be
       -0.0071156714 -0.15023257 -0.048716094 -0.12897561
000080 6a 19 43 be 9b 3f b9 bd 1b a4 2c be a8 59 2e be
       -0.19052663 -0.09045335 -0.16859476 -0.17026389
000090 2a e8 4d 3c 78 88 52 3c 22 20 13 3e 07 e5 57 bd
       0.012567559 0.0128499195 0.14367726 -0.052708652
0000a0 41 f8 1e 3e f6 7c fe bd 2b f4 1b be 0f bb af bd
       0.15524389 -0.12426178 -0.15229861 -0.085806005
0000b0 28 31 06 be ad ce 20 be 92 4a 87 be 35 06 25 be
       -0.13104689 -0.1570384 -0.2642408 -0.16115649
0000c0 05 8c f2 bd f6 26 93 bd 67 08 56 be ef 45 4d bc
       -0.11843113 -0.071851656 -0.20901643 -0.0125288805
0000d0 d1 ad 35 bd 7b e1 44 bd ee 1d 17 bc d7 03 b4 3c
       -0.044355217 -0.048066597 -0.009223444 0.021974487
0000e0 81 51 52 be e1 12 a9 bd 48 c1 98 3c f5 f9 ac bd
       -0.20538904 -0.08255554 0.018646851 -0.08446113
0000f0 3b 92 b9 bd 4a fe 14 be 88 75 22 be f9 bd 0e be
       -0.090610944 -0.14550129 -0.15865147 -0.13939656

layers.4.weight f4 [64, 64]
000000 e2 47 36 be 53 b5 96 bc 91 ca c6 3e 57 3b 04 bf
       -0.17800859 -0.018397009 0.3882642 -0.51653045
000010 7c e5 26 3d 82 1a 77 3e 09 7e 2b 3e 25 b8 6b 3f
       0.040746197 0.24131206 0.16747297 0.9207786
000020 dc 83 f3 be 26 c6 b3 be 91 a1 8f be 3b ab aa be
       -0.47561538 -0.35112113 -0.28052953 -0.33333763
000030 68 de cf bd 65 fd f9 3d 77 8b 86 3d 7e 96 9a be
       -0.101498425 0.12206534 0.065695696 -0.3019294
000040 b0 16 6b 3e d8 11 c4 3c d8 4d ef be cd 12 94 bd
       0.22957873 0.02393429 -0.46739078 -0.072301485
000050 00 e0 34 be 6a 21 f0 3e 7b 4b c7 be 4b 20 47 3d
       -0.17663574 0.46900493 -0.38924775 0.04861478
000060 6f 40 fe bd fe 7d 7b 3d bd f8 f1 3b bc 86 9d be
       -0.124146335 0.061399452 0.0073843882 -0.30766857
000070 a5 ad f5 bd ac 69 9d 3e ac 2c fb be d2 29 53 3e
       -0.11996011 0.30744684 -0.4905752 0.20621422
000080 8a 7c d8 3d 01 77 ac bd d2 a8 a4 3d 65 f0 82 3e
       0.10570629 -0.08421136 0.080400124 0.2557403
000090 fd 9b 61 3e 55 fa 2f be c0 23 88 3e 59 29 98 be
       0.22032161 -0.17185338 0.26589775 -0.29719046
0000a0 4b f7 49 3e 1e f3 e6 be 7b 38 ef 3c a3 86 29 3e
       0.19723241 -0.4510736 0.029201737 0.16555266
0000b0 23 e0 8f 3c 52 20 7b 3c d0 0e 1a be 30 45 81 3e
       0.017562931 0.01532753 -0.15044713 0.25248098
0000c0 52 6e 04 bf b0 76 6f 3c 7c ff 38 3d 56 1f 22 be
       -0.51730835 0.0146157 0.045165524 -0.15832266
0000d0 2d 6f 04 bf a2 92 15 3e 4e f2 93 bd 17 9b d6 3e
       -0.5173214 0.14606717 -0.0722395 0.419152
0000e0 c9 39 bf bc 68 26 a3 3e f3 e8 95 3e 19 7b 9b bc
       -0.023342984 0.3186524 0.2927929 -0.018979596
0000f0 28 5a d0 bd c0 14 82 3d 76 ea 20 bf f3 f8 e5 be
       -0.10173446 0.06351614 -0.6285776 -0.44916496
000100 90 de c8 be b5 d4 e8 bd 73 6b e5 be 67 e6 b9 be
       -0.39232302 -0.11368696 -0.4480854 -0.36308596
000110 52 21 e6 3e 16 02 17 bd 9d dd b4 be fe f6 85 3e
       0.44947296 -0.036867224 -0.35325328 0.26165003
000120 2f 12 75 3d f6 28 d9 be 1a d9 e4 be eb 4f 51 3f
       0.059831794 -0.42414063 -0.44696885 0.8176257
000130 16 23 d1 3d ef 6d f2 3d 3e 18 98 bc 2c 37 11 3e
       0.1021177 0.118373744 -0.018566247 0.14181203
000140 48 d0 03 3e 70 cc 06 bf e4 1c 3c be ff 54 2c 3e
       0.12872422 -0.52655697 -0.18370396 0.16829298
000150 ce 3b 74 3d c5 b8 94 3c 28 ae 8f bd e3 83 fd bd
       0.059627347 0.018154511 -0.070156395 -0.12378671
000160 5c 7a 18 3d e6 88 43 be 41 20 05 bf 6b 8a 1a 3e
       0.037226066 -0.19095191 -0.5200234 0.15091865
000170 a4 67 a7 bd b1 1b 4e 3e 5e 13 13 bf d5 b7 46 bd
       -0.08174065 0.20127751 -0.57451427 -0.04851516
000180 26 48 35 3b 3b 58 8b bc e7 f1 96 3d ef 32 6a be
       0.0027661412 -0.017009845 0.07370358 -0.22870992
000190 92 d9 0a 3e b2 99 94 be c4 7e fa 3e d0 b3 08 3f
       0.13559559 -0.2902351 0.4892484 0.5339937
0001a0 02 83 b4 be 21 dd db 3d 5c f2 a0 3b ec 49 64 3d
       -0.352562 0.10735536 0.004911704 0.05573456
0001b0 7a 07 2f be 8a b3 f5 bc ec c2 01 3e 61 a7 31 be
       -0.17092696 -0.029992837 0.12672013 -0.17349006
0001c0 c7 1b 42 be a4 9b dd bc 68 a7 da ba 5e 45 b3 bc
       -0.18955909 -0.027051754 -0.0016681971 -0.021883663
0001d0 3b 80 54 be be 2b b0 3b c1 f7 56 3d d8 ff 16 be
       -0.20752041 0.005376308 0.05248237 -0.14746034
0001e0 8e cc 92 3e de 13 7c 3e 49 3b 6f 3e 28 00 b0 bd
       0.28671688 0.24616954 0.23362459 -0.0859378
0001f0 19 db f7 3d 26 17 bc be 48 b9 00 bf 40 d8 60 be
       0.121023364 -0.3673641 -0.50282717 -0.21957493
000200 90 95 7b 3e a4 6e 97 3d 71 0f aa bd b1 55 eb bd
       0.24568772 0.0739415 -0.083037265 -0.11490954
000210 ca 1b b3 3e 3a da 40 3e 17 3a 2c 3d e2 b3 00 3e
       0.3498214 0.18833247 0.042047586 0.1256862
000220 ef 4d 52 bd 4b d4 1d bf 0c 44 88 be 3a e0 e2 3e
       -0.051343855 -0.6165206 -0.26614416 0.44311696
000230 3a ed 8f bd 89 21 c0 3c c3 3c fc bc 2b f5 6c be
       -0.07027669 0.02345349 -0.030790692 -0.23140399
000240 54 d0 98 3e d4 aa f1 bd 40 36 5d bd a8 74 86 bd
       0.29846442 -0.11800161 -0.054006815 -0.06565219
000250 52 91 06 be 7b 8b 02 3f 64 a4 23 be c8 b1 23 bf
       -0.13141373 0.5099408 -0.15980679 -0.6394315
000260 1d 2a 9b 3d 92 e1 e2 bd 95 3a 64 be d4 c3 05 be
       0.07576392 -0.110781804 -0.22287972 -0.13062984
000270 48 1d 80 bf 9b 74 93 3e 3b 8a 44 be 44 a4 89 bd
       -1.0008936 0.287999 -0.19193356 -0.06720784
000280 c1 1f c9 3d 03 b5 47 bd 06 b6 10 be 9a e9 a7 bd
       0.0982051 -0.04875661 -0.14131936 -0.08198853
000290 f1 e5 dd be dd 59 9d be 3b ab 10 be 82 40 24 3f
       -0.43339494 -0.30732623 -0.14127819 0.6416093
0002a0 75 29 5c be d5 3e e2 be d8 39 17 be e7 86 b3 3d
       -0.2150019 -0.44188562 -0.1476816 0.08765965
0002b0 9f c6 78 3d 25 3a 5c bc f5 c1 88 be 3e 5f c3 3d
       0.060736295 -0.013441597 -0.26710477 0.095396504
0002c0 89 bf c2 be 65 b3 b4 be 45 50 56 3d 48 b3 2e 3e
       -0.38036755 -0.35293117 0.052322645 0.17060578
0002d0 c7 2b dd be 98 2c 0b 3e db 91 12 bf f9 f2 ad 3e
       -0.43197462 0.1359123 -0.5725381 0.33974436
0002e0 80 40 2c 3d f6 1e c3 bb 87 de 23 3d d2 86 73 bc
       0.0420537 -0.0059546186 0.04000714 -0.014863687
0002f0 0c b4 87 bd 91 8d 12 3e 58 62 7d be 3d 4b 44 3e
       -0.06626138 0.14311816 -0.24744546 0.19169326
000300 81 d8 82 be e9 ca 88 bd c5 44 e8 be ff 5e 11 bf
       -0.25555804 -0.06679327 -0.45364967 -0.5678558
000310 dd 92 27 3e 54 11 47 be c2 80 80 3e a9 b7 e4 be
       0.16364618 -0.19440204 0.25098234 -0.44671372
000320 11 79 2f bf a9 bc b7 bd 81 ef fc bd ff 0f c6 be
       -0.6854411 -0.08971531 -0.12350369 -0.3868408
000330 3f 11 25 be b6 bc b8 bd 1d 25 23 bd 5b 17 a7 3e
       -0.1611986 -0.09020369 -0.039830316 0.32635006
000340 de 53 21 be 90 5e a7 3d 67 82 85 be 37 0b 1f 3f
       -0.15754649 0.08172333 -0.26076052 0.6212649
000350 62 e1 42 3e 30 2f e6 3e ca 4a 85 3d d3 5e ff 3d
       0.19031289 0.44957876 0.065084055 0.12469258
000360 76 4f 5c bd ea 71 5e bd ac ac 12 3f f3 33 f3 3e
       -0.053786717 -0.054307856 0.57294726 0.47500572
000370 50 99 96 3e 1c 7f c2 bd c8 13 4a be 08 ea 53 be
       0.29413843 -0.094969004 -0.19734108 -0.20694745
000380 8b 26 c6 3c 10 04 34 bc 80 0b c7 bc ec c7 b9 be
       0.0241883 -0.010987297 -0.024297476 -0.3628534
000390 0c 3b e1 be ee 5a 2b be 5a f2 d4 3d 6c 02 cf 3d
       -0.43990362 -0.16733906 0.103977874 0.10107884
0003a0 43 01 74 3e 1b 38 2c 3e db ce f8 3c c3 87 c8 bc
       0.23828606 0.16818278 0.030372074 -0.024478799
0003b0 31 0b 08 3e d1 f0 ee 3d 87 ec 04 bb f6 f4 a2 bb
       0.13285519 0.11667026 -0.0020282583 -0.0049730493
0003c0 99 b4 40 bd 7f 22 b3 be 1a 2a cf 3b 2f fe 83 bd
       -0.04704723 -0.34987256 0.0063221576 -0.06444966
0003d0 d5 94 a2 3e cc 01 cd 3d fb d7 1b 3e 36 41 a8 3d
       0.31754175 0.10010108 0.15219109 0.08215563
0003e0 aa 02 2d 3c 03 4d 3a 3d f7 7c 50 3e bd bd 1c 3d
       0.010559717 0.0454836 0.2036017 0.038266886
0003f0 e9 42 68 3c ce 2d 42 3d 8d ad db 3e 35 16 d5 3d
       0.014176109 0.047406964 0.42905846 0.10404626

layers.4.bias f4 [64]
000000 64 37 f3 3d aa fa 18 3e 4b f2 07 3e 0b 02 b6 bd
       0.11875799 0.14939371 0.13276021 -0.088871084
000010 38 9e 2b be 24 be 1e be 14 28 99 be e5 fa 75 3c
       -0.16759574 -0.1550222 -0.2991339 0.015013431
000020 07 dd 3a be 77 df a9 3d 74 ba 90 3d 2d 56 0e 3e
       -0.18248378 0.08294576 0.07066813 0.13900061
000030 f1 98 70 3d 31 bf b7 3d c6 ed a9 be c6 b6 4a be
       0.058739606 0.08972014 -0.3318922 -0.19796285
000040 e8 33 27 3d 73 aa 49 3e bd 42 11 be e5 38 a5 bd
       0.040820986 0.19693927 -0.14185615 -0.080674924
000050 b2 a8 d9 bd 86 bb 10 3d 14 25 f6 bb 42 52 98 3d
       -0.10627879 0.035335086 -0.0075117443 0.074375644
000060 eb d5 b6 3d 82 9f eb bd b0 ad 14 be d3 29 07 3e
       0.0892752 -0.11505033 -0.14519382 0.13199548
000070 f1 9f 21 be d2 1f 22 be 72 77 92 bd 33 4c 53 3d
       -0.15783669 -0.15832451 -0.07151689 0.05158634
000080 58 30 cd bc e4 e8 14 be 76 31 c2 bc c5 04 9b 3d
       -0.025047466 -0.14541966 -0.023705225 0.07569269
000090 3d 4a 79 3d ce e9 5c be 2e 84 35 be 8b bd d7 bd
       0.060861815 -0.21573564 -0.17726204 -0.10534199
0000a0 20 c5 84 3c 23 cd f3 bd b3 1a d0 bd 5b bf 8a bd
       0.016207278 -0.11904361 -0.101613425 -0.067747794
0000b0 c0 1c c7 bd bf 9f 07 3e 90 e4 51 be c9 ad 25 3d
       -0.097222805 0.13244532 -0.20497346 0.040448938
0000c0 a6 94 0b be e1 fb ac bc d1 ca e5 bd ae 46 00 3e
       -0.13630924 -0.021116199 -0.11220325 0.12526962
0000d0 c8 dc fe bd 8e 20 f7 3d 74 6c 4e be 47 51 4e bc
       -0.124444544 0.12066756 -0.20158559 -0.01259262
0000e0 73 47 52 3e 91 f5 fe bd 25 df cb bd 6c d7 46 be
       0.20535068 -0.12449182 -0.09954671 -0.19418114
0000f0 14 8b 8d be 8a f5 e4 3d 56 4a 6a be d4 1d e0 3d
       -0.2764517 0.11179645 -0.2287992 0.10943189

layers.6.weight f4 [64, 64]
000000 aa e7 77 bd 46 7a 92 bd 9c df ad bb c3 ed ce bd
       -0.060523666 -0.07152228 -0.0053061973 -0.10103943
000010 2c 3f 89 3d 8a 3e 7f bd be f0 87 3d e8 86 1d bd
       0.06701502 -0.0623155 0.06637715 -0.038458735
000020 93 ce 90 3b dd 98 8a 3c 76 db 8a bd 7a 6d 23 3c
       0.004419157 0.016918594 -0.0678014 0.009974832
000030 20 5a 6a bb eb f2 22 3d 7d 22 d6 bd 48 cf f9 bd
       -0.0035759285 0.039782446 -0.10455797 -0.12197739
000040 f2 a4 a1 bc 83 81 cb bd 5c 6c 8a bd 59 77 f8 bc
       -0.019731972 -0.09936812 -0.06758949 -0.030330347
000050 23 2e be 3d 10 49 8f bd 25 08 dd 3c 13 d9 f2 bd
       0.09286144 -0.069963574 0.026981423 -0.1185781
000060 4f 50 a3 3d 40 7d 6d bd d4 76 24 bc be 45 ed 3c
       0.07974302 -0.057980776 -0.010038096 0.02896392
000070 00 d3 98 bd 16 c7 e5 3d d9 94 ed 3d 79 0f 3c 3d
       -0.0746212 0.11219613 0.11600656 0.045913193
000080 c0 54 93 bc 71 85 db 3d 58 26 aa bd 15 5a bf 3d
       -0.017984748 0.10718811 -0.08308095 0.09343354
000090 4a ab 71 bb 6f fd a3 bc b6 b6 bb 3c 20 c8 e8 3d
       -0.0036875778 -0.020018307 0.022914272 0.11366296
0000a0 f2 c8 ba 3c 60 df a7 3d a2 88 4e bd 74 89 9a 3d
       0.022800896 0.08196902 -0.050423272 0.07545748
0000b0 0b c5 e4 bc 94 62 83 bd 15 3c 88 bc 8b 41 0b be
       -0.027925989 -0.06415287 -0.016630212 -0.13599221
0000c0 e7 bd f7 bd 9e e3 81 bc 5c 47 bf 3b ce 4d ba bd
       -0.12096768 -0.015855607 0.005837364 -0.09096871
0000d0 e4 73 bf 3d 99 f7 51 3c c2 c5 19 3d a7 d4 9d bd
       0.09348276 0.01281538 0.037542112 -0.07706576
0000e0 28 a5 1f be 16 92 32 3d c9 7f a2 3d fb 4b d6 3c
       -0.15590346 0.04359635 0.07934529 0.026159277
0000f0 da 98 cf 3c 62 b0 dc bd 59 d3 63 bd b4 a1 d9 3c
       0.02534144 -0.1077583 -0.05562148 0.026566364
000100 e0 ea 45 be 01 16 ee 3d 9e 2a 12 be 53 5e 9d be
       -0.19327879 0.11625291 -0.1427407 -0.30736026
000110 11 78 59 be d8 d3 43 3d 2e 9c ac 3d 84 c7 4a be
       -0.21237208 0.04780945 0.084282264 -0.19802672
000120 0b 9a ef 3c 11 65 10 bc 3e f3 18 3d b8 d6 7a 3c
       0.029248258 -0.008813159 0.03734135 0.015309982
000130 fd 80 69 be 4e d8 40 be 5a 7f d4 bd 07 69 01 be
       -0.22803111 -0.18832514 -0.10375853 -0.12637721
000140 c9 61 61 be 54 7f 1a bf 33 ae 19 bd 89 66 bc be
       -0.22009958 -0.6035054 -0.037519645 -0.36796978
000150 25 3d fa 3c ac 8d 7d be 98 db c4 be d3 08 7d 3e
       0.030546734 -0.24761075 -0.38448787 0.24710397
000160 0e 25 80 be fe 94 9b bd ec 45 f3 3d 41 5f ee 3e
       -0.2502827 -0.075967774 0.11878571 0.46557048
000170 c0 77 70 bd 97 40 fa 3d 69 fd 8e 3c b5 52 26 be
       -0.058707952 0.12219351 0.01745482 -0.16242488
000180 4b 28 4c 3e 70 5f 03 bd 14 fd a2 be c3 23 ee bd
       0.19937246 -0.03207344 -0.31833708 -0.11627915
000190 df 79 3c be 85 ff e4 bd 9a ca 16 be 53 49 ff bd
       -0.18405865 -0.11181549 -0.14725724 -0.12465157
0001a0 88 cc bd 3d 75 0d bb bc 9a 5d 09 be 31 e0 ee be
       0.09267527 -0.022833565 -0.13414612 -0.4665542
0001b0 29 ad 14 3e 3c 51 2a 3e d2 3a ad 3c dd a8 0c bd
       0.1451918 0.16632551 0.021146212 -0.034340728
0001c0 88 6f bc bc 0b 03 ef bd 73 3b fb bc c2 2d e3 3d
       -0.023002401 -0.11670502 -0.030667996 0.11092712
0001d0 e2 b1 13 3e c3 49 17 bf be 3c 57 3e 00 f4 30 be
       0.14423326 -0.59096926 0.21019265 -0.17280579
0001e0 8b f4 60 be b2 f0 ea 3d 49 33 0c 3d ac 5d 8d bd
       -0.21968286 0.1147169 0.034228597 -0.06902632
0001f0 5f ce ae 3e 33 f7 cb be 46 d2 88 3e 3d b3 04 3d
       0.34141824 -0.39837036 0.26722926 0.032397497
000200 8b 39 ae bd 11 6e cb 3c 31 08 f3 bd 40 65 30 bb
       -0.08507069 0.024832757 -0.11866797 -0.0026915818
000210 f4 bc f9 3d 20 15 a2 3d ea 46 8e 3d df 89 ca bc
       0.12194243 0.079141855 0.069471195 -0.024723945
000220 50 14 fb 3c 8e 9d ab 3c 9a 1a 32 3d f6 5f 8b bc
       0.030649334 0.020949151 0.0434824 -0.017013531
000230 3a 83 f1 bd dc 41 98 bd 6b 9d d1 3d 8a 26 ae bd
       -0.117926076 -0.07434437 0.10235103 -0.085034445
000240 9a 2a 48 3d 8a fd 0a bc ae 08 84 3d fe c3 c8 3d
       0.048868753 -0.0084833 0.06446968 0.098030075
000250 60 f9 d5 bb 76 61 ec 3d 1c 80 b2 bd 94 e2 7b bd
       -0.006529972 0.11542027 -0.08715841 -0.06149538
000260 28 9d be bd 68 6f fa bd e6 fa 87 bd e4 0d 3d 3d
       -0.09307319 -0.1222828 -0.06639652 0.046155825
000270 ac 66 ae bd c6 8d dd 3d d8 c4 3a 3d 59 5e d7 bd
       -0.08515677 0.10818057 0.04559788 -0.10516042
000280 98 3d 7a bd 26 bf bd 3d 18 ac c6 bc 88 d2 6b bc
       -0.061093897 0.09264974 -0.024251983 -0.014393456
000290 f4 e3 8c bd c6 91 d5 bd 98 e5 df bd 84 b8 42 3d
       -0.06879416 -0.10428195 -0.109324634 0.04753925
0002a0 21 31 c6 bd b2 7c 8f 3d a8 25 96 3c b6 ed b5 bd
       -0.09677339 0.070062056 0.018328503 -0.088832304
0002b0 e5 bc e7 bd a4 3c 8d bd 50 ab 19 bd 68 03 2c bd
       -0.11315326 -0.06896332 -0.037516892 -0.041995436
0002c0 34 f7 8f bd 08 fb c5 bd bc d5 4b bd da 98 d6 bd
       -0.07029572 -0.09667021 -0.04976438 -0.10478373
0002d0 4c 3a e8 3d 8a c0 fe bd 80 bf 9b 3b 79 f8 2f be
       0.11339244 -0.12439068 0.004753053 -0.17184629
0002e0 ef a6 59 3c 64 5e dc 3d 34 51 b6 3d 18 e5 ac bc
       0.013284429 0.10760191 0.08902207 -0.021105334
0002f0 ba a4 d1 3d 6d 55 22 3d c2 ee 96 bb e7 24 9d bd
       0.10236497 0.03963225 -0.004606099 -0.07673054
000300 5f 5b 7c bd 0b d1 ac 3e 1d 05 26 3e c9 95 b1 3b
       -0.061610576 0.33753237 0.16212888 0.005419467
000310 d3 27 97 3d e4 c9 66 bd fd b5 35 bd 27 8a 92 3d
       0.07380643 -0.05634488 -0.04436301 0.07155257
000320 c8 ef c8 bd 65 d6 4b be 66 f2 98 be b4 0b 8b 3e
       -0.0981136 -0.19906004 -0.29872435 0.27157366
000330 c6 48 86 3e 54 31 fa be ee 7f 7a 3e 8b f3 5d 3b
       0.26227397 -0.4886576 0.24462864 0.0033867087
000340 4b 5e 92 3e ba c9 bb bb e8 4a 56 3d 60 b9 bf be
       0.28587565 -0.005730835 0.05231753 -0.37446117
000350 34 e6 ab bd af 65 62 bd 21 63 dd 3c 9f 5c f2 bc
       -0.08393517 -0.055272754 0.027024807 -0.02958518
000360 ef 00 8f be e4 5d a0 bd ad 27 a1 3d 72 39 6b 3d
       -0.279304 -0.07830408 0.07868896 0.05742783
000370 6c a5 cf 3d f0 15 8f bc 25 1b e1 3e e6 12 8c be
       0.101389736 -0.017466515 0.43966022 -0.27358168
000380 c5 9c 9e 3c 12 3a b5 bd b9 05 84 bd 44 fb a3 3e
       0.019361863 -0.08848967 -0.06446404 0.32027638
000390 04 b5 c8 be 74 48 65 3e 85 b6 5b be e7 da 7a 3b
       -0.39200604 0.2239092 -0.21456344 0.0038277449
0003a0 87 d4 31 bd 86 46 b1 3d 49 2e 91 3b be e9 8b bd
       -0.043415572 0.086560294 0.0044305664 -0.06831692
0003b0 5d 7a 4e 3d b3 38 2b 3e a0 f9 81 3d c6 a1 98 3e
       0.050409663 0.16720848 0.0634644 0.29810923
0003c0 1b 54 a9 3d 52 af 05 3e cc 01 f9 bd 0b 0d 0c be
       0.08267995 0.1305516 -0.12158546 -0.1367685
0003d0 47 ab 0a bd 8a 85 c8 bd e3 aa c3 be 22 e5 2b 3e
       -0.03385475 -0.097910956 -0.38216314 0.16786626
0003e0 26 a1 b0 bd d0 dc 6e bc b0 d8 0d 3c 14 b8 bf bd
       -0.086244866 -0.014579013 0.008657619 -0.09361282
0003f0 b7 1c 34 be 7d 36 10 3e 9c da 82 bd 8d 6d b2 3d
       -0.17589079 0.14083286 -0.06389353 0.087123014

layers.6.bias f4 [64]
000000 c4 5b e9 bd fe 50 32 bd bb fc d9 bd 67 1d 60 bc
       -0.11394456 -0.04353427 -0.10643908 -0.013678885
000010 38 12 5f 3e 0b 8e 54 bd cc 47 0f bd a3 b8 e5 bd
       0.21784294 -0.051893275 -0.03498058 -0.11216857
000020 c0 d9 00 be f5 71 ae 3b a8 a4 ea bd 85 68 06 bd
       -0.12583065 0.0053236433 -0.11457187 -0.03281452
000030 88 ff c2 bd 8c a9 1e 3e ab 85 e8 bd 36 61 05 bd
       -0.09521395 0.15494365 -0.1135362 -0.03256341
000040 33 2a 12 3e 43 ec ab bd 5a f0 10 be e6 78 0b be
       0.1427391 -0.08394673 -0.14154187 -0.13620338
000050 68 b2 f1 3d f2 78 fb 3d b4 16 ed bd 86 16 3d be
       0.118016064 0.12278928 -0.11576596 -0.18465623
000060 18 2a 82 3d 94 ae 2b bc 44 13 01 3d b7 39 9e bc
       0.06355685 -0.010478634 0.031512514 -0.01931463
000070 22 cc 91 bd 3b d1 1d be 47 d3 9e bd 10 5f 13 3e
       -0.07119013 -0.15411846 -0.07755142 0.14391732
000080 6e e3 52 be 63 71 b1 bd 5d a2 3d 3e c5 4d 9b bd
       -0.2059457 -0.08664205 0.18518968 -0.07583193
000090 12 88 ee bd 60 cf 53 be 37 7e d0 bd 6b d5 13 bd
       -0.11647047 -0.20684576 -0.101803236 -0.036092203
0000a0 1b a8 0f bd 92 e2 49 3e 05 1e 1b be f2 7a f6 bd
       -0.035072427 0.19715336 -0.1514817 -0.12035169
0000b0 93 f0 13 be 9a c2 76 be d6 61 80 bd b3 65 33 be
       -0.1444724 -0.24097672 -0.06268661 -0.17519264
0000c0 9a 7d 11 be 16 cd 5b 3e 3f 0e 4e 3d 2f b4 33 bd
       -0.1420807 0.21464953 0.050306555 -0.04387301
0000d0 8e f7 36 be ee d4 d1 3d cd 10 b1 bc 12 ce cb bd
       -0.17867872 0.10245691 -0.021614457 -0.09951414
0000e0 eb 26 23 be 46 86 1d be 84 8e 15 be 44 ad f8 bd
       -0.15932815 -0.15383253 -0.14605147 -0.12142423
0000f0 7e 31 91 bd 4d 2e 1c be 0c 2c c3 bd 77 c6 8e 3d
       -0.07089518 -0.15252037 -0.09529886 0.06971448

layers.8.weight f4 [64, 64]
000000 9d a7 74 3d 0a 32 0b 3e 22 7f a1 bc f6 33 30 be
       0.05973016 0.13593307 -0.019713942 -0.17207322
000010 13 d2 69 be ff 5b f1 bd 21 e3 07 3e ec e4 aa 3b
       -0.22834043 -0.11785125 0.13270237 0.005215278
000020 cf cd b4 bc a7 fd 63 3e 75 97 81 3c ab f4 d9 3c
       -0.022070793 0.2226473 0.01581929 0.026605925
000030 a7 c4 a0 bd 1d f3 21 be b0 62 a9 bc ad 16 27 be
       -0.078500085 -0.15815397 -0.02067694 -0.16317244
000040 58 b9 55 bb c0 02 a4 3d 09 25 28 3e b4 19 94 bd
       -0.0032611694 0.08008337 0.16420378 -0.07231465
000050 33 dc 55 be 3c 7b 70 be 14 be 26 3e f6 e7 83 bd
       -0.2088478 -0.2348451 0.16283447 -0.064407274
000060 2d 93 af be c3 85 5c be ca 9b 22 3d 5c a1 f9 bd
       -0.34291974 -0.21535401 0.039699353 -0.1218898
000070 30 11 ec 3d 49 6f d3 bd 24 22 bd 3d 6d d7 59 be
       0.11526716 -0.1032396 0.092350274 -0.21273585
000080 34 1c d1 3c c9 43 9a 3c 90 2b c0 3d 24 76 07 3e
       0.025526144 0.01883115 0.09383309 0.13228661
000090 99 94 f1 bd 53 82 ca 3c c0 b3 cf bd 80 c5 88 3e
       -0.11795921 0.024720347 -0.101417065 0.2671318
0000a0 ad cf c2 3e 86 9d 0b be 67 3e 8c 3b a0 55 a5 3b
       0.3804907 -0.13634309 0.0042799 0.0050456077
0000b0 0d 37 88 3e c4 58 4b 3a e8 d2 a5 3c 3a 1e fc 3d
       0.266045 0.00077570626 0.02024217 0.12310453
0000c0 fb 8e 2d 3e f2 ab a9 be f1 93 1f bd 0a 1f 1d be
       0.16949074 -0.33138996 -0.038959447 -0.15343872
0000d0 1b 88 bb bc 3b be 94 be 51 8c c7 bd 38 3d d5 3c
       -0.022892049 -0.29051384 -0.0974356 0.026030168
0000e0 24 b7 90 3d ec a0 4c bd bf 89 ca bd 7d 04 c6 bc
       0.07066181 -0.049958155 -0.09889554 -0.024172062
0000f0 7d b1 04 3f 0f 69 fb bd 24 f6 c8 3d 60 8b 98 bb
       0.51833326 -0.12275898 0.098125726 -0.0046552867
000100 d7 57 d5 3c f1 d6 e7 3c 90 af ed bd 3a a9 f7 bd
       0.026042862 0.028300734 -0.116057515 -0.12092824
000110 28 44 99 be 44 fb b1 be 1f 46 95 3d e6 0c b9 bd
       -0.29934812 -0.34762013 0.07288765 -0.09035663
000120 68 02 d1 bd 07 06 d0 3e 14 34 9b bc 9a 44 fb 3d
       -0.10205537 0.40629598 -0.018945731 0.12268944
000130 96 0f b8 3d c7 f2 5b 3e e0 38 d3 3c 4e dd d4 be
       0.08987348 0.21479331 0.025783956 -0.41575092
000140 75 73 16 be 92 9e 2e 3d 0e 12 fa 3b 20 a8 e4 bb
       -0.14692481 0.042631693 0.007631547 -0.00697805
000150 91 94 10 3e 69 29 8d be 02 67 d9 3d 18 2d ce 3c
       0.14119174 -0.27570656 0.1061535 0.025167987
000160 b8 ab 3d bf 75 37 d3 3d 1f 6d dd 3b fb 7a 1f 3e
       -0.74090147 0.10313312 0.006757393 0.15574257
000170 75 bd 8b bd e7 94 48 bd 81 6b 58 ba d9 7a ca be
       -0.068232454 -0.04897013 -0.00082557654 -0.3954685
000180 ef 3f b7 3d 3d 1f 86 bc 11 42 e7 3b b1 48 1c 3c
       0.08947741 -0.016372317 0.0070574363 0.009538815
000190 5c 3d 94 3d 15 75 94 3b 94 ca 40 bd a1 d6 53 3e
       0.07238266 0.004530559 -0.047068194 0.20687343
0001a0 ce 9d dc 3e e6 25 99 be 26 58 c6 3c c9 cd aa bd
       0.43089145 -0.29911727 0.024211954 -0.08340032
0001b0 57 d1 9c 3e d0 fa 17 be f4 98 95 3c e2 94 69 3d
       0.30628464 -0.14841771 0.01826141 0.05702675
0001c0 86 fe bc 3c ec 93 b9 be c6 14 9a 3d 2d d2 54 be
       0.023070585 -0.36245668 0.075234935 -0.207833
0001d0 50 82 bf bd 4b 9c f4 be db 5c 53 bc 64 0d cc 3d
       -0.09351027 -0.47775492 -0.012900556 0.099634916
0001e0 d9 14 b0 bd 22 1a 2b bd ae a9 5c 3c f9 8e b0 3c
       -0.085977264 -0.04177297 0.013468189 0.02155255
0001f0 c6 45 0b 3f c7 41 a2 bd 5e 3f f3 bd 51 e4 2a be
       0.5440334 -0.07922702 -0.11877321 -0.16688658
000200 7c 27 84 3d f0 74 6e be 6f 2f 06 3d 7f 81 cc bd
       0.064528435 -0.23286796 0.03276008 -0.09985637
000210 ad 9e c6 3d 96 77 86 3e 2f f9 85 be 72 15 79 bc
       0.09698234 0.26263112 -0.26166674 -0.015202867
000220 8a 39 9f bd 5e f2 e5 3e 7b 2a 30 bc 04 89 f6 3d
       -0.077746466 0.44911474 -0.010752316 0.120378524
000230 e7 04 cb 3d 79 f2 92 3e 45 e7 18 bc 44 be 00 3d
       0.099130444 0.28700617 -0.009332483 0.03143145
000240 57 49 ae 3d 54 da 47 bd da 44 2b 3e b9 87 93 3d
       0.08510082 -0.0487922 0.16725484 0.072036214
000250 80 f0 a4 3e bc 81 99 3e 36 b3 f0 bd 00 30 07 3d
       0.32214737 0.29981792 -0.11752932 0.03300476
000260 b3 62 9e be 2d 53 c7 3e 65 7a 13 bf 60 da 4e 3e
       -0.30934677 0.38930646 -0.57608634 0.20200491
000270 b4 5e a5 3d 6d 61 b5 bd 73 6a 22 bf 2c 60 84 3e
       0.08074704 -0.08856473 -0.6344368 0.25854623
000280 73 d6 10 3d 11 96 b1 3d 1e d0 10 bf f1 cb 6a be
       0.035360765 0.08671201 -0.5656756 -0.2292936
000290 67 bf 92 3d 7d c9 9f be 1a 98 f9 3d 02 64 d5 3e
       0.07165413 -0.3120841 0.12187214 0.41677862
0002a0 e3 fd 97 bd 41 ba 0d 3d dc f2 97 3d 2d 65 e6 bc
       -0.07421472 0.034601454 0.074193686 -0.028124416
0002b0 1b 97 0d bf 0f 7d 0d bf 30 4b 02 be 39 05 09 3d
       -0.55308694 -0.5526895 -0.12723994 0.033452246
0002c0 37 03 8a be 05 2c 1c 3d 83 a4 30 bf 7c 7a 2c 3d
       -0.26955578 0.038127918 -0.69001025 0.042108998
0002d0 92 70 c5 3d fc 9a 87 3e 62 45 5c 3d 8a 3e f8 3d
       0.09640612 0.2648543 0.053777106 0.121213034
0002e0 81 65 fe bd 11 7f bf bd b3 f3 a4 3d 90 9b d4 3d
       -0.12421704 -0.09350408 0.080542944 0.10381234
0002f0 92 29 f9 bc c7 46 29 3d 28 73 0d be 7b d3 63 bd
       -0.03041533 0.041327264 -0.1381346 -0.055621605
000300 d0 52 44 3d 09 65 c3 be f2 51 ab bd 09 1f 7f be
       0.04793054 -0.3816302 -0.08365239 -0.24914183
000310 40 48 02 bc df 94 a8 bd 32 28 95 be 30 d6 5b 3d
       -0.007951796 -0.0823152 -0.2913223 0.053671062
000320 7b 7d a8 bd ee 93 d2 3e 8c a2 32 3d d9 c4 07 3d
       -0.082270585 0.41128486 0.043612048 0.033146713
000330 3b 64 55 3b 38 b9 c8 bd 10 28 a5 3c be 9c d4 3d
       0.0032560963 -0.09800953 0.020160705 0.10381459
000340 29 a7 6b 3e 59 79 56 3e 48 9a a9 3c b2 3a e8 3d
       0.23012985 0.20944728 0.02070345 0.1133932
000350 ad cb 02 3e 0e 5c 02 3b 92 55 ab bd 28 2e cb 3d
       0.12773009 0.0019891295 -0.083659306 0.09920913
000360 10 6d 0b bf 06 63 37 3e a4 ec 02 be 48 2d c1 3c
       -0.5446329 0.17908868 -0.12785584 0.023581162
000370 2d fc 91 bd 92 7c 85 3d 52 f3 de be b3 06 f8 bc
       -0.07128177 0.065179005 -0.43545014 -0.030276632
000380 23 c9 e5 bd 62 5a b6 bd eb 34 03 bf 52 8a 7c 3d
       -0.112200044 -0.08903958 -0.5125262 0.06165535
000390 12 54 0e 3d 37 dc d0 3d 48 f2 1c bd 6c 55 84 3e
       0.034748144 0.10198253 -0.038316995 0.25846422
0003a0 5b 8c 5c be 9f 46 9b bd c4 bd db bd 17 49 1c bd
       -0.21537916 -0.07581829 -0.10729554 -0.03815564
0003b0 14 85 ea bd f1 45 98 be 72 d5 2e be 81 4f e5 3d
       -0.11451164 -0.2974086 -0.1707361 0.11196805
0003c0 05 a3 03 bf 6b d6 35 bd 44 8a 0e bf e3 67 26 3e
       -0.51420623 -0.044393938 -0.55679727 0.16250567
0003d0 82 ad 5a bd 90 56 13 3d ad 35 12 3d f0 7b e5 bc
       -0.053388126 0.035971224 0.03569572 -0.0280132
0003e0 30 48 5a bd b5 e0 9a 39 41 cb 7c bd 15 18 ca 3d
       -0.0532915 0.0002954059 -0.061717276 0.098678745
0003f0 84 ee 88 bd 88 70 f6 bc 8f 7a 8b bd 06 56 a4 be
       -0.06686118 -0.030082956 -0.068104856 -0.3209688

layers.8.bias f4 [64]
000000 8f a2 b6 bd 19 36 8c ba 47 ba db 3d dd 3a 1a be
       -0.08917724 -0.0010697275 0.10728889 -0.15061517
000010 0c 71 1c be b0 c2 1b bd 4a 12 89 bd ec 30 15 3e
       -0.15277499 -0.038027465 -0.066929415 0.14569443
000020 96 c9 3a be 1a 7b aa 3b 29 e2 ea 3d dd 99 01 bc
       -0.18240961 0.005202663 0.11468918 -0.007910219
000030 93 c1 20 be 7d 5b ab bd 6c 5e fe bd 52 cb c9 bc
       -0.15698843 -0.083670594 -0.12420353 -0.024633083
000040 e2 f1 bf bd be 38 0f be 88 20 64 bd e0 40 98 3c
       -0.09372307 -0.13986489 -0.055695087 0.018585622
000050 12 69 06 be 10 2b 08 be 53 de c6 bd b4 93 f1 bc
       -0.13126019 -0.13297677 -0.09710374 -0.029489376
000060 a2 ad 1c be 5c 08 fd bd e2 b7 76 3e b2 59 13 3e
       -0.1530061 -0.1235511 0.24093583 0.14389685
000070 57 9d 0c 3c 55 6e 48 3c 53 d1 05 be 06 de ba 3d
       0.008582435 0.012233336 -0.13068132 0.09124379
000080 e8 70 f0 bb d5 1d e2 bd b5 d3 61 bb e9 6a c9 bd
       -0.007337678 -0.11040846 -0.0034458463 -0.098348446
000090 31 97 23 be ac 80 31 be bf 2c 77 3e 71 6c 4c 3e
       -0.15975644 -0.1733424 0.24138163 0.19963242
0000a0 78 c1 e3 bd 4d d6 34 be 8b 8e 13 3e bc 33 18 be
       -0.111208856 -0.17659874 0.14409845 -0.14863485
0000b0 4a 08 48 be c1 91 e5 bd a7 21 e5 bd c7 19 d1 bd
       -0.19534412 -0.11209441 -0.11188059 -0.10209995
0000c0 9c 46 8a bd b6 91 ca 3d de 5d 24 be 6e da f1 bd
       -0.06751749 0.098910734 -0.16051432 -0.1180924
0000d0 a7 0f 8c bd 6b 04 28 bd 74 9f 19 be 4a 83 d6 bd
       -0.06838923 -0.04101984 -0.15002233 -0.1047426
0000e0 20 14 42 be 52 fd ec bd 0b 15 bd bd e2 02 02 bd
       -0.1895299 -0.115717545 -0.09232529 -0.03174103
0000f0 b9 09 9d be ea 76 8d bc c5 de 6b 3e 1f e7 3e bd
       -0.3067148 -0.017268617 0.23034199 -0.046607133
