watermark_reliability_release/watermarks/aiwei23/model/sub_net.pt (torch, 125557 bytes, 16 tensors)

layers.0.weight f4 [64, 16]
00000000: 2683 8dbc d340 4c3e ecea 983d b4bc 053d
00000010: d7b5 4a3e 7cc0 bf3e 0c9f c23c 3e99 053e
00000020: d67e 79be 6b8d b93d 6d72 f7be ded2 12bf
00000030: 13f4 43be 1d17 0cbe 82fc 0b3e 3135 3b3e
00000040: 2e64 2f3e 4b12 6dbc 7b5e 3f3e 6a02 243d
00000050: 8aa5 97bd ed58 5bbe d999 183e 0ed2 923e
00000060: b717 bfbd 0196 84bd 3f30 42be 1be2 42bf
00000070: 4920 973d 07ab 953e 27f2 80bc cc0d 03be
00000080: 8a01 c93e 8729 bd3e d23c 473e 1a82 60bd
00000090: 53a1 4fbe 6358 70bb c1ce f6be 3c14 7abc
000000a0: 07ea 0ebf 00e3 abbe 1fab 7bbc 94a0 b1be
000000b0: 0e80 013e c075 a4be c49a db3d 484b f0bd
000000c0: a1d5 9cbc 53d7 5dbe bbc6 d13e b0c6 cf3d
000000d0: eac6 a1bc 0d17 cb3c ed25 66bf 83be 29be
000000e0: 310b 64bd 7326 b33e b7dd d8bc 2cd6 10bf
000000f0: 95cb 2dbe eca5 563e 5437 a63c bb4c a9be
00000100: b14c 873e 5201 313e c525 32be 67b7 84be
00000110: 772a f2be d8a6 cabd 1785 083e b4bf c0be
00000120: 5d2e 8d3c b4ec 8c3e 85ca 4c3e d59b b03e
00000130: 3d1f 4c3e 1918 7dbe a4d2 51bd 895a a03e
00000140: 3cb0 d5be cb15 c23e 0907 e33d 0aa0 5fbf
00000150: 17a2 5b3e 1bc3 413e 8856 5fbc 2b04 35bd
00000160: 03c6 eabd 5e37 e63e d477 ac3d 6248 423e
00000170: 7a33 8d3e 3ac7 603e 0398 42be f177 3dbe
00000180: 6864 ef3d ea80 463e d785 083e 75d4 1e3e
00000190: 5710 543e 001a 23bb de95 2abe 7630 e63e
000001a0: d4e5 00bf 0b37 80bd 1b49 313e 4fa6 89be
000001b0: 8798 8cbd bd54 bf3e 9a51 30bd d824 5a3e
000001c0: fd9e f6bb f9f5 f7be 8925 a93d 653b 453e
000001d0: cd3d 93be 13cf 263d e083 08be 82a5 19bf
000001e0: f36d 8c3e d7d1 283e 4800 5b3e a2f7 89bd
000001f0: 64e8 173e 9ed0 49bf fae1 4cbe dd28 dfbe
00000200: 7c7a 92be 1401 8b3e 97a6 933e fe3f ba3e
00000210: 5c00 8dbe af8c f3be 7d96 29be b71d c4be
00000220: a5f5 43be cb7a 3339 2bf0 dabd 386e eb3e
00000230: 24d7 a4be 7c40 ea3d 9a05 6f3e a8dc cabe
00000240: 8975 143e ced0 cfbe aa19 a3bd 686b b93e
00000250: 7767 0b3e 6ad7 dbbe 264c b23e 208e 69be
00000260: 63e7 ccbe 3cce a63e dd58 cebd 7ee4 483e
00000270: 9e59 dd3e 37ee 94be 0449 143e 847c e4bc
00000280: 8d0c 543e 83cc c43e f5ad 833d c0ff a5bd
00000290: 4805 b63d 669d 1c3e 39e9 d4be 6380 cebd
000002a0: 264d 033d d977 183f da68 1f3e 06e7 333d
000002b0: ae7b 29be 57b3 9fbe 481e 4fbf e795 8ebe
000002c0: 602e 153e d6d1 c1be a6d7 1abf c21b de3e
000002d0: 7fa0 db3e 7053 0a3e e8af 4d3e 3487 1ebe
000002e0: d3a3 e2be ee08 64be 2461 f83d b225 29be
000002f0: b9e9 023e 6e6e b23d 26ad 893e c178 b63d
00000300: e6d7 b03e 64d5 dc3d 0353 38bd 8946 7bbd
00000310: 15c7 e6be 2743 a63e d410 0e3e b68c e73d
00000320: fb65 a53e 0614 bcbd dbac 35be e6b3 eebe
00000330: cace cbbe 3d51 87bd d32a 3abd 6936 d5bb
00000340: be34 52bf b049 69bd 119b 1a3e ebdf e23e
00000350: d681 fb3d 704c 1abf 4382 ab3e 4cb1 94be
00000360: 2274 32be cab0 053e 53f7 2dbe cf0c ac3e
00000370: 0b44 3fbb ec5e c6bd 98b8 93be 6f7b 683e
00000380: 7a30 1dbf f425 033e f725 d23d 372c 5c3e
00000390: 0972 6dbd 2644 a8bd 337c 8bbe a49b c73d
000003a0: 0ec0 833e cb80 c2be dffb 883e 9d05 a33e
000003b0: 0d48 e43e e866 cebe 5edc 233e 8660 143e
000003c0: adc3 aebd 6952 17be 2be4 b73e 3514 2ebe
000003d0: ccce 2c3e 9d2e 4ebe e4eb b7bd e080 b3be
000003e0: 9dfe 623d a34a a63e eb64 2d3e fddf ecbe
000003f0: 4dad 1fbf bb6d f8bd f3a2 123e c9ca 12bf
-0.01727445 0.19946603 0.07466683 0.032650664 0.19795929 0.3745154 0.02375748 0.13046739
-0.2436479 0.090601765 -0.48329487 -0.5735301 -0.19136076 -0.13680692 0.13670543 0.1828201
0.1712806 -0.014469693 0.18688385 0.040041365 -0.07404621 -0.21420641 0.14902438 0.28675884
-0.09330695 -0.064739235 -0.18963717 -0.7612626 0.07379205 0.29232046 -0.015740467 -0.12798232
0.39258987 0.36945745 0.19456795 -0.054811575 -0.20276384 -0.0036673776 -0.48204616 -0.015263613
-0.5582585 -0.33571625 -0.015360623 -0.34692824 0.12646505 -0.32121086 0.107228786 -0.11733109
-0.019144835 -0.21664171 0.40971932 0.101453185 -0.01974817 0.024791265 -0.8990162 -0.1657658
-0.055674735 0.34990272 -0.02647291 -0.565768 -0.16972192 0.20961732 0.020290054 -0.33066353
0.26425698 0.1728566 -0.1739722 -0.25921175 -0.47298023 -0.09895104 0.1333202 -0.37646258
0.017234022 0.2752434 0.1999913 0.3449389 0.19933791 -0.24716224 -0.051226273 0.31319073
-0.4173602 0.37907252 0.11085326 -0.87353575 0.21448551 0.18922083 -0.0136314705 -0.044193428
-0.11463549 0.44964117 0.08421293 0.18972924 0.27578336 0.21950999 -0.190033 -0.18502785
0.11689073 0.19385114 0.13332306 0.15510733 0.20709358 -0.0024887323 -0.16658732 0.44958848
-0.5035069 -0.062604986 0.17313044 -0.26884696 -0.0686503 0.37369338 -0.04304657 0.21303117
-0.007526277 -0.4842985 0.082591124 0.19260938 -0.28758088 0.040724825 -0.13331556 -0.6001817
0.27427635 0.16486298 0.21386826 -0.06736685 0.14834744 -0.7883395 -0.20008078 -0.43585864
-0.28609073 0.2714926 0.28838035 0.36376947 -0.27539337 -0.4756827 -0.16561313 -0.3830392
-0.19136675 0.00017116514 -0.1069034 0.45982528 -0.3219539 0.11438081 0.2334198 -0.39621472
0.14497961 -0.40588993 -0.079638794 0.36214757 0.13613687 -0.42937785 0.34823722 -0.22808123
-0.40020284 0.3257922 -0.10075543 0.19618413 0.43232435 -0.29087994 0.14480978 -0.027891405
0.20707913 0.3843728 0.06429664 -0.08105421 0.08887726 0.15294418 -0.41584185 -0.100830816
0.032055996 0.59557873 0.15567341 0.043921493 -0.16551086 -0.31191513 -0.8090558 -0.2784874
0.14568472 -0.37855405 -0.60485303 0.43380553 0.42895886 0.13508391 0.20086634 -0.15481263
-0.44265613 -0.22269031 0.12127903 -0.16518286 0.1278447 0.08712469 0.26889914 0.08909751
0.34539717 0.107828885 -0.04500104 -0.061346564 -0.45073763 0.32473108 0.13873607 0.11306135
0.32304367 -0.09183507 -0.1774172 -0.46621627 -0.39806205 -0.06607292 -0.045450997 -0.0065067303
-0.8211173 -0.05695504 0.15098216 0.4431146 0.122806236 -0.60272884 0.3349782 -0.29041517
-0.17427114 0.13055721 -0.16988878 0.33603522 -0.0029184844 -0.09686074 -0.2885177 0.22703336
-0.61402094 0.12807447 0.102611475 0.21501242 -0.05797008 -0.08216123 -0.27243194 0.09746483
0.25732464 -0.37988886 0.26754662 0.3184022 0.4458622 -0.40312886 0.16002032 0.14489946
-0.08533416 -0.1477753 0.35916266 -0.16999896 0.16875762 -0.20134969 -0.089805394 -0.3505926
0.0554186 0.32478818 0.16933028 -0.4626464 -0.6237381 -0.121303044 0.14319973 -0.57340676

layers.0.bias f4 [64]
00000000: 451a 97bd 8867 7a3c cc9c a83e 3ac1 423e
00000010: eb10 2dbd 12e0 9dbe b6b6 1abe 0d9d b83e
00000020: a0de 693c cd9a e9be 8629 c3be 802c 24be
00000030: 474c 803d c0df 173d 242a 86be e526 833e
00000040: 5af5 80be aa76 78be 1812 2abc cc94 223e
00000050: 2e79 223c d260 383d 540e e43d 2f85 a7bd
00000060: cd1d 173e c261 f9bc 4424 f73d 913f 873d
00000070: 76b0 fbbd 5f4d fcbe 24ac b13d 606d a3be
00000080: 9045 55be 7a41 71be a435 963d 400d 52be
00000090: 9d73 073d 24df 06be 1633 adbd fd48 12bc
000000a0: 8f10 6dbd 0257 56be f2f0 98be f1ea 123e
000000b0: 428d f2bd 33c2 123e 065b 603e 2877 aabd
000000c0: fb99 573c a3f0 85bd da93 4abd 92b4 2b3e
000000d0: 8992 993d 0800 163e 76b9 59be 48e5 453e
000000e0: e6fc a33c a920 a9ba 9188 9cbd 6ab0 a73d
000000f0: 8c0f 95bd fa2a af3e fa97 1f3e a6dd 82be
-0.073780574 0.015283473 0.32932127 0.19019023 -0.042252462 -0.30835015 -0.15108761 0.3605732
0.014274269 -0.45625916 -0.38117617 -0.160326 0.06264549 0.03707862 -0.26204026 0.25615612
-0.25187188 -0.24264017 -0.01038029 0.15877074 0.009916587 0.04501421 0.111355454 -0.081797
0.14757462 -0.030442122 0.12067464 0.06603921 -0.12289517 -0.4927778 0.08675411 -0.31919384
-0.20827317 -0.23560134 0.0733445 -0.20512867 0.03306924 -0.13171059 -0.084570095 -0.008928535
-0.05787712 -0.20931628 -0.29871327 0.14347436 -0.11843349 0.14331894 0.21909723 -0.083235085
0.01315927 -0.065400384 -0.04945741 0.16768101 0.074986525 0.1464845 -0.21262154 0.19325745
0.020018052 -0.001290341 -0.076432355 0.08187945 -0.07278356 0.34212476 0.15585318 -0.2555973

layers.2.weight f4 [64, 64]
00000000: 519f 1ebf 9b3e 13be de40 2e3e ebad ee3d
00000010: a21d d63d afb5 fe3d a6c4 233d 5622 08bf
00000020: 7ee8 8fbe 81b9 b23e 9b06 aa3e 73d9 cdbc
00000030: 1cb9 66bf b84d 49be 6320 71bd 3402 4f3e
00000040: 3932 b6be 6b08 133d d073 65be 67fb 753b
00000050: 4095 783d 4279 36be db3f 48be 835c 1d3c
00000060: d02f 8a3e c798 92be abbe b73e 6f76 863c
00000070: 1f8c ab3d 49ee 6f3e 708a e3bc 3cc2 50bf
00000080: 0bce 56be 822a af3d e3a3 a63c 4d3b 823e
00000090: 0130 acbe f907 a73e 8867 66bd 8329 493e
000000a0: df22 603d 4602 c8be df65 90be 44a5 0fbf
000000b0: b8f6 f93e b548 95be ccba 42be cc87 ce3e
000000c0: 3996 533e 95d6 48bf 7865 063e 6f7a 10be
000000d0: 890a 60bc a535 663e 9ed9 c23e 79e1 8bbe
000000e0: bfa2 033d d1e0 d2bd 4fbe afbe 45e2 67bd
000000f0: 4b1d 4cbd 6fb4 c1be 9334 b9bc 8f0a b03e
00000100: f265 553d 1779 62be d62f 943e ef80 bbbd
00000110: a53b 8ebe e447 613d e95b 1fbe a5ef cdbd
00000120: 0948 483e 4406 06be e1b0 003f f4d8 083e
00000130: e586 d5be cb45 82bf f81b a9bd 255a c33d
00000140: dbb1 223e 3372 ebbd 7c87 25bf 5ebd a4bd
00000150: 139e 633e e791 203e 6f25 303e 84a9 24bc
00000160: 7869 873e a4a4 2a3e 8d74 c13e deda 913e
00000170: adf1 bebe 017c 1c3c 146d bb3c 4da0 9cbd
00000180: a6c0 03bd c882 83bd c3d9 f53e 441e fabe
00000190: a237 01bf 78bb b73e 9440 a43e 9124 8ebe
000001a0: 7536 6cbd d18c 743e 5cd1 f43e 3ffd b0be
000001b0: 5b09 33bf 5c4e 4d3e 4ce2 2b3e d5c5 913d
000001c0: 5628 04bf 9dc5 963d 44af 1abe 2c9a 573e
000001d0: 3005 2fbd 9abc 8dbe 6837 4fbe 70db 32bf
000001e0: 63b1 28bc c80a d8bd dad9 44bd 6f57 bb3d
000001f0: 1dac da3d 8fda 403e 8b05 f93d 96fa 7a3e
00000200: a25b e7bd 0d8b 343e 0eb4 003e 3d42 9cbd
00000210: eb66 493c 65e4 f23c 4616 b7bd 93be e5be
00000220: 2b32 8d3e 7f7b babd fdfe ad3d af70 b9be
00000230: ef9f ecbd bf68 003e d50c 943e 1d12 abbe
00000240: 59b2 cdbe 0765 483b 39cd 223d 239d 11be
00000250: 75f8 cdbe 7261 853d 5ba1 95bd 4f74 8bbe
00000260: 498d a53d 193e 15be 1c80 33be f3f9 43be
00000270: b87f 303e 86d7 9bbd 1433 42be 9a25 cb3e
00000280: 6a19 4d3f fbd0 683e 403c 89be 914f a93e
00000290: b5d4 263e b7e5 0ebf 897d c23d 2ad7 19bd
000002a0: bdad e33d d52c 59be 3faf 9bbe 0374 d43e
000002b0: b072 99be 2784 63bf fc59 9d3d 2d5c 2e3d
000002c0: 4c79 fdbe a766 c6bd e292 be3e 4b24 b13e
000002d0: d407 fc3c f685 c83d 21ac 913e ab04 d0bd
000002e0: c2c4 86be 3e9b 473e 4907 83bf b8ab 14be
000002f0: 0867 8f3e deee 5bbe 86b6 833e 14f1 a63d
00000300: 0b31 933d 43d2 b2bd 95eb e0bd e75a c23d
00000310: 84ed dbbd e46c edbd 5838 d1bd 035d eebc
00000320: 6873 8e3d 1c43 5a3d e8b2 e0bd 6d5b febd
00000330: 43fe e6bd 46fb 14bc eb06 90bd a50e bdbd
00000340: 807e e13d 199f 32bc aba7 c5bd 0db5 68bd
00000350: 61c3 c8bd 11bf cfbc 08b3 b63c 5663 f73c
00000360: 615e 04be 16dc b2bd ab45 22be 5195 753c
00000370: 6452 ea3c ca6d 73bc 9bf0 06be 08ee 76bd
00000380: 63c1 bcbd 8f55 f13c 675a 78bd c86e babd
00000390: 8652 19bd b4d0 db3c 0e04 9a3d 6b17 5abc
000003a0: 0d27 fe3c ae2e eb3d 21d8 2dbd 35dd 81bb
000003b0: 89de 2f3b cb80 98bd 4396 953b 32c9 8d3c
000003c0: 15f7 a53d e528 03be da97 e8bd c5db 7dbd
000003d0: a646 d1bd 31da 443d 9fe3 b93c 79f0 983c
000003e0: d7a0 a9bd c86e 6d3d e8e9 19bd 36c7 88bc
000003f0: 66e7 debd 7d72 023d 2d2a 04bd de97 a4bd
-0.6196185 -0.14379351 0.17016932 0.11654266 0.10454871 0.12436997 0.03998246 -0.5317739
-0.28107065 0.34907153 0.33208165 -0.025128102 -0.90126204 -0.19658554 -0.058868777 0.20215684
-0.35585192 0.0358967 -0.2240746 0.003753388 0.06068921 -0.17819694 -0.19555609 0.009604576
0.26989603 -0.28632185 0.35887656 0.016413895 0.08376335 0.23430742 -0.027775973 -0.8154638
-0.20977037 0.085530296 0.02034182 0.25435868 -0.33630374 0.3262327 -0.05625108 0.19644742
0.054720756 -0.39064234 -0.2820272 -0.5611155 0.48821044 -0.29157034 -0.1901657 0.4033798
0.20662774 -0.78452426 0.13124645 -0.14109205 -0.013674387 0.22481401 0.38056654 -0.2732046
0.03213763 -0.102967866 -0.3432488 -0.05661227 -0.049832623 -0.37832972 -0.022608077 0.34383056
0.052099176 -0.22116505 0.28942746 -0.091554515 -0.2777988 0.0550002 -0.15562405 -0.10055474
0.19558729 -0.13088328 0.50269896 0.13364011 -0.4170448 -1.0177549 -0.08257288 0.09538678
0.15888159 -0.11496391 -0.6465986 -0.080439314 0.2222827 0.15680657 0.1720178 -0.010050181
0.26447654 0.16664368 0.37784234 0.28487295 -0.3729376 0.009551049 0.022879161 -0.076477624
-0.032166146 -0.06421429 0.48017702 -0.48851216 -0.50475514 0.35885215 0.3208052 -0.27762273
-0.05766912 0.23881842 0.4781598 -0.3456821 -0.6993615 0.20049423 0.16785544 0.071178116
-0.5162405 0.073619105 -0.15105921 0.21054906 -0.042729557 -0.27682954 -0.2023598 -0.69866085
-0.010296199 -0.10548931 -0.048059322 0.09147536 0.10677359 0.18833373 0.1215926 0.24509653
-0.112967744 0.17631169 0.12568685 -0.076298214 0.012292604 0.029649923 -0.08939795 -0.4487196
0.27577338 -0.09105586 0.08495901 -0.36218783 -0.115539424 0.12539957 0.2891604 -0.33412257
-0.4017513 0.0030577795 0.039746497 -0.14220099 -0.4022862 0.06512727 -0.07306167 -0.27237174
0.08083589 -0.1457447 -0.17529339 -0.19138317 0.17236221 -0.07609467 -0.18964797 0.39677125
0.80116904 0.2273597 -0.2680378 0.33068517 0.16292079 -0.5581927 0.094966 -0.037558712
0.11117122 -0.21208508 -0.3040714 0.4149476 -0.29970312 -0.88873523 0.07683179 0.042568374
-0.49506605 -0.09687548 0.37221438 0.34598002 0.030765451 0.09791176 0.28451636 -0.1015714
-0.2632199 0.19492814 -1.0236598 -0.1451863 0.28008294 -0.2147784 0.25725192 0.08151451
0.071870886 -0.087315105 -0.10982434 0.094899945 -0.10738662 -0.11593035 -0.10215825 -0.029097086
0.06955606 0.053286657 -0.10971624 -0.12419782 -0.11278965 -0.009093111 -0.070325695 -0.09231309
0.11010456 -0.01090219 -0.09651121 -0.05681329 -0.098028906 -0.025359662 0.022302166 0.030198734
-0.12926628 -0.08733384 -0.15846889 0.014989213 0.02860374 -0.014857719 -0.13177721 -0.060285598
-0.09216573 0.029459743 -0.06063309 -0.09103161 -0.037432216 0.026832916 0.075203046 -0.013311247
0.03102448 0.11483513 -0.042442445 -0.0039631375 0.0026835522 -0.0744644 0.0045650317 0.017307851
0.08103768 -0.12808569 -0.113570884 -0.061977167 -0.10218553 0.048059646 0.022691546 0.018669354
-0.08282631 0.057966977 -0.037576586 -0.016696554 -0.108839795 0.031847466 -0.032266784 -0.08036779

layers.2.bias f4 [64]
00000000: 2737 89be 0533 24bd c5c2 03be 7b78 1ebe
00000010: d9ed 0ebe b729 f8bc 260f 21be f4e4 96bd
00000020: a50d 8dbd 0766 9ebd 76ce 92bd 34f9 143e
00000030: 1fbd 8bbd 9cc8 18be daac bfbd 0362 4ebd
00000040: e55d 39be 7ae7 a93d df5c 013d d41a 90bd
00000050: 368c 38bd a538 c6bd c71c c4bb 050f 67bd
00000060: 0352 c8bd ce31 d2bb 475a 6ebe 4244 d33d
00000070: 61a7 993d 5600 fcbd 10ef b3bd c949 45bc
00000080: 8cbd 283e 8223 02be 36ef 0ebe 7cbd 37be
00000090: b424 b53d cd1d fabd aba1 0fbe bb1c 2fbe
000000a0: 2a45 4a3e 47ce ac3d fb19 0a3e a1ab bcbd
000000b0: e677 8ebc 9532 1dbe 4a52 71be d1ca 51bd
000000c0: 6c2b 78bd a60f bfbd 006d 1ebe ebba 6b3e
000000d0: 0ed8 bc3c 4325 0a3e 4804 3dbe 8b04 82bb
000000e0: 40a3 1cbe c181 58bd 4a53 a8bd 10d5 ccbd
000000f0: 0ccc 013e 49c5 4abe c5b0 9bbd 074c bebd
-0.2679989 -0.04008772 -0.12867267 -0.15475647 -0.13957919 -0.030293329 -0.15728435 -0.07367888
-0.06887368 -0.07734304 -0.071682855 0.14548188 -0.06823181 -0.14920276 -0.09359141 -0.05038644
-0.18102224 0.08296104 0.03158271 -0.07036367 -0.04505559 -0.09678773 -0.005984876 -0.056410808
-0.097812675 -0.0064146286 -0.23276626 0.103157535 0.07502628 -0.123047516 -0.08785832 -0.0120415175
0.16478556 -0.12708858 -0.13958439 -0.17943376 0.08844891 -0.12212715 -0.14026515 -0.17100804
0.19752946 0.08437782 0.13486473 -0.09212423 -0.017391156 -0.15351327 -0.23566547 -0.05121881
-0.060588285 -0.093291566 -0.15471268 0.23020522 0.023052242 0.13490777 -0.18458664 -0.0039678267
-0.1529665 -0.052858118 -0.08219011 -0.10001576 0.12675494 -0.19801821 -0.076020755 -0.09291845

layers.4.weight f4 [64, 64]
00000000: ddfd dfbe 2460 c2be 910b ef3d 0b66 f8bd
00000010: f2d6 6e3c 2603 9d3d c99a ffbd da02 7b3e
00000020: 69b1 5b3e 2b93 4d3f 1189 69be 1fc8 afbd
00000030: 7f4f 833e 32fc 383e f229 9abd 68ee d23e
00000040: 7016 263e 6acf 33bd 2ea4 383e 979f a93c
00000050: 98e0 6cbf 865a 9c3e 3be2 4ebe 64f7 3dbe
00000060: a00e 2fbd bd2b 003e 3acd a33c 3a4f 93be
00000070: ad12 4e3e f7f7 2ebe 070a f43e 69f4 d4be
00000080: 472d 9cbe 7759 233e c924 673d 9801 5e3d
00000090: af81 953c 764e babd a359 0b3e 0a61 96be
000000a0: 1971 ecbc 4f0e 06bf 4675 babd c69d 0cbe
000000b0: 027c b0be 8732 d33e fc38 48bd 2bc1 86be
000000c0: 75d5 a2be bcb5 17bd 13c7 c63d 279f bebe
000000d0: 2f8e ba3c 7f82 0dbf 5497 c8bd 0c93 833d
000000e0: 9fd8 c8be 7067 bcbd 99cc bcbb 2bb7 bdbe
000000f0: 3c60 78be dd5b d2bd 4385 97be a251 c13d
00000100: 7174 133d 78a8 07bf aac2 6d3e 96bd 8bbc
00000110: f9f0 bcbe 7aad 4cbf ed90 efbd 0d0b c2be
00000120: 10bc eabd 78b9 0d3e 758f 9cbe c3db 09bf
00000130: 1032 32bf 13dc 2c3f f3ce 3a3d d85a d9be
00000140: aac3 403e c8e6 5d3e 766a 9fbe af9a 8dbc
00000150: 3347 463e 5f95 0abf 8903 2d3e 1210 b6bd
00000160: dd4f 5a3c d99a 5ebf a2ac 983e 7ecc 7e3e
00000170: 616b 03be 2fdd 0cbf 0ed9 b83e 0ecd dfbd
00000180: e483 03be 8e09 15bf d500 c13d 528e adbd
00000190: 1abf d6be 91c0 ea3d 276c b7b9 c410 02be
000001a0: b14a b53d 7046 703d 48af aabd 40dd cd3d
000001b0: 978a 25be 3752 cc3e 5fd6 8abe 7f3e a1be
000001c0: 9168 343e e199 bd3c ecfa e2be dac8 debd
000001d0: b9d8 99bf 3268 ab3e f375 bbbd 5d55 c5bd
000001e0: f387 733d e8dc 473d 7b0b 893d ac2e 3ebe
000001f0: acf4 f0be 7ae7 c13c 489b 38bd 5f06 6fbf
00000200: faee 953e e4ef 793e d0ba 183c 5ac6 03bd
00000210: d496 c7bd 4b8a 87bd 5cdd 7f3d 09ea 0e3d
00000220: 6c7f afbd 98a5 37be e9f3 1e3d 48a0 4bbe
00000230: fc61 723e 9ff8 94bd 00ca 68bf cf60 153e
00000240: a26e 97bd d040 57be 5a1c 543e a5a6 253e
00000250: 148d 8a3d 3db0 14be c94d d83d 35dc 4b3e
00000260: cd86 023d 1288 be3e de54 f03e 1ebe a5be
00000270: f10f 30be e049 b1be 18bf 6abc 5cda e0bd
00000280: 232d 623e d5be b9be 41a1 cdbd ae09 2abd
00000290: 3674 963c edfa fe3d d452 d9be f685 163c
000002a0: 4fb4 d3be 5c96 fe3e a491 303d 5df3 193e
000002b0: 02f1 36be caaa 42bf 7b9a 593e d2ea 823e
000002c0: df40 fdbe 670f 03be 4c60 c1be e4e2 28be
000002d0: b17c bebd 0e55 0abe 32a4 5d3d 8777 2bbc
000002e0: 0dc0 0c3e c07d efbd 729d c4bd 52f3 333c
000002f0: d9ce a3bc 9c0e 4ebc 2baf 383d 09e1 01bf
00000300: fe0b 283e 4c3a 063d 9f43 60bf cdfb 9c3c
00000310: 8fd8 603e 88ea 9abe 1060 4e3d f83e 87be
00000320: f56f 7cbd b203 76be d8f9 5a3e ba12 ae3e
00000330: d418 b33d 926b 8fbe d43f 35bf 425c 8ebe
00000340: 9c50 8b3e 60ac 66be 5aa0 bdbd abeb 103f
00000350: 43b7 02be 02d3 50bf 2443 353d 182d 2fbe
00000360: 014f 13be 710d 593e 3e0a 2c3f 87ad c9be
00000370: 8cc8 eabe 3512 d13d cfcf 99bd 76b6 bbbe
00000380: a2c8 b8be 097f 1bbf 607d df39 3b68 ffbc
00000390: be91 27bf bcaa 04bc 20ed 95be 1c93 70bd
000003a0: 8338 8dbc de83 413e 90a1 59bc 27ad 973d
000003b0: fd90 f03d 60b2 92bc 2d5a a83e f1d7 46be
000003c0: 5e51 0dbd 40f7 343d 08c6 39be c8a4 e5bd
000003d0: 5b6e 1dbf 3804 523e 80ab 99bc ef54 263d
000003e0: 798b a23e 204e 8a3d 3e08 afbd 2d66 c1be
000003f0: 9498 913e 1b2d 8cbd ed15 67be 68d9 693c
-0.4374837 -0.37963974 0.11672128 -0.12128838 0.014577614 0.07666616 -0.12480695 0.24512807
0.21454395 0.80302685 -0.22806193 -0.08583092 0.25646588 0.18064955 -0.07527532 0.41197515
0.16219497 -0.043898977 0.1803138 0.020705981 -0.925302 0.30537814 -0.20203488 -0.18551403
-0.042738557 0.12516685 0.01999532 -0.28771383 0.20124312 -0.17086779 0.476639 -0.4159272
-0.30503294 0.15952097 0.056431565 0.05420074 0.018250315 -0.090969965 0.13608412 -0.2937091
-0.028862523 -0.52365583 -0.091043994 -0.13732061 -0.3446961 0.41249487 -0.04888247 -0.2631925
-0.3180348 -0.03703855 0.09705939 -0.372308 0.022772877 -0.55277246 -0.097944885 0.06424531
-0.3922777 -0.09199417 -0.0057616946 -0.3705381 -0.2425546 -0.10271428 -0.29593858 0.09439398
0.03599972 -0.5299144 0.2321879 -0.017058175 -0.36902598 -0.79952204 -0.11697564 -0.37899056
-0.11461651 0.13840282 -0.305782 -0.53850955 -0.6960764 0.67523307 0.04560752 -0.4245212
0.1882464 0.21670067 -0.3113591 -0.017285673 0.19363098 -0.5413417 0.1689588 -0.08889784
0.013324705 -0.8695503 0.29819208 0.24882695 -0.1283393 -0.55025 0.361031 -0.10927783
-0.12843281 -0.58217704 0.09423987 -0.08474411 -0.41942674 0.114625104 -0.0003498506 -0.12701708
0.08852137 0.058660924 -0.083342135 0.10051966 -0.16166149 0.39906475 -0.27116677 -0.31492993
0.17618014 0.023144664 -0.44332063 -0.10878153 -1.2019264 0.33477932 -0.091533564 -0.096354224
0.059455823 0.048794657 0.06691643 -0.18572491 -0.4706167 0.023669947 -0.045069963 -0.93369097
0.29283887 0.24407917 0.009321883 -0.032171585 -0.09745565 -0.06618174 0.062466964 0.034891162
-0.08569226 -0.17934263 0.03880683 -0.19885361 0.2367019 -0.07273983 -0.9093323 0.14587711
-0.073941484 -0.21020818 0.2071394 0.16176851 0.0676519 -0.14520355 0.10561711 0.19908221
0.031866837 0.37213188 0.4693975 -0.3237161 -0.17193581 -0.34626675 -0.014327787 -0.10979149
0.22087531 -0.36278406 -0.10040522 -0.041513138 0.01836596 0.12450204 -0.42446005 0.009187212
-0.41348502 0.4972409 0.043107644 0.15034242 -0.17865375 -0.76041853 0.21250336 0.2556978
-0.49463555 -0.12798844 -0.3776878 -0.16492802 -0.09301127 -0.13509008 0.054111667 -0.010465509
0.13745137 -0.11693907 -0.09600343 0.010983305 -0.019996094 -0.012576725 0.04508893 -0.50734
0.16410825 0.03277044 -0.8760318 0.019163037 0.2195761 -0.30257058 0.05038458 -0.2641523
-0.061630208 -0.24024847 0.2138437 0.33998662 0.0874497 -0.28011757 -0.7080052 -0.27804762
0.27209938 -0.22526693 -0.092591 0.566096 -0.12765221 -0.8157197 0.044253483 -0.17107046
-0.14385606 0.21196534 0.6720313 -0.39390203 -0.4585613 0.10208551 -0.075103395 -0.36662644
-0.3609057 -0.60740715 0.00042627286 -0.03117763 -0.6545676 -0.008097347 -0.29282475 -0.058734044
-0.017238861 0.1889796 -0.013283148 0.07406073 0.11746404 -0.017907321 0.328813 -0.19418313
-0.034501426 0.04418111 -0.18141949 -0.1121307 -0.61496514 0.20509422 -0.018758535 0.040608343
0.31747034 0.067531824 -0.08546494 -0.37773266 0.2843672 -0.06844541 -0.22566958 0.014273025

layers.4.bias f4 [64]
00000000: 69e6 4bbd 450d 09be 3d58 9d3d 6b86 403d
00000010: 6110 16bc 6bf5 ef3c c7e2 06be dd34 d83d
00000020: 3e30 29be 109a 99bd 1473 af3b 4d3a e4bd
00000030: a58c acbd ef4f 183c 3445 0f3d a518 583d
00000040: c9b5 213e 5dda 81be d591 c1bd 5331 a03a
00000050: fce4 3bbe 276a 923c 9ca7 38be 5825 13bc
00000060: 3983 12be 8d2c 99be a741 29be e44b d73d
00000070: 9c87 82bd f313 093e e405 b6be ec4e 8fbe
00000080: 4a9d b2be ec75 debd dac0 233e 07e4 04be
00000090: af62 8d3d 6717 c33d f0a0 3dbe dfe8 933d
000000a0: 798e ed3d 66ef 9e3b 7a31 37be 1d91 34bd
000000b0: 88c5 693e df7f bf3d 01c7 15be e63c ef3d
000000c0: 792c 8bbe 9d6d 0fbe 939a 8b3d e925 323d
000000d0: a14e b3bd 668d 193e a407 b5bc 3018 9d3d
000000e0: 11f8 613d d55e 96be dc5a 1dbe 9370 2dbe
000000f0: 5497 4c3e d8bf 03be 68fd 163d 79d2 d2bc
-0.049780283 -0.13383968 0.07682846 0.04700319 -0.0091591785 0.02929183 -0.13172446 0.10556958
-0.16522309 -0.07500088 0.0053542946 -0.111439325 -0.08425263 0.009296401 0.034978107 0.052757878
0.15792002 -0.2536191 -0.094516434 0.0012221731 -0.1834907 0.017872883 -0.18032688 -0.008981071
-0.1430787 -0.29916802 -0.1652895 0.10512522 -0.06373522 0.13386516 -0.3555137 -0.279899
-0.34885627 -0.108623356 0.15991536 -0.1297761 0.06903588 0.09525948 -0.18518424 0.07222151
0.1159944 0.004850316 -0.17889968 -0.044083703 0.22829258 0.09350561 -0.14626695 0.11681537
-0.27182367 -0.14006658 0.06816592 0.043493185 -0.08755232 0.14995345 -0.02209837 0.07670629
0.055168215 -0.29369226 -0.15366691 -0.16937475 0.19979602 -0.12866151 0.03686276 -0.025735127

layers.6.weight f4 [64, 64]
00000000: a413 31bf 703b 013d aaf5 64be 2398 8ebe
00000010: 5839 ea3d 08e3 54be f582 ba3d 16f0 c7bd
00000020: f53c 92be 46be 383e c294 58bf 8661 4fbd
00000030: 05f2 48bf f290 9bbe 9ca1 653d a2b3 19bc
00000040: e802 0d3f 30ec 49bd bde9 04bd b068 083f
00000050: a52f 85bd 489d 2cbe 7f8a 913e 28d5 eebd
00000060: ed5b e3bc 10e9 993e e87e 7c3e 3b17 42bf
00000070: 2967 8fbd cf21 2bbe 608a ebbd 585d 8dbe
00000080: 188b 11be 2c6a 413f 294c a2be 4f02 a1bd
00000090: 860c d4be d89c 893e 1051 013f f866 333d
000000a0: a766 08be d1ce c03d 8d4d 99be d4dc acbb
000000b0: 2309 203e 59fe 6bbe 4f58 b6be 17ff 4cbe
000000c0: 4119 18be 99b2 7d3e 9561 3ebf 78d9 e93d
000000d0: 49f9 ff3e eed0 e8bd b95d 83be 4d45 1dbe
000000e0: 0a4c 213c c293 04be 50b3 f1bd b676 19bc
000000f0: 244c cbbe 448e 23bf d168 66bd 7a11 39be
00000100: c130 073f 9c84 c83e 3bdd 81bd 2c63 a5bd
00000110: 2781 d63c c8df 0cbe bb72 5bbd 2a5d a2be
00000120: e5fb bcbe ade1 f63c cc86 993e f253 91bc
00000130: 2b36 ffbe d204 27bd 6261 46be 7d66 7cbd
00000140: 7e13 bb3e e43e 6ebc 1fbc 8cbc 2e3d 02bf
00000150: 1441 033d 3d87 7cbd 4865 2b3e 6ddc 46be
00000160: 1b51 93bd ad58 223e 38e1 16bf 8de8 ab3e
00000170: 0ef9 dd3d 77fb 61bd df7d b23d 87d5 b83e
00000180: 7443 113e b945 e03e 01fb eabe c56e 1fbd
00000190: 4d1c c7be 2ece 07be 8aac 47be ed71 88be
000001a0: 71de 90be d2db 813e 7363 b23e a46e 10bf
000001b0: b66c 113e 068e 073f c523 2dbe 287f 14be
000001c0: 4a58 dd3e 3c7c 28bf 0ec1 143e ccb8 21be
000001d0: 8d41 943d 3ec0 0fbe de4e c1be 2a38 d63e
000001e0: 8292 46bc 6a97 b3bd b17e b0be 12d3 5dbd
000001f0: 07e1 cf3e 1056 a63e d72e fdbd bfbf e4bc
00000200: e07a d7be 326d 8a3e a2f4 ecbc ecf4 b6be
00000210: 9d73 6c3e 763f 33be 4065 5c3d 711d 553e
00000220: 98b0 66bf 1617 0a3e f6f9 c6be f492 95bd
00000230: 9df7 eebe b4af e3be 0fef e2bc c546 c73c
00000240: 4282 323d 4aa4 6abd dc03 c63d b5ef 143e
00000250: 2123 b1bd fb4a 0bbe a908 553e 562d a6be
00000260: e1e6 67be eabd db3e e8d0 953d 2b27 bf3e
00000270: a09b c7bc 2cbe ecbe 01b3 97be 0f1d 883e
00000280: 9b42 2e3f ed92 103f 4b83 dfbe d6d3 2d3d
00000290: 0462 aabd e354 02bf e9a9 c53d 3e59 623c
000002a0: fbdd 99bc d253 363e f467 0b3f 5668 843e
000002b0: 8ad0 6d3c 8296 afbd 0304 dabd 5ee5 afbe
000002c0: fcc2 253d 5602 2e3d ffd3 39be 085a 3c3e
000002d0: 63c1 f63e 4252 b8be 568e 3abe 4040 b5bd
000002e0: 0455 0e3c cacb a4be caeb ccbe ad0b 053e
000002f0: 0330 b73e cc0f 983e 3829 b6bc bcaf cb3e
00000300: e742 933c 193e 283e 4d90 403e ebe9 c3ba
00000310: fd8c 543d ec55 0d3e 5c7a 0cbe be4b 8c3d
00000320: 2356 d4bb 1221 5ebe 6a78 003f 9e38 05be
00000330: b018 353d 2184 f93e 1e47 19bf 15b9 2abf
00000340: d5cd 2a3f 41be edbd f6f0 083e 482d 09bf
00000350: b3a7 e13d 21ad 583d 55dd 5e3e 2891 293e
00000360: df75 663e 6e2e 4abe b17d d7be fd5c 8f3e
00000370: cbaf 6c3b 83af 4abe d0da d7bd c31b 1b3f
00000380: afd0 2dbe 7439 5cbf 7abe 42be 9cd9 87bd
00000390: a05f 2ebe 327a 903e 38be 1f3b 946d db3d
000003a0: d9b3 05be 7fcf 97be e748 18bd b6b2 08be
000003b0: 1c51 db3e 679d 393f d1ca e5bd e44e 503e
000003c0: 9bc6 093f 5f92 2cbe 9e0a 7ebc 1e14 dbbe
000003d0: 3ef2 263d 40c6 f7be 12c0 8dbd cc14 943d
000003e0: 5e96 56bd 226a edbd 458f ccbe f4aa 89bd
000003f0: c189 c33e 9d33 adbe ad57 913d e136 c6bd
-0.69170594 0.031550825 -0.22359338 -0.27850446 0.11436719 -0.2078973 0.09107009 -0.0976259
-0.28562132 0.18041334 -0.84601986 -0.050630115 -0.7849429 -0.30384022 0.056062326 -0.009381207
0.5508256 -0.04929751 -0.032449473 0.5328474 -0.06503228 -0.16856873 0.28425977 -0.1166175
-0.027753795 0.30060625 0.24657786 -0.75816697 -0.07002098 -0.16712116 -0.11501002 -0.27610278
-0.14213216 0.7555263 -0.3169873 -0.078617685 -0.41415805 0.26877475 0.50514317 0.04379937
-0.13320409 0.09414447 -0.2994198 -0.005275348 0.15628485 -0.23046245 -0.3561425 -0.20019184
-0.14853384 0.24775161 -0.7436765 0.11418432 0.49994877 -0.11367975 -0.25657442 -0.15358467
0.009844789 -0.1294699 -0.11801779 -0.009366682 -0.39706528 -0.63888955 -0.056252304 -0.18073073
0.5280877 0.39163673 -0.063410245 -0.08075556 0.026184632 -0.13757241 -0.053576212 -0.31711704
-0.3691093 0.030136907 0.29985654 -0.017740224 -0.49846014 -0.04077608 -0.19373086 -0.061621178
0.3653831 -0.0145413615 -0.017179547 -0.508746 0.032044485 -0.06165241 0.16737854 -0.19420023
-0.07193204 0.1585414 -0.58937407 0.3357586 0.10838519 -0.055171456 0.08715414 0.36100408
0.14185888 0.43803194 -0.45894626 -0.038923997 -0.3888878 -0.13262245 -0.19499412 -0.26649418
-0.2829471 0.25363022 0.348415 -0.56418824 0.14201626 0.52951086 -0.16908176 -0.14501631
0.43231422 -0.65814567 0.1452677 -0.1579315 0.07239065 -0.14038178 -0.37755483 0.41839725
-0.012119891 -0.08769114 -0.34471658 -0.05415637 0.4060137 0.32487535 -0.123624496 -0.027923463
-0.42085934 0.27036434 -0.028925244 -0.35733736 0.23090978 -0.17504677 0.053807497 0.20812012
-0.9011321 0.13485369 -0.3886258 -0.0730342 -0.4667329 -0.44469988 -0.027701883 0.024325738
0.043581255 -0.057285585 0.09668705 0.14544566 -0.086492784 -0.13602822 0.20804085 -0.32456464
-0.22646667 0.4291833 0.07315236 0.3733457 -0.0243662 -0.4623884 -0.29628757 0.2658467
0.6807038 0.5647419 -0.43654856 0.04243835 -0.08319476 -0.50910777 0.096515484 0.013815222
-0.018782606 0.17805412 0.54455495 0.25860852 0.014515052 -0.08573629 -0.106452964 -0.3435468
0.040469155 0.042482696 -0.18147276 0.18393719 0.48194417 -0.36000258 -0.1821836 -0.08850145
0.0086872615 -0.3218673 -0.40023643 0.12992735 0.35778818 0.29699552 -0.022236452 0.39782512
0.017976237 0.16429938 0.18805046 -0.0014947032 0.05189227 0.13802308 -0.13718551 0.06850384
-0.006479995 -0.21692303 0.5018374 -0.13009879 0.044212997 0.4873362 -0.5987414 -0.6668866
0.66720325 -0.11608554 0.1337317 -0.5358472 0.11018314 0.052899484 0.21764119 0.16559279
0.22505902 -0.19744274 -0.42088082 0.28000632 0.0036115523 -0.19793515 -0.10539782 0.60589236
-0.16974138 -0.86025167 -0.19017974 -0.066333026 -0.17028666 0.28218228 0.0024374854 0.1071426
-0.13056888 -0.29650494 -0.0371789 -0.13349423 0.4283532 0.725058 -0.11220325 0.20342594
0.5381867 -0.16852711 -0.015505461 -0.42788786 0.040758364 -0.4839344 -0.069214 0.07230529
-0.052389495 -0.11592509 -0.39953056 -0.0672206 0.38191035 -0.3382844 0.07096801 -0.09678436

layers.6.bias f4 [64]
00000000: a936 eebd 0ac8 1d3e 7a6d 043d 4f04 483d
00000010: d381 223e ea2e f2bc 543c cbbd a428 13be
00000020: 4f62 bfbd fe45 f53d 5144 18be 0520 41be
00000030: ba42 1fbe 8063 0dbe a9f1 c63c 3769 e5bd
00000040: 52f1 513d 5d29 75bc 9eb7 d3bb 529c 8f3b
00000050: 552f 7cbe 2559 a2bb 52b4 1abe fed5 35be
00000060: 097d 3b3d 94a1 f63d f54f e9bc f4eb 54be
00000070: cc9d fabd 3c56 eebd 7927 c1bd b0d5 003e
00000080: 364e fb3c 9fbc 94bd 2439 463d 4418 9bbc
00000090: 1936 5c3d ac4d 8d3d 0de8 913d 485d 51bd
000000a0: 0884 82bd fd09 39bd 2878 32be f2b2 03be
000000b0: cc63 dbbd 4c27 ca3d 6ecc 96bd a4a9 0ebe
000000c0: c973 343c 9aa1 803e 96ea 523d 77b1 d93d
000000d0: 5690 f0bd 32b3 d03d 2bfd 5d3e 573c 233e
000000e0: cd9f 01be 286d 43be 36b7 593d a4d8 1cbe
000000f0: 6c80 8fbd 3b4c 2b37 ce02 323e 3f2e 5cbd
-0.11631519 0.1540834 0.032330967 0.048832234 0.15869837 -0.029563386 -0.09923616 -0.14370972
-0.09344923 0.119762406 -0.1486981 -0.1885987 -0.15552798 -0.13807487 0.024285154 -0.11201709
0.05125553 -0.014963475 -0.006461098 0.0043826485 -0.2462743 -0.0049544745 -0.15107849 -0.17757413
0.04577354 0.12042537 -0.02848051 -0.20793134 -0.122371286 -0.11637542 -0.09431357 0.12581515
0.030676942 -0.07262539 0.048394337 -0.01893247 0.05376253 0.0689958 0.07124338 -0.05111435
-0.06372839 -0.04517554 -0.17428648 -0.12861231 -0.10712394 0.098707765 -0.073632106 -0.139319
0.011013933 0.25123292 0.05149325 0.10629552 -0.1174628 0.10190429 0.21678607 0.15940987
-0.12658615 -0.19084609 0.05315324 -0.15317017 -0.070069164 1.0210143e-05 0.17383882 -0.05375504

layers.8.weight f4 [64, 64]
00000000: 7df9 01bc 205b 423d 97e4 cabd b843 0dbe
00000010: 947e 2bbe 3cda 023e a666 d43d 7084 863d
00000020: f4dc 503d 3b4d fdbd e0ba f33d 8774 39bd
00000030: b674 e63d cc8b bc3b 1dab 113a d484 af3d
00000040: 8f61 1ebd eaec a8bd 26d0 73bd 6305 d0bd
00000050: a7ef 6bbd a9cb 823b ba75 b7bd 2f82 c8bd
00000060: 3c3b 2e3d cd7c aa3d 2eef debd 4ab9 cfbd
00000070: af60 923d 1f3c 233d 2698 cdbd adc7 a6bd
00000080: 9cda 30be 072c 4abe 1332 3f3d 9ed4 85bd
00000090: 4d16 6bbd c93d 29bd cd19 11bd 5e15 e0bd
000000a0: e1cb 86bd 364d e5bc 8a11 d93d 006a b9bb
000000b0: 409e 6a3d fc60 f53d f2fa 07bd 1e4e 9fbd
000000c0: 5915 f9bd 7dea d2bc 6124 033d d2db 3d3c
000000d0: ade1 ccbc ab1b 813d ed57 9d3d 2b91 b6bd
000000e0: c952 48bd 5055 d3bc 0710 a43d 0bd0 fdb9
000000f0: 29d5 993d d4df 843d 2630 1bbe c866 803d
00000100: 02c5 89bc 8b4b 30bb 1d10 febd 1812 86bc
00000110: a650 a9bd b298 fbbd 387d 6bbd 6484 a5bd
00000120: bcaf c4bd c64b 0a3d b29f d7bd a6e0 d53d
00000130: 226a d93d 7c82 b9bd 48d6 9fbc 1648 9c3d
00000140: 46c9 183d b2da b9bd 31a1 02bd 9b59 c03b
00000150: 618c 5f3c 8e17 fa3c 38df a6bd 1afb 88bd
00000160: 0d1c 933d 8b82 a83d f043 633c 8802 5d3d
00000170: a16d 8d3d f700 5a3c a327 603d 6399 f6bd
00000180: 2d9f 243c 603b e43d 8dae 93bd 1feb 86bd
00000190: 5026 0bbd ae2e a5bd 2f7f dcbb 4424 1fbd
000001a0: 50a5 babc 18d6 55bd 583e d9bc c040 8b3b
000001b0: fa5d 2b3d fecc eabd 98df a7bc 4800 d03d
000001c0: 2d76 1cbe 9b09 c9bc c65f b23d 3524 f73a
000001d0: 207c eebd 7b26 47bd eefd 1cbd 9180 973c
000001e0: 30c5 6cbd 5400 11bd a4a4 f4bd e065 f1bc
000001f0: 1170 e53b 3d67 bfbd 4eaf 8ebd b00c c23c
00000200: 702e b83d 11a9 efbd 862c d8bb d1d8 703d
00000210: e780 a7bd 8ae6 ae3d 724b fdbd dea1 0cbe
00000220: 2a0a abbd 5064 ca3d 622e 8fbd 7017 fd3c
00000230: 908c e9bd 6483 49bd 4238 653d 7826 ef3c
00000240: 1619 06be dd83 f2bc 33c7 1d3e 426f 51bd
00000250: 696f 193e e494 093d 6380 ea3c a511 24be
00000260: b2ca dcbc 4095 463d 77cc 163d 7657 013d
00000270: 403b 23bd 6c75 5b3d 318e cabd 0757 dcbd
00000280: 2a26 9b3c c02e 1abd eaa9 5fbd 295e 76bd
00000290: 4ea8 d7bd 785b 813d 0c28 763b 5c19 b6bd
000002a0: c8f5 733c 6ea4 11bb 27e4 043e 3e6d 4d3d
000002b0: 148d b43d bcfc 31be bf43 98bd a8b7 cdbd
000002c0: 99fc 05be ae79 6e3d f91f 983d 1e37 7fbe
000002d0: 1bb0 783b c1e0 b9bd d7e4 3bbd d5a0 c1bd
000002e0: 98a3 dc3d c0c6 0abb 6272 f5bd 90e9 8ebd
000002f0: 7882 28bd 77ba e73d a3cd 4dbd b2fb bcbd
00000300: 0b76 6cbe 4498 043e 16be ecbd 8d72 623e
00000310: e5d9 c73d 0b74 86bb eb32 a33c 82b7 e7bd
00000320: 64fc 2dbd eca4 743e 7c67 983d 4864 19bd
00000330: 642b 3e3d 6657 80bd d6af 8ebe d807 dc3d
00000340: bb51 80be 54b4 6bbd bf12 ce3d 28c4 c4bd
00000350: 86f8 2cbd ef36 133e 13e4 413d 1cde 74bd
00000360: 919f b23c a105 0ebe 7eb0 8f3d 91fe 0cbe
00000370: f41b e13d fb73 c33d 57d9 703d 88ad 6d3c
00000380: f2af 40be b6a9 ed3d 53f1 c1bc 7559 ad3d
00000390: a58d 9f3d c217 a5be 011b 563d 48d4 0a3d
000003a0: 49a6 0cbe 1a6c 3abe b950 47bd 914b 9cbd
000003b0: 4e29 a1bc 2a8b d33d a968 babd d0c4 ba3d
000003c0: 529f ffbd 148d 033d a13a 67be d973 133e
000003d0: b70c b8bc 5246 ebbd b893 5b3d dc7f 4abe
000003e0: 8cad e6bd b04b 873c 2bd8 03bd 38f1 153d
000003f0: 3873 b03d 5a1d 15be d2b4 693e 14aa f73d
-0.007933018 0.047450185 -0.09906881 -0.13795364 -0.16747504 0.12778562 0.10371141 0.06568229
0.050991967 -0.12368246 0.11900878 -0.045277145 0.112527296 0.00575397 0.0005556809 0.08570257
-0.038667258 -0.08248313 -0.059524678 -0.101572774 -0.057601597 0.0039915633 -0.089580014 -0.097904555
0.04253696 0.08324585 -0.10885464 -0.10142763 0.07147347 0.039852258 -0.10038786 -0.08143554
-0.17270893 -0.19743358 0.046678614 -0.06534694 -0.057394315 -0.04131869 -0.035424996 -0.109415755
-0.065818556 -0.027990919 0.105990484 -0.005658388 0.057279825 0.11981389 -0.033198304 -0.077785715
-0.12162275 -0.025746578 0.032017116 0.011588054 -0.025009954 0.06304105 0.07682786 -0.08914407
-0.048907075 -0.025797516 0.080108695 -0.00048410925 0.0751136 0.06488004 -0.15155086 0.06269604
-0.016817573 -0.0026900496 -0.12405417 -0.01636605 -0.082673356 -0.12284984 -0.057492465 -0.08081892
-0.09603831 0.03376367 -0.10528506 0.10443239 0.10615946 -0.09058091 -0.019511357 0.07630937
0.037301324 -0.09074916 -0.031892005 0.005870057 0.013644309 0.03052881 -0.08148044 -0.06688519
0.07183085 0.08228024 0.013871178 0.053957492 0.06905676 0.013305894 0.0547253 -0.12040975
0.010047716 0.111441374 -0.07211027 -0.065878145 -0.033972085 -0.08065544 -0.0067290287 -0.038852945
-0.022783905 -0.05220613 -0.026518986 0.004249662 0.04183767 -0.114648804 -0.02049236 0.10156304
-0.15279455 -0.024540713 0.087096736 0.0018855395 -0.11644769 -0.048620682 -0.038328104 0.018493922
-0.05780524 -0.035400704 -0.11945465 -0.029467523 0.0070018847 -0.09345863 -0.069670305 0.02368769
0.08993232 -0.11702169 -0.0065971045 0.058800522 -0.08178883 0.085400656 -0.12367906 -0.13733622
-0.08351548 0.09882414 -0.06991269 0.030894965 -0.11403763 -0.04919757 0.055961855 0.029193148
-0.13095507 -0.029603893 0.1540802 -0.051131494 0.14983906 0.03358926 0.028625673 -0.16022356
-0.026952121 0.04848218 0.036816087 0.03157755 -0.039851427 0.05357878 -0.09890402 -0.10758787
0.018939096 -0.03764224 -0.054605402 -0.060148392 -0.105301484 0.063162744 0.003756049 -0.08891556
0.014890142 -0.0022223252 0.12977658 0.05015301 0.08815971 -0.17381567 -0.074347965 -0.10044795
-0.1308464 0.05822151 0.07427973 -0.2492337 0.0037946764 -0.090760715 -0.045872536 -0.094545044
0.107733905 -0.0021175593 -0.119847074 -0.06978142 -0.04114005 0.11314862 -0.05024494 -0.092276946
-0.23091905 0.1294871 -0.115596935 0.2211401 0.09758357 -0.004103189 0.01992174 -0.11314298
-0.042477027 0.23891038 0.07441613 -0.03744915 0.0464281 -0.0626667 -0.27868527 0.107436836
-0.25062355 -0.05754502 0.10062169 -0.09607726 -0.042229198 0.14376424 0.04733665 -0.059782133
0.021804603 -0.13869335 0.07016085 -0.13768984 0.1099166 0.09543606 0.05880102 0.014506705
-0.18817118 0.116046354 -0.023674643 0.08464328 0.077906884 -0.32244688 0.052271847 0.033893853
-0.13735308 -0.182053 -0.048660967 -0.07631601 -0.019673016 0.10329278 -0.091019936 0.0911957
-0.1248156 0.032116964 -0.22580959 0.14399661 -0.022467 -0.11488022 0.053607672 -0.19775337
-0.1126357 0.016515583 -0.032188576 0.036606997 0.08615726 -0.14561978 0.22822884 0.12092987

layers.8.bias f4 [64]
00000000: 5add 35be 28a8 edbd 13e0 06be 7eb9 18be
00000010: 5595 023e 7a23 12be e4d4 15be 00a1 bebd
00000020: 1587 f63d 1068 d1bd a4c0 12be 2404 39bd
00000030: 7a9f df3c d85c ac3d 3b27 a23d 2ffb 673e
00000040: c5ee 44bd d3a9 e7bd 6601 d93d 314f 74bd
00000050: cf3d b9bc e276 0ebe 001f 38be 600c 53be
00000060: ae8e 2b3e 042e dcbd 31cd bfbd 0e8d 14be
00000070: c470 d4bc e42d c2bd 2393 3fbe a87a a53d
00000080: 8d1a 28bd 7f56 0b3e 96ec 1e3c 7dc3 1cbe
00000090: 7cf1 963d e201 07be e177 16be 1eee ebbd
000000a0: aef2 b23d a038 773d 24fc b03d f656 40bd
000000b0: 8c26 f33d 2111 c1be 3f68 ddbd 87a7 483d
000000c0: 0839 e43d 07f5 f8bd fe98 1c3e c194 d4bd
000000d0: fd6a 1a3e a08c 4bbd 6559 d7bd 79ee 07be
000000e0: e27e 353e 056a e7bd 548e b6bd be0e 113e
000000f0: 5c9a 9e3d 0460 1fbd 197e 1cbe 6e78 1dbe
-0.1776022 -0.11604339 -0.13171415 -0.1491451 0.12752278 -0.14271346 -0.14631993 -0.09308052
0.120374836 -0.102249265 -0.14331299 -0.045169964 0.027297724 0.08416146 0.07917639 0.22654413
-0.04807927 -0.11311688 0.1059597 -0.059645835 -0.02261248 -0.13912538 -0.17980576 -0.2061019
0.16753647 -0.10750964 -0.09365309 -0.14506933 -0.025932677 -0.09481409 -0.18708472 0.080800354
-0.041040946 0.13607214 0.009699961 -0.15308948 0.07370278 -0.13184312 -0.14694168 -0.115200266
0.08737694 0.060356736 0.08641842 -0.046957932 0.118725866 -0.3770838 -0.10810899 0.04898789
0.1114369 -0.1215611 0.15292737 -0.10379935 0.15079875 -0.049694657 -0.105150975 -0.13274564
0.17724183 -0.112995185 -0.08913866 0.1416578 0.077442855 -0.038909927 -0.15282477 -0.15377972

layers.10.weight f4 [64, 64]
00000000: e85e e93d f22b a6bd feb3 f1bd 428b e83d
00000010: 1246 6d3d 4059 7f3d 9075 7c3c 8097 8bba
00000020: 6e84 30bd 204b 5bbc 54de 943d a57a e8bd
00000030: 39af 5dbd e368 593d ff6d 53bd b6c3 ffbd
00000040: 291e 17be e40d c53d e863 1bba 0159 9fbc
00000050: dcbb c33d 1e83 8c3d 2834 2d3d fce1 c5bd
00000060: 4864 e8bd 70c3 e13d e5bd 62bd d8cd 32bd
00000070: 8241 de3d 2157 2e3d 09ba 4ebd 6f7e bc3d
00000080: d878 0c3d 7ea7 95bc 23da 043c ae20 d33d
00000090: cffb b8bd b0f5 e5bc 5c18 773d f1c5 d83c
000000a0: ad15 a63c deaf a53c e18e 043d 684d 62bd
000000b0: 22fa 343d 1e20 e0bd b895 5bbd 16e5 06be
000000c0: 5782 29be 1ef0 aa3d 341d 6d3d 92a9 223b
000000d0: 0971 02be d464 f43b f01a 6cbc e0c5 33bc
000000e0: 0048 00bc 9424 fe3d 7e77 07bc 709d 14be
000000f0: f043 ccbc 59b9 f7bd eeda ed3d 0a80 9a3d
00000100: 959f c9bd 893c 973d 7793 62be 4e99 353d
00000110: 5b56 913e baed dcbb e9f9 653e 740a 05be
00000120: 6c5a 623e 37b9 f53d 4066 9abd b2de 6f3d
00000130: 9d38 dfbd 4731 9e3e 9b66 a93e 5f6a a4be
00000140: f299 583d ec6b 973c 6de9 c23e e675 dd3e
00000150: 9f4f a1bd 4cd6 f33b 98ec c3bd fd30 d23d
00000160: a778 a93e f670 05bc 8cd7 cd3e f31c 703c
00000170: c7da a73d 8753 3f3d f4df ccbe 467e 74be
00000180: 48c3 4bbc ef88 713d 7dba d53d e446 3e3d
00000190: 49a5 513e 33f3 343d 70d4 503e 23fa f8be
000001a0: c7c8 043e 4ce0 a73d 2a95 213e b5a0 923d
000001b0: 1926 9dbe 4b18 22bd 9261 72bd 0393 e23d
000001c0: fe88 ab3e 56db d9bd c5cc fd3d d523 a0bc
000001d0: 1dea cabe 8473 b9bb 3fc7 b03d b0a2 cf3d
000001e0: e34e 1c3e 58ea 993d be87 81bd 601c b73e
000001f0: f596 95be ee85 b53b ba9d e6bc 0557 703a
00000200: b307 8abd 4d06 4f3d cb93 a03d 2285 e9bd
00000210: 6f7e af3e d444 0d3d c1ca f6bd 3515 a6bc
00000220: 1174 7bbe f8e4 86bd d78a 343e a4d5 41be
00000230: f5fb babe 70fd 67bd db09 d23d 97d7 60be
00000240: fa25 3a3e 005c 30b9 44f8 4b3e 93ce d1be
00000250: 742e 4a3d fda8 283d 0159 09bd 9d0b 01be
00000260: 7a5e cfbd e291 9f3d 3163 f5bc d668 c53d
00000270: 4c50 b5bd b8de 93bb 45e8 77be 521e a83d
00000280: 2ad1 bf3d 786b be3d 5121 393e ec47 9e3c
00000290: f70b 123e aee3 dd3d 9e84 69bd 3349 c7bd
000002a0: 1819 813e fa69 69be 692f 843d d5c3 853a
000002b0: 1bc2 323d a0a9 34be e680 e93d b2c4 e63d
000002c0: 3f64 143e 77bf c03d 4893 a53e d5b1 c1bc
000002d0: 4184 fcbc d398 73bd 41ef 83ba 45ba b63d
000002e0: 6b22 ac3e fcb2 ce3d a3b4 60bd d8d5 d0be
000002f0: f8e9 eb3c 58e7 813d 0728 843d 8fea 4fbd
00000300: 6fa9 1f3d a5e2 30bb 47e9 0bbe 0ec5 b0bd
00000310: e44d a6be 4d14 a43d efbc 0bbe 838c a33d
00000320: d8eb 3c3e 3bb8 183d 6053 3e3d 6e36 6fbd
00000330: adae 8c3e 9731 b7bd 400a 9abe 6a6f 003f
00000340: a779 7a3d 6cc6 173d 220b 64be def9 63be
00000350: e407 3ebd ea85 463d 8d68 223d eaac bf3d
00000360: 8063 afbe 7117 af3d d605 7cbe d643 73bd
00000370: ae4b 58bd 0840 cabd a7d8 c83e 07f7 48be
00000380: f57c 5f3d 1ed1 1dbe 9937 ca3d 86ea 15bd
00000390: c67d 8dbc 6f4e b83c f48a b3bd 8ebb 0d3e
000003a0: 5866 353d c063 263e 8b7c bfbd 3332 d9bd
000003b0: 7f8e b63e dfc6 36bd d393 c23d edf2 2abe
000003c0: 3349 85bd b157 99bd 9ef4 03be 0ac6 afbc
000003d0: 9735 1f3d 22b1 91bc ed10 9fbd 7dc9 583d
000003e0: b8e4 a2bd f12d 97bd 63d6 9e3c 5836 88bc
000003f0: 1068 07be 55ed 7c3d 4564 8f3d 2c9c de3d
0.11395055 -0.08113851 -0.11801909 0.11354686 0.057928152 0.062340975 0.015408888 -0.0010650009
-0.043095045 -0.01338461 0.07268968 -0.113515176 -0.054122183 0.053078543 -0.051618572 -0.12488501
-0.14757599 0.0962179 -0.0005927668 -0.01945162 0.09557316 0.06860946 0.04228607 -0.09662244
-0.11347252 0.11023605 -0.05535688 -0.04365334 0.108523384 0.04256356 -0.050470386 0.09203803
0.034294933 -0.018268343 0.0081086485 0.103089675 -0.09032404 -0.028071254 0.060325965 0.026461573
0.020274008 0.020225462 0.032362822 -0.0552496 0.044183858 -0.10943626 -0.05360958 -0.13173327
-0.16553627 0.0834658 0.05788918 0.002482031 -0.12738432 0.0074583087 -0.014410719 -0.01097247
-0.007829666 0.124093205 -0.008268235 -0.14513183 -0.024934739 -0.12095899 0.11614023 0.07543953
-0.09844891 0.07384593 -0.22126566 0.044335656 0.28386196 -0.0067422064 0.22458614 -0.12992269
0.22104806 0.119982176 -0.07539034 0.05856199 -0.1089947 0.3089697 0.33086094 -0.32112405
0.05288119 0.018484078 0.38068715 0.43254012 -0.07876515 0.0074413177 -0.09566611 0.1026325
0.33099863 -0.008144608 0.40203512 0.0146553395 0.08196025 0.046710517 -0.40014613 -0.23876294
-0.012436695 0.05896848 0.104359604 0.046454325 0.20473208 0.044177245 0.20393538 -0.4862834
0.12967215 0.08197078 0.15779558 0.07159559 -0.3069313 -0.03957395 -0.05917508 0.110631965
0.33502954 -0.10637538 0.12392572 -0.019548336 -0.3963174 -0.0056595225 0.08631753 0.10138452
0.15264468 0.07515401 -0.06324719 0.35763836 -0.29216734 0.0055396473 -0.028151382 0.00091682404
-0.0673975 0.05054312 0.07840689 -0.11402346 0.3427615 0.034489468 -0.12050391 -0.020273784
-0.24555995 -0.06586641 0.17631088 -0.18929154 -0.36520353 -0.05663818 0.10255786 -0.21957241
0.1817855 -0.0001681894 0.19918925 -0.40977916 0.049360707 0.041176785 -0.033532146 -0.12602086
-0.10125442 0.07791497 -0.029954525 0.096391365 -0.08853206 -0.004512634 -0.24209698 0.08208908
0.09366067 0.09297842 0.18079115 0.019321404 0.14262377 0.10834442 -0.05701124 -0.097307585
0.25214458 -0.22794333 0.06454355 0.0010205457 0.043642145 -0.17642832 0.114015386 0.112679854
0.14491366 0.09411519 0.3233893 -0.023644367 -0.030824782 -0.059471916 -0.001006581 0.08922247
0.3362001 0.10092732 -0.05485977 -0.4078815 0.028798088 0.063429534 0.06452947 -0.050760802
0.038979944 -0.002699056 -0.13663207 -0.08631335 -0.324813 0.080116846 -0.13646291 0.07985785
0.18449342 0.03728507 0.04646623 -0.058401518 0.27477017 -0.089450054 -0.30085945 0.50170004
0.061151173 0.037054464 -0.22269872 -0.22263286 -0.046394244 0.048467554 0.03965049 0.093591526
-0.342556 0.08549393 -0.24611601 -0.059390865 -0.05280655 -0.09875494 0.39227793 -0.19625483
0.054562528 -0.15411803 0.09873886 -0.036600612 -0.017271888 0.022498338 -0.087667376 0.13841078
0.044287056 0.16248989 -0.093499266 -0.10605278 0.3565559 -0.044623252 0.095008515 -0.16694231
-0.06508102 -0.07487429 -0.12886283 -0.021456737 0.038869467 -0.017784659 -0.077669 0.05292653
-0.07953781 -0.073818095 0.019389337 -0.016627476 -0.1322329 0.061749775 0.07001547 0.10869631

layers.10.bias f4 [64]
00000000: 88f6 14be 9b4c 3a3e 7e30 513e 4d6e f6bb
00000010: 5a5a 01be 3468 bb3e 0d63 a5bd 0a43 a33d
00000020: 536a 473e d805 cc3d 08e3 7bbe 4ee8 c0bd
00000030: c0da 4dbd 4d82 d13c a0b9 6d3c 5dbe 87bc
00000040: ca2b 0bbe 8da6 98bc d503 44bc 29ee 073e
00000050: b742 17be 4f3b 01be b929 4bbe bf28 73bd
00000060: 813a 03be 93bb a3bd 3062 2fbe 9fc8 1bbd
00000070: 8e13 a5bd 1ad7 50be 9617 c13d 9341 08be
00000080: f811 6cbd a742 313e bb0b 8dbe 86c7 d4bc
00000090: bfd4 45bd 8c73 2abd 4950 4b3e f018 aebd
000000a0: c83c b83e 32b6 e23d ad68 343e 246c e13d
000000b0: a01d 18be 23c7 123c 63fe ecbc 02ef 6ebd
000000c0: 0d57 6bbd d785 08be 6d49 efbd 4864 52bc
000000d0: 48a9 64bc 6193 8ebd d7f9 a03e 4cbf 17be
000000e0: 609f 573c 1bbe 04be a1a3 86bd 4615 853a
000000f0: 423c 03be 936f d8bd e93d e0bc e8fa cf3d
-0.14547169 0.18193285 0.20428655 -0.007520473 -0.12632123 0.36602938 -0.08075533 0.07971771
0.19474153 0.09962052 -0.24598324 -0.094193086 -0.050257444 0.025574828 0.0145095885 -0.016570264
-0.13590923 -0.018634105 -0.011963804 0.13274445 -0.14771543 -0.1262028 -0.19840135 -0.05936503
-0.12815286 -0.07994761 -0.171273 -0.038033124 -0.080603704 -0.20394555 0.09428327 -0.13306265
-0.057634324 0.17310582 -0.27548012 -0.025974046 -0.048298594 -0.0416141 0.19854845 -0.0850085
0.35983872 0.11069907 0.17618056 0.11006954 -0.14855051 0.008958611 -0.028929895 -0.058333404
-0.057456065 -0.13332306 -0.11683927 -0.012841292 -0.013956375 -0.06961704 0.31440613 -0.14819068
0.013160557 -0.12963144 -0.065741785 0.0010153435 -0.12815955 -0.10568156 -0.027373271 0.101552784
