watermark_reliability_release/watermarks/aiwei23/model/sub_net.pt (torch, 125557 bytes, 16 tensors)

layers.0.weight f4 [64, 16]
00000000: 3547 cc3e f1e1 ad3e 3539 05be 9b39 19be
00000010: e7f5 8b3e 6c57 71bd f006 d7be 28dd db3e
00000020: c3f9 a7bd 6d21 8a3d d1e6 213f b125 edbe
00000030: bf7c 2e3e 8b34 0abd 3a1c 99be 53ba 83be
00000040: e2a1 4fbe e033 3abe f694 41be 8aff bb3d
00000050: 9884 efbd 7e26 76be 491f d2bd c0b5 6bbd
00000060: acd3 9fbd ac52 d1bd 5613 663c 5ac5 b23d
00000070: 8f76 c8bd a386 15bd 8bf2 103d 7cb1 6ebe
00000080: c311 aabe 070b 1e3d 4f06 9cbe 142d 2fbe
00000090: 0a2d 983e d9e2 ccbc 6972 79bf 89c7 70be
000000a0: 4e34 6ebe 9183 4cbf e016 88bf 4a16 4d3e
000000b0: 1b02 5bbf 0402 c83e 2f71 3c3d 7c94 c23d
000000c0: 3533 62be 3f5f d03e c9b1 2abf d863 9dbe
000000d0: 1954 5dbd 9edf 1d3d feab b4be a97f 19be
000000e0: c55b 5f3d 45df 41bf 395a f8bd a2f6 de3e
000000f0: 0cc1 4dbd df46 09be d574 03bf 38ef 273e
00000100: eb78 ff3d c938 92be 6261 193e 5530 473e
00000110: 65c1 963e 9132 fc3d 9a4b bcbe 15f2 d4be
00000120: b9b5 69be a63a e6be 1cd8 123f effc 093d
00000130: be54 6c3d 4e91 4fbe 5bfd b03e 29df f33d
00000140: a028 38be 3a84 a0be f14b bcbe edf2 0d3e
00000150: 2975 923e 8b14 07be 9db2 5abf 8259 003e
00000160: d80a b33e e7fd b73d c528 203e 4a54 fdbd
00000170: b2d6 583c 0ba7 49be 3c85 753d 0057 143e
00000180: a18c 953e 606d 53be 156b 77be 6828 ecbe
00000190: 561f a9be e9f9 2dbc 060b 1f3e 1fa9 19bf
000001a0: 3ef1 dd3e 4b16 6fbe 62df 463d ee55 20be
000001b0: a567 cbbd 02ae 9dbd 4695 a33e 3299 b53e
000001c0: 7a1c 0ebe 94ee a33d 6c3a 9b3d 05df 1ebf
000001d0: 91a4 073e 59f2 c53d 16cd bebe 03ca e03d
000001e0: 748b 2e3e 0b5e 5a3e f314 b1be 3522 0bbe
000001f0: a06f 1d3f 6dcc efbb 326b 113e 2526 5fbe
00000200: 36e3 003f 035c 823e ffc5 a13d eb97 73be
00000210: af18 46bf 041e 243b 4369 49bc f199 c6be
00000220: 5aec d03d 5e0c fbbe e60b 8cbe e536 7cbc
00000230: 8713 a1be 71f5 a0bd a8b5 85bd fcc4 0abf
00000240: 05ad 623d 6286 683e 310e 0c3f ca21 bd3d
00000250: c7ec c93e cb3b 1abe a240 62bd 4c4d c43e
00000260: 4287 bbbb 567d b6be f3a2 14be 4153 00bf
00000270: 7e1a ff3c 43fe 09bd 8dd3 debd a4f1 aebe
00000280: 3638 4abe f432 e03e d5c5 e13e 857e 803e
00000290: 8282 6a3d fcd8 0dbe 02fd 8fbe 2772 6c3e
000002a0: 2486 80bf 79d6 dabc 3ff5 8cbc 6e98 a0bc
000002b0: 45df c8be 4ebd 66be 6110 92bf 82f4 7abe
000002c0: cc0e 933d c6c3 0bbf 0030 00bf 8f7d 4fbe
000002d0: 6b29 e1be d2f9 023e b4a6 543e 081a 09be
000002e0: 17e7 983e d520 b73e b095 fe3d 3e3d e83d
000002f0: 30b1 1bbf 7de5 d5bd b531 463c c335 d7bc
00000300: 2abd 33be b8e1 2cbe e6e4 14bf 15dd b0be
00000310: b528 1dbe 4a2b 9b3c 32b2 e23d 7538 2b3e
00000320: 7b40 05be 2157 733e 2b74 b03d 559d 69bf
00000330: 3ac2 0e3e b396 df3e 4739 c4bd a4b4 d53e
00000340: eaa6 c439 76a6 603d aec4 2cbe 0ea7 ecbe
00000350: 031a 513d ffa4 1fbf 14e7 073e b972 303e
00000360: b313 eebe 8d5f a6be d96e b53e 2d54 833e
00000370: bdaa 45bf 9b07 503d a5ec bebd eae5 41be
00000380: 850e 433e 9974 263e 25ca 093f 05ad 21bf
00000390: bba8 e9be 9dab 58be b431 15bf 27c3 55be
000003a0: c897 80bb a138 923d 8241 4abe 5c62 a6bd
000003b0: 189f c2be 57e6 993b ac56 0f3c d134 683d
000003c0: 0d05 1e3e e37a 14be 5376 de3b 60b6 83bf
000003d0: 04c9 7b3e 6b74 9abe bb6e bdbd ce8e e33e
000003e0: 50ed 58bc ac47 88be 3bd4 c23e 87b6 643d
000003f0: 3314 8bbb fcd4 81be f568 283d 7a44 d0be
0.39898077 0.33961442 -0.13010104 -0.14963381 0.27336046 -0.058921263 -0.4199748 0.42942166
-0.08201935 0.06744657 0.6324282 -0.4631782 0.17039774 -0.033741515 -0.29904348 -0.25728092
-0.20276597 -0.18183851 -0.1890448 0.091795996 -0.11695212 -0.24038121 -0.102598734 -0.057546377
-0.07804045 -0.102208465 0.014042696 0.08729048 -0.09788238 -0.036505353 0.035387557 -0.23309892
-0.33216676 0.038584735 -0.30473563 -0.1710704 0.29721862 -0.025010513 -0.974402 -0.23513617
-0.2326214 -0.79888254 -1.0631981 0.20028034 -0.8555009 0.39064038 0.046006378 0.095009774
-0.22089846 0.40697667 -0.6667753 -0.30740237 -0.05403528 0.038543336 -0.3528747 -0.14990105
0.054530878 -0.7573131 -0.121265836 0.4354754 -0.050232932 -0.13405941 -0.51350147 0.16399848
0.12474235 -0.2855895 0.14978555 0.19452031 0.29444423 0.12314332 -0.3677643 -0.41590944
-0.22823228 -0.4496662 0.57361007 0.033688482 0.057698004 -0.20270273 0.34568295 0.11907799
-0.17984247 -0.3135088 -0.3677669 0.138622 0.2860501 -0.1319143 -0.8542879 0.12534145
0.3496921 0.08983975 0.15640552 -0.123695925 0.013234781 -0.19692628 0.059941515 0.14486313
0.29208854 -0.20647192 -0.24161942 -0.46124578 -0.3303172 -0.010618665 0.15531549 -0.60023683
0.43348116 -0.23348348 0.04855288 -0.1565778 -0.09931878 -0.07699205 0.31949824 0.3546844
-0.1387805 0.080044895 0.075795025 -0.6205905 0.13246371 0.09665365 -0.37265843 0.10976031
0.17045385 0.21324937 -0.34586295 -0.13587268 0.6149845 -0.0073180706 0.14201048 -0.21791895
0.50346696 0.25460824 0.07899093 -0.23788421 -0.77381414 0.0025042305 -0.012293163 -0.38789323
0.102013305 -0.49032873 -0.27352828 -0.015393947 -0.3146021 -0.07859314 -0.06528789 -0.54206824
0.055340786 0.22707513 0.54709154 0.092349604 0.3943846 -0.15061872 -0.05523742 0.38340223
-0.005722911 -0.356425 -0.14515285 -0.50127035 0.031140562 -0.03368975 -0.10880194 -0.34168732
-0.19748005 0.43788874 0.44096246 0.25096527 0.05725337 -0.13852304 -0.28122717 0.2309042
-1.0040936 -0.026713597 -0.017206786 -0.019603934 -0.3923284 -0.22533152 -1.1411248 -0.24507335
0.07180557 -0.545956 -0.5007324 -0.2026274 -0.43976912 0.12790611 0.20766717 -0.13388836
0.29863808 0.35767236 0.124308944 0.11339806 -0.6081724 -0.10444162 0.012096812 -0.026270753
-0.17552629 -0.1688298 -0.5816177 -0.34543672 -0.1534756 0.01894154 0.11069144 0.16720755
-0.13012879 0.23763706 0.08615907 -0.91255695 0.13941279 0.43669662 -0.09581237 0.4173938
0.00037508394 0.05484625 -0.16871902 -0.46221203 0.051050197 -0.6236114 0.13271743 0.17231263
-0.46499404 -0.32494774 0.35436133 0.2565016 -0.7721365 0.050788503 -0.0932248 -0.18935362
0.19048508 0.16255416 0.53824073 -0.6315463 -0.45636544 -0.21159215 -0.58278966 -0.20875226
-0.0039243437 0.07139707 -0.19751552 -0.08124229 -0.38012004 0.004696648 0.0087486915 0.056690995
0.15431614 -0.14500003 0.0067890077 -1.0290031 0.245884 -0.30166945 -0.09249636 0.4444489
-0.013240173 -0.2661718 0.38052544 0.055838134 -0.0042443513 -0.25357807 0.04111572 -0.40677243

layers.0.bias f4 [64]
00000000: 468f 9ebe 7037 0bbe bde1 be3c ac83 88be
00000010: 7195 273d dab9 aebe c692 84bd a64b 6cbd
00000020: b0e4 6bbc 547e dfbd 7c05 62be 3235 4e3e
00000030: c822 08be 5b10 023e 819b fbbc d381 4fbe
00000040: 49d3 0dbe 81b1 d13d 59fd 4bbd a54f 7abe
00000050: 80b0 233e cdf7 573e e941 f73d 6e04 42be
00000060: 5155 7cbe da97 babc 6727 72bb e3e3 9abe
00000070: 75d8 af3c dc1c 9cbe 4c80 4abd af23 3b3d
00000080: b713 a0be 411f 4fbe dc2a 12bd 30c5 46be
00000090: 3fd4 2dbd b5ce 83be 5a1c 003d 778e 833d
000000a0: 1865 1d3d 9986 863c 1d09 3d3c 6ea7 61be
000000b0: 500f a5be 7376 75be 8193 91bd eb5c 083d
000000c0: 8dfb 54be 7475 993d fdba ec3d 5403 40bd
000000d0: 0e00 6abe 1283 8c3d 919e 9e3d 6f89 973d
000000e0: c09f 7c3b 49e1 653e c1cb c53d 2e34 e2bc
000000f0: 4049 31be 4490 e9bd 1db9 24bd 0967 f3bc
-0.30968684 -0.13595366 0.023301 -0.26662958 0.040914003 -0.34126168 -0.06473307 -0.05768933
-0.014397785 -0.10912767 -0.22072405 0.2013748 -0.13294518 0.12701552 -0.030713798 -0.20264368
-0.1385013 0.10238934 -0.049802158 -0.24444444 0.15985298 0.21090622 0.12073118 -0.18947002
-0.2464192 -0.022777487 -0.0036949755 -0.3025199 0.02146552 -0.30490768 -0.04943876 0.045688327
-0.3126504 -0.20226766 -0.035685405 -0.19411159 -0.04243874 -0.25743642 0.03127704 0.064236574
0.03842649 0.016421603 0.011537817 -0.22036526 -0.32238245 -0.23970966 -0.07108212 0.03329174
-0.20799084 0.074931055 0.11559103 -0.046878174 -0.22851583 0.06860937 0.07745088 0.0739926
0.0038547367 0.2244922 0.096580036 -0.027612772 -0.17313099 -0.114044696 -0.0402156 -0.029712217

layers.2.weight f4 [64, 64]
00000000: 780d ee3d cb22 83bd 5df1 20bf f54d bc3e
00000010: c0ac 91bf 692f 4cbd bc0e b1bd 5225 f4bd
00000020: db91 173e dc98 21bd 7ae0 b63d 3a2a 4ebe
00000030: 1edd 6c3e 3909 703e f989 75be 8e25 ac3e
00000040: 73e5 a7bd 2bea 46bf 7e79 cfbd a238 f7bd
00000050: 534e 473e ceb2 d53d aa3b 4cbc 4f40 d43c
00000060: 56b2 70bf 6c13 0b3f 7549 52bf ee36 263e
00000070: 4bbe 57be 0c8e ccbe 7328 293f 1db9 32bd
00000080: 2853 053d 605b babe c474 383c 38f7 96be
00000090: 4020 1dbd 99b9 c53e f676 19bd be3a 51be
000000a0: f6ba 13bf 6deb 293e 9b1a ccbe 22be b2bc
000000b0: ea8b ec3d 041c b6bf dd1e 603e f145 823d
000000c0: c4f3 153e 420c cf3d faae fcbd 0895 d13e
000000d0: 63e2 dd3b e155 ec3d 135b 26bf 59dd 223e
000000e0: 3d1d 983c 86a7 9a3d 5ca6 a2be 5be2 82bc
000000f0: 6de5 4ebf b1a2 68bc 21c7 b2bd fa97 8b3c
00000100: 61d5 58be 98c2 b0bd 656e b73e 1229 b7be
00000110: bc3d ab3d ce6b c4be f50a 9bbd 0983 54be
00000120: cd47 e0be 4ce4 bcbe 63ac 29bc 7a8c 54be
00000130: 5cb5 123e fc70 5cbe bcee 183d e0f9 9b3e
00000140: cfe0 5d3e def4 5ebf 29ea 6cbe d354 f03d
00000150: 284e 23be 829e 59be 90d0 17be c5ac 84bf
00000160: 1522 18bf 2eac 08bf c2e0 a1bd 0705 24bd
00000170: 166c 71be d6c7 84bd d4d0 5d3e bd9a 82bd
00000180: 60db b4be 66f6 8bbe ebfc a3be 25ad a83e
00000190: 2051 51be bfda 8a3d 44cb df3d ac66 2b3d
000001a0: 35d6 4fbe 6928 983d 24c7 3dbe 62b1 4ebe
000001b0: f250 48bd 2b26 9cbe 276d 213e 50fd 963e
000001c0: a7f9 00bf ef34 6cbe 4054 a5be db52 07bf
000001d0: 78e5 763e b40e 4e3e 9c52 9f3e 13c2 94bd
000001e0: 6e88 b93c e04a 55bd 720d 883e c5d9 c7be
000001f0: 78c4 273d 3a58 a1be f567 c8bd 195d 103d
00000200: 0c69 d8bd fe8a fcbb 21e1 19bd c4bc 923d
00000210: 96f4 98bd 8e88 3ebd a402 52bd 0c33 a0bd
00000220: bafc 60bd 4806 97bd 4c79 d63d b7e7 953c
00000230: 5a31 9dbd 7daf d2bd f4cf f3bd 222f 86bd
00000240: 1b00 20bd 42df d13c 263e 14bc 8e35 a73d
00000250: ad2b 1ebd 273a 30bd db82 dabd fbda c13c
00000260: fc2e f5bc 167e ee3d 88fe 11bb ce38 1fbe
00000270: a1c3 643d fc12 903d c072 25bd f184 95bd
00000280: 865b 41bc 3c11 c9bc 3dc4 e8bc 3db1 b6bd
00000290: fd84 883d 00a9 cbbd b64c fa3d f446 cf3d
000002a0: af57 b6bc 8f59 863c 1f67 33bd 79e8 0cbd
000002b0: e262 16bd 365e 5dbc 3ff9 9cbc d8a3 97bd
000002c0: e3fd 6ebd 83ca eb3a a900 a1bd 472d 1fbd
000002d0: fb50 50bd ff1d a4bd 358f 433c e7d2 20be
000002e0: ea44 11be 5c3c 61bc 5922 5e3d ab07 97bd
000002f0: fa17 e73c 68ae d7bd fea8 36bc d1fe 083e
00000300: 636e b9bd 0970 9a3c c349 373f 7da2 c0bd
00000310: 69de 5bbd 1566 30bf dc50 dfbe 60b9 66bf
00000320: df36 b5be 58c0 373e f16f 96be f57d b13e
00000330: a393 723d a2d2 9bbf b1d9 213e 9ba1 25be
00000340: 95da d73a 7abd f23c f853 8cbe 71e8 1cbe
00000350: 503e 153b 6379 41be b6e1 b63d 42ab e7be
00000360: 1197 76be f98c 983e f906 38be c520 803c
00000370: 40e0 d03d 3e21 c53e 4a3d 51be 2285 6b3e
00000380: 5613 d93e e4ad 9cbd a36d 05bf f488 083e
00000390: c5fa 163b e11e 15be 6b47 973e b9f4 b1be
000003a0: 29a9 793e 1fb8 e2bd 9c4a 62be ffad e3be
000003b0: 5ae2 933c 4423 083d 465f 90be 0832 ae3d
000003c0: ae78 823e b721 b13e 80d1 4b3d a6a5 283e
000003d0: 2f25 673d 0c4c 5abe 1f00 cbbd 2e85 41be
000003e0: 22f8 093e 13ed 3abe 54e2 003f ff8f d03e
000003f0: 1afe 0c3f c72e aebd 5b27 06bf 554f 613e
0.11623663 -0.064031206 -0.6286829 0.36778226 -1.1380844 -0.0498499 -0.086453885 -0.11921181
0.14801733 -0.03945242 0.08929534 -0.20133296 0.23131225 0.23441018 -0.23978414 0.33622402
-0.08198061 -0.7770106 -0.10130595 -0.12071349 0.19463472 0.10434495 -0.012465397 0.025909571
-0.9402212 0.5432651 -0.82143337 0.16231892 -0.21068685 -0.39952123 0.66077346 -0.04363357
0.032550007 -0.3639784 0.011258308 -0.29485488 -0.038360834 0.38618162 -0.037466966 -0.20432565
-0.57707155 0.16593714 -0.39864048 -0.021819178 0.11550124 -1.42273 0.21886773 0.063609965
0.1464377 0.1010976 -0.12338062 0.40934014 0.006771372 0.115398176 -0.6498272 0.1590475
0.01856863 0.07551484 -0.31767547 -0.015977075 -0.80818826 -0.014198945 -0.08729387 0.017040242
-0.21175148 -0.08630866 0.35826412 -0.35773522 0.08361384 -0.38363498 -0.07570449 -0.20753111
-0.4380478 -0.36892927 -0.010356042 -0.20756713 0.14326996 -0.21527475 0.03733705 0.30464077
0.21667789 -0.8709239 -0.231362 0.11734929 -0.15947783 -0.21251872 -0.14825654 -1.0365225
-0.59427005 -0.53387725 -0.07904197 -0.040043857 -0.23576388 -0.06483428 0.21661693 -0.0637717
-0.3532362 -0.27336425 -0.320289 0.329446 -0.20441103 0.06780004 0.10927442 0.041845962
-0.20296557 0.074295826 -0.18532997 -0.20184854 -0.04890532 -0.3049787 0.15764295 0.29490137
-0.5038094 -0.23067068 -0.3229084 -0.528608 0.24110973 0.20122796 0.31117713 -0.07263579
0.022648063 -0.05207336 0.26572758 -0.39033332 0.04095885 -0.31512624 -0.09785453 0.035245035
-0.10566911 -0.007706999 -0.037568215 0.071649104 -0.07468526 -0.046516947 -0.05127205 -0.078222364
-0.05492852 -0.07374245 0.10472354 0.018298967 -0.07675429 -0.10287378 -0.11904898 -0.065519586
-0.0390626 0.025619153 -0.0090480205 0.081645116 -0.03861587 -0.04302421 -0.1066949 0.023663988
-0.02992963 0.11645143 -0.0022276957 -0.15549013 0.05585063 0.07034871 -0.040392637 -0.07300747
-0.011801606 -0.02454435 -0.028413886 -0.08920524 0.066659905 -0.099443436 0.12221663 0.10120955
-0.022258608 0.016400127 -0.043799516 -0.03440139 -0.036715396 -0.013511231 -0.019161819 -0.074042976
-0.058347594 0.001798943 -0.07861454 -0.03886154 -0.05085848 -0.08013534 0.011935999 -0.15705453
-0.14186445 -0.013747301 0.054231975 -0.073745094 0.028209675 -0.10531312 -0.011148689 0.13378455
-0.09054258 0.01885225 0.71596926 -0.09405992 -0.053678904 -0.68905765 -0.43616378 -0.9012661
-0.35393426 0.17944467 -0.2938228 0.3466641 0.05922283 -1.2173655 0.15805699 -0.16174929
0.0016468341 0.029631365 -0.27407813 -0.15323044 0.0022772737 -0.18893962 0.0892977 -0.45247847
-0.24081065 0.29795054 -0.1797141 0.015640626 0.10199022 0.38501924 -0.20433536 0.23000005
0.42397565 -0.076503545 -0.5212042 0.13333493 0.0023037654 -0.1456256 0.29546675 -0.3475702
0.24380936 -0.110702746 -0.22098774 -0.44468686 0.018052269 0.033236757 -0.28197688 0.085056365
0.25482696 0.34596035 0.04976034 0.1646944 0.056431945 -0.21318072 -0.099121325 -0.1889846
0.13473561 -0.18254499 0.5034535 0.4073486 0.5507523 -0.08505016 -0.524038 0.22002919

layers.2.bias f4 [64]
00000000: 5f90 83bd 6348 c7bd 0fdc 15be d6a7 5f3e
00000010: 1eea 0abe e815 03bd 8f75 6dbc d583 93bd
00000020: c272 22bd 9034 07be 411f 8ebc 0457 283e
00000030: dc8c dabd a137 f1bd dbcd 253d d787 b1bd
00000040: 1225 363e cea0 f3bd 31de d93d 2854 98bd
00000050: 37ae c03d 300d 013b 421d 6b3d a50c 583d
00000060: 0472 ddbd 68f4 093e 5379 00be c6cc 0f3e
00000070: be8a 4dbd 675a 2abe f036 34be a152 4ebd
00000080: 09f5 103e 884c 0b3c 5268 18be d41b 27be
00000090: 167b 19be 7f88 9bbe 43c5 a93d 5a8e 4e3d
000000a0: a554 453d 9bfe 17bd a442 2cbe aa44 cabc
000000b0: a701 2dbe 3f2d 743d f343 9f3c 7522 3bbe
000000c0: 475f c43d fc73 a23d 7943 02be 7ffc 253c
000000d0: 66a7 76bb e4cf ebbd 539c 0dbc 65f2 2cbe
000000e0: 165e 29be 5db1 84bd 4828 a0be b65c 22be
000000f0: f787 213d b38a 21bd 7f76 e9bc 82f9 06bd
-0.06424021 -0.097306035 -0.14634727 0.21841368 -0.13565871 -0.032003313 -0.01449336 -0.07202879
-0.039660223 -0.13203645 -0.017348887 0.16439444 -0.10671398 -0.117781885 0.040479522 -0.086684875
0.17787579 -0.118959054 0.10638083 -0.074379265 0.09408229 0.0019691698 0.05740095 0.052746434
-0.108127624 0.1347214 -0.12546282 0.14042959 -0.050181143 -0.16636048 -0.17599082 -0.05037177
0.14155973 0.008502133 -0.14883545 -0.1631921 -0.1498836 -0.30377576 0.08289578 0.050428726
0.048176426 -0.037108045 -0.16822296 -0.024690945 -0.16895162 0.059613463 0.01944158 -0.18274863
0.09588485 0.079322785 -0.12721051 0.010131001 -0.0037636398 -0.11514261 -0.008643228 -0.16889341
-0.16539797 -0.06479142 -0.31280732 -0.15855679 0.039436307 -0.039438915 -0.028498886 -0.032952793

layers.4.weight f4 [64, 64]
00000000: 7a69 ea3e 1297 0f3e 95ac d63d b0a5 6f3e
00000010: aff4 f53c ea3a 1cbe f08b 293f 33b3 a33d
00000020: a9cf 51bf 5b0d 04be 0ef1 a6be ed59 16bd
00000030: f978 1f3e d3db e0be 7366 883d c1b0 a53e
00000040: 5959 31bd cc80 2b3d 1fd9 d3be a8a2 dfbc
00000050: 610f 27bf 8813 903e 2a62 853e 36c6 9e3e
00000060: 1231 b9bd d9bd ae3e 7878 be3e 4fff b2be
00000070: d656 9ebe 74e7 60bd ecdc 05bf f9e2 453e
00000080: 986a 0f3b df90 c0be 9fb8 553d ce59 a8be
00000090: 8326 5abd b4fc 5a3d c484 a13e cde6 893d
000000a0: 59ae 373d 1b1b 29bf 7395 b53e 855b 8d3d
000000b0: 78ef 0dbd 4d28 ae3d c444 c4be 8b14 af3d
000000c0: 8fd6 ad3e 8fc5 873e 324f bd3d a504 f53d
000000d0: 4ebf 8b3e 6c8a 2a3d 715d f5be 3bb2 40be
000000e0: da98 8eba 6dd7 20bd 4168 89bd a4d5 b73d
000000f0: 5877 9dbe 3702 0d3f 994d ccbd 9b39 18be
00000100: e569 fbbc 292f 38be 00f0 db3c f493 8bbd
00000110: debb 7a3c 75d7 733e 5ba2 e93d 4c24 ef3d
00000120: bccc ac3d deb8 f7bc fcf4 9a3d 1a8e 983d
00000130: 5b91 cebd 1de4 763e 07e6 d13d b860 8c3d
00000140: b5c8 3abf a3f1 f4bd 23b6 83be 643c 843d
00000150: 7b39 213e 6e9f d2bd 8a9e 003f e71b 9f3e
00000160: e329 18bd 0514 acbe 6fcd 6e3e 2c1b 973e
00000170: 74ce 31bf 9d99 dbbd a380 383e ba31 8e3e
00000180: 5b8c 78bd 9b9d 89be 1081 f13d 061d 123e
00000190: 74dc 113e 5ac7 ca3d c462 1fbc 43ce 123e
000001a0: 66cc 553e bf39 973e af90 7e3e 9f92 36bc
000001b0: f758 ce3d 8c51 48be 8a2b 9bbe 8a70 78be
000001c0: 1902 d5be 7373 0b3f 593e 7e3e 6435 f43d
000001d0: 428b 9dbe 3b9f dd3d 18d0 f43d f1fc 893e
000001e0: 4e73 19bd 4b8e 0a3e d889 e63e d2dd 8c3d
000001f0: df32 8e3e 321e 58bc 9872 ad3d 128b 5dbd
00000200: 3a7e 1e3f 0308 923d ae65 a53d 6c21 093f
00000210: d71a 933d bbc6 d73e 7b54 d03e c7f9 3a3c
00000220: 0948 96be 8982 f63c a623 97be ad54 b03e
00000230: 6df7 72be 8796 8fbe dd08 8fbd 2be4 1bbd
00000240: e04a 8cbe cd66 e3be d6ea 4b3d 730a 623c
00000250: 6465 2dbe c593 33be 097f 943c 8593 ff3c
00000260: 8774 d9bd 66b6 143f aa2a a53e e439 073e
00000270: 4c4a 62be c67b 31bd 8e03 053e 2483 9ebe
00000280: 4f68 ddbd e51c 82be 0bf3 10bc f163 2bbd
00000290: bd5d 143e 19c4 123e fe6c aabe b24a 7fba
000002a0: 3c48 99bc a4cd 8a3d 2d17 9f3e bbd6 d8bd
000002b0: 8ca6 a6bd 533a 34be 251e d0bd 0a71 d03d
000002c0: 744b 363e 7f4b 02bf 3457 e0bc a674 b7be
000002d0: 2259 0abd c725 97bf 041e 01bf 8ea9 17be
000002e0: ff8e fbbc d728 ca3e baa8 02be 4838 99bd
000002f0: ebd4 9f3d babc 1d3e 40af 443d ba62 2e3e
00000300: 2cc9 bc3e 6224 d63e d033 783d 38e0 183e
00000310: 2e00 5ebd 4a94 853d 71a4 1c3e bd7f 853d
00000320: 8f46 bfbe 60a4 663d b74d 1a3d d13d 4ebd
00000330: 5123 77be 0164 353d 9412 6dbe b610 293f
00000340: 90d1 f5bd d341 8a3d 617e 48be c364 f6bd
00000350: 7d53 3c3e 48f8 883c ee17 ab3e 3336 9d3d
00000360: d903 833d 0305 a43c 84f2 833e 16f2 bbbd
00000370: b911 f4bd 7f77 8e3d eb6f 37be 7e7a c73a
00000380: 33fa 89be 42d1 2fbc 309b 5d3d 5fa6 ce3e
00000390: ba6a 223d 70f4 25be e335 593e fdb5 f43c
000003a0: a135 b23e 5672 fd3d 7927 56be b2f7 d0be
000003b0: b37c 633d 42b5 3b3e f3cb 243d 2015 fdbe
000003c0: 7c1a abbe 5d70 a93c 1706 45be 459b 9bbd
000003d0: 9734 25be e75a bc3e dcad 95be e371 51be
000003e0: 1be3 d13d 767e 06bf 5cea 12bf 54dc da3c
000003f0: eee0 b0bd 00e2 98be ded9 813d ed25 e5be
0.45783597 0.14022473 0.10482136 0.23403049 0.0300239 -0.15256849 0.6622915 0.07993164
-0.8195749 -0.1289572 -0.32605785 -0.036706854 0.15573491 -0.43917713 0.06660166 0.32361415
-0.0432981 0.041870877 -0.41376588 -0.02729924 -0.6525784 0.281399 0.26051456 0.31010598
-0.090425625 0.34129217 0.37201285 -0.3496041 -0.30925626 -0.05490823 -0.52290225 0.19324864
0.0021883603 -0.37610528 0.05217802 -0.32881016 -0.053259384 0.053463653 0.31546605 0.06733475
0.044844005 -0.66056985 0.35465583 0.069022216 -0.034652203 0.085037805 -0.38333714 0.0854884
0.33952758 0.26517913 0.09243621 0.119637765 0.2729439 0.041635916 -0.47922853 -0.1881799
-0.0010879294 -0.039267946 -0.06709338 0.089762956 -0.30755115 0.55081505 -0.09975738 -0.14865725
-0.030690143 -0.1798674 0.02684784 -0.06815329 0.01530358 0.23812659 0.1140792 0.11676845
0.084374875 -0.030239519 0.07566258 0.07448979 -0.10086318 0.24110456 0.10248952 0.06854385
-0.72962505 -0.11960151 -0.25724897 0.06456831 0.15744583 -0.10284315 0.5024191 0.31075975
-0.03714932 -0.33609024 0.23320554 0.29512918 -0.6945565 -0.10722659 0.18017821 0.27772313
-0.06068073 -0.26878056 0.11792195 0.14268884 0.14244252 0.099013045 -0.009728137 0.14336495
0.20878753 0.29536244 0.2485988 -0.011143356 0.100755624 -0.19562358 -0.30306655 -0.2426168
-0.41603163 0.54473037 0.24828471 0.11924246 -0.30770308 0.108213864 0.11953753 0.2695079
-0.03746348 0.13530843 0.4502704 0.06878246 0.27773187 -0.013190793 0.08469123 -0.054087706
0.61911356 0.07130434 0.080760345 0.5356662 0.07182854 0.42143807 0.40689453 0.011412091
-0.29351833 0.03009154 -0.29519385 0.34439602 -0.23727198 -0.2804453 -0.069841124 -0.038059395
-0.27400875 -0.44414368 0.049784504 0.013796437 -0.16933209 -0.17536838 0.018126981 0.031198272
-0.10617929 0.5809082 0.32259113 0.13205677 -0.22098655 -0.04333093 0.12989637 -0.30959427
-0.10810911 -0.2541267 -0.008847008 -0.04184336 0.14488883 0.14332618 -0.3328628 -0.00097386085
-0.018711202 0.06777504 0.3107237 -0.105878316 -0.08137235 -0.17600374 -0.101619996 0.101778105
0.1780222 -0.5089645 -0.027385332 -0.35831183 -0.03377641 -1.1808404 -0.50436425 -0.14810774
-0.030707834 0.39484283 -0.12759677 -0.07481438 0.07804283 0.15404025 0.048018694 0.17029849
0.36872232 0.41824633 0.060596287 0.14929283 -0.05419939 0.065224245 0.15297104 0.06518505
-0.3735852 0.056309104 0.03767177 -0.05035192 -0.24134566 0.044284824 -0.23151618 0.66041124
-0.120028615 0.06750836 -0.1957946 -0.120309375 0.18391223 0.016719952 0.33416694 0.07676353
0.06397218 0.020021921 0.25770962 -0.091770336 -0.11917443 0.06956386 -0.17913787 0.0015219001
-0.269487 -0.010731043 0.054103076 0.40361306 0.039652564 -0.16206527 0.21211962 0.029871935
0.3480654 0.123753235 -0.20913495 -0.40813977 0.055538844 0.18330863 0.040233564 -0.4943018
-0.33418643 0.020683462 -0.19240604 -0.07597975 -0.16133343 0.36788103 -0.29234207 -0.204536
0.10248395 -0.52536714 -0.57388854 0.026716389 -0.08636652 -0.29859924 0.06340383 -0.44755498

layers.4.bias f4 [64]
00000000: 6d65 763d d179 99be edf9 9a3c 35dd cd3d
00000010: cb50 6c3d 481b 11be cfe7 713d 9853 b23d
00000020: 2e76 1fbe 5ae6 61be d604 7a3d 6d58 70be
00000030: a6e2 913d 402c 3cbd bfe5 65be 5a92 993d
00000040: 7f7d 203e e21c 0ebe 03d1 45bd 191a afbd
00000050: b508 dbbd ab66 393c c072 8cbd d3d5 eebc
00000060: 0f50 0d3c 6c9c 6dbd b7e2 38bd 7e45 013e
00000070: 2b69 2dbe a0f0 2abd 7c5f 493d 5be4 02be
00000080: f5c0 9f3d cdae 1abe 8cae 94bd e596 ffbd
00000090: a7a0 a83d 922b 28be a265 96bc 8735 1b3e
000000a0: 2723 0ebe 187e 41bd a691 3bbe 530c 13be
000000b0: a5d1 d4bd b28e 0f3e 4333 3cbe 6580 c83d
000000c0: 203d 053e 612a 903e 6d0a c23d 7f1f 16be
000000d0: 2e91 dcbd ee2b cebd 9950 91bd 8617 d3bd
000000e0: e76a 9b3d 796b 9abd aa88 14bd fd3f 813e
000000f0: 61ca 283e 8300 943c 644c 163e 56af 4cbe
0.06015532 -0.2997575 0.018918002 0.100519575 0.057694238 -0.14170563 0.05905896 0.087073505
-0.15572426 -0.22060528 0.06103977 -0.23471232 0.07123308 -0.045940638 -0.22450922 0.074986175
0.15672873 -0.13878205 -0.048295032 -0.085498996 -0.1069502 0.011315982 -0.06857824 -0.029154694
0.0086250445 -0.058010504 -0.045138087 0.12624165 -0.1693465 -0.041733384 0.049163327 -0.12782423
0.078004755 -0.15105744 -0.07259855 -0.12479953 0.08233767 -0.16422871 -0.01835901 0.15157138
-0.13880597 -0.047239393 -0.18317279 -0.1436017 -0.10391549 0.14019278 -0.1837893 0.09790114
0.13011599 0.28157333 0.09474645 -0.14660452 -0.10769878 -0.10066973 -0.07095451 -0.10307221
0.075887494 -0.0754003 -0.036263146 0.25244132 0.16483451 0.01806665 0.14677578 -0.1998876

layers.6.weight f4 [64, 64]
00000000: 33af 11be c11f 023f aa50 4dbf 7f72 53be
00000010: 8837 6bbc f4d6 30bd 7e22 9c3e 8e9c 26bf
00000020: c53f a63d f9f7 4b3e 9ff1 3fbf a4f6 1fbc
00000030: 4001 833e ec46 9fbe ba4b a1be cc04 10bf
00000040: 64fc fdbe d37f 5b3d 65fc 1cbf 3c22 dc3c
00000050: fb7d d03d 1117 e5be 067d 0fbf 7ca3 ce3e
00000060: 519f 26be ef9d 04bf cfe4 89be 0ece 81bf
00000070: cf78 03bd 463b 03be 52b1 443e 52e8 f43b
00000080: 7575 5abe 57d3 33bd fbd0 753c d556 8cbe
00000090: 68de b8bc 24d7 b6bd 235e 683e 30e0 a23c
000000a0: 8cf9 37be 240f 36bf 77d1 883e 5764 d9bd
000000b0: d35f b03d 89ad 9e3e f486 87bd 39a0 aabd
000000c0: 36fc 173e 9902 bb3c 5f81 26be 9130 efba
000000d0: fad6 e8bd eaa4 a13e 6f80 af3d a8ae d2bd
000000e0: 9035 adbe 5b85 b8be dc64 12bd 6368 c2be
000000f0: 3064 c5be a7eb c23c 3e08 2abf 3ae9 683e
00000100: 71f3 1a3e 5883 933e 48c5 4abb d094 923e
00000110: 9d97 d03e 55e5 dabd 5231 163e 17af 11be
00000120: 9568 95bc 76d0 853e a731 56be 4537 a4bc
00000130: 46a7 fcbe 2571 1ebd 6ebb 04be ce60 51bf
00000140: a355 9b3e 13a5 b1bd 3609 7ebe 665a 5b3b
00000150: 5c8c a53d 04c0 793e 194f 8c3e 2bd6 23bf
00000160: e962 593e 5b05 84be 0051 1b3e 48fd 29be
00000170: 3bbe 91bd 055b 593e 0320 17be aa15 253c
00000180: 517e 1dbf 1c59 c23d c260 0dbe eeb1 1abf
00000190: df9b 0f3d 005a 5b3d cbbd 85bd 74aa 1e3f
000001a0: 7fdf fe3e fbcb 8f3d 7882 163c baf5 c7be
000001b0: 88b1 a8bc 768f 213e b468 813d bed3 163d
000001c0: 6296 553d 9aa9 f93d 48fc 96be b535 a9bd
000001d0: d811 fb3d 588f a93e eb0a a03e f36a db3e
000001e0: 0e6b 51be d173 b53e 502c c0be 7dd3 20bf
000001f0: 1510 30bf 8311 27bd 6e69 463e 439b 083f
00000200: 524d ce3d 7a60 6a3d e04d de3d 80ea c33e
00000210: cf3b a33e 8df8 253e 39f4 843e ff38 71be
00000220: 5e32 52bd 083c d73e a7cc 5dbe 4834 6ebe
00000230: ec66 4dbf 2140 40be fa21 30bf 1739 71bd
00000240: 57e3 44be 7042 e73d 8e79 873c b8d6 81bd
00000250: bc40 ce3d 5d7b 2d3e 6a6e 5dbe d01d 05bf
00000260: 035a 5ebd 0fbd 11bf bc25 a53d 3d8f 5b3e
00000270: 0a2b a6bd 7bbc d3bc cc88 5cbe f3e4 beba
00000280: 8516 0bbe 5e5e af3c 8d1c 5f3e f22a 56bf
00000290: b79e b7be 42ad e03d 9f46 a4bd 09c3 ac3e
000002a0: 819e 023f 784d 20be 0156 ae3d 0118 4ebf
000002b0: 2040 b63d 8f58 983e aeb2 11bd 0b2d 68be
000002c0: ab78 733d 1c13 073e 23ff c73e 0f8b a43c
000002d0: e2fb 95bd f82f 2d3d 8dcd 843e 6504 f43e
000002e0: 169d 20bf 7b7f f73e a5c8 c4be 5aa1 d1be
000002f0: b009 de3c a3fc 66bc 1e95 323d 343d 463f
00000300: c798 70be 4fb8 1d3f 8223 b53e 3e91 c63e
00000310: d5c7 173e 1803 fdbe 65b4 fa3d e5af 2b3d
00000320: cc68 d63c b7b6 b73e 04a2 89bd 3333 83be
00000330: 4ff3 8dbe c349 bdbe 1c62 153e 91ae 413e
00000340: 1eea b93e 5a90 a8bd cd6b d8bd a694 e3bd
00000350: cc52 f339 016a c53e 4588 563d 95d3 e93d
00000360: e23d c33d 4205 20bb 8cbc c4be 45fd dd3e
00000370: 35fb 10bc d0fc 80be 2e75 ccbd e178 8cbc
00000380: d6ff c6be 9247 3eba 977d 10be 210e be3e
00000390: 563d b33e e8b0 ea3d e4a6 5a3e 150d 403e
000003a0: 8bfd 76bd e589 033f 28a2 913c ae32 743e
000003b0: 4fb5 9dbd 4d8c 0f3e 1632 d0bd 4733 a33e
000003c0: 43f7 593d 4192 143e 2239 b03e 59a3 aebd
000003d0: f2e5 d7bd cacd 503d b7b4 67bd b583 ab3e
000003e0: ac76 793e d0fd 113f aefc f03e ac01 6bbe
000003f0: db0d 5c3c 3cdf 2c3d 4877 53bd 2ea5 b03e
-0.1422699 0.508297 -0.8020121 -0.20649146 -0.014356501 -0.043173745 0.30495065 -0.65082633
0.08117632 0.19918813 -0.7497806 -0.009763394 0.2558689 -0.31108797 -0.31503087 -0.5625732
-0.4960662 0.0535887 -0.61322623 0.026871793 0.10180279 -0.4474416 -0.56050146 0.40359104
-0.16271712 -0.5180349 -0.2693238 -1.0141008 -0.032097634 -0.1281558 0.19208267 0.007473984
-0.21333869 -0.04390272 0.015003438 -0.27409998 -0.022566989 -0.089277536 0.2269216 0.019882292
-0.17966288 -0.7111685 0.2672231 -0.106148414 0.08612027 0.30991772 -0.06617537 -0.08331341
0.14842305 0.022828387 -0.16260289 -0.0018248727 -0.113691285 0.31571132 0.08569419 -0.10287219
-0.33829927 -0.36039242 -0.03574072 -0.37970266 -0.38553 0.023794008 -0.66418827 0.22745219
0.15131928 0.28811145 -0.0030940343 0.2862916 0.40740672 -0.10688273 0.14667252 -0.14226948
-0.018238345 0.26135606 -0.20917378 -0.020045886 -0.4934637 -0.03868212 -0.12962124 -0.8178834
0.30338773 -0.086740635 -0.24808201 0.003347063 0.08083412 0.24389654 0.27404097 -0.6399867
0.21229137 -0.25785336 0.15167618 -0.16600525 -0.07116362 0.21226127 -0.14758305 0.010075966
-0.6152087 0.094896525 -0.13806441 -0.6042775 0.03506076 0.053552628 -0.06530341 0.6197884
0.4977989 0.07021328 0.00918638 -0.39054662 -0.020592466 0.15777382 0.06318799 0.036823027
0.05214537 0.12190552 -0.2948935 -0.08262197 0.12259263 0.33117175 0.3125833 0.42855033
-0.20450994 0.35439923 -0.37533808 -0.62822706 -0.6877454 -0.040788185 0.19376156 0.5336191
0.100733414 0.057220913 0.10854697 0.38264847 0.31881568 0.16208096 0.25967577 -0.23556899
-0.051317565 0.42037988 -0.216601 -0.23262131 -0.8023517 -0.18774463 -0.68801844 -0.058892336
-0.19227348 0.11291969 0.016537454 -0.063397825 0.10070941 0.1694159 -0.21624151 -0.51998615
-0.05428506 -0.56929106 0.08063838 0.2144136 -0.08113678 -0.02584671 -0.21536559 -0.0014564082
-0.1358281 0.021407302 0.21788235 -0.8365928 -0.35863277 0.10970546 -0.080212824 0.3374255
0.5102311 -0.15654552 0.08512498 -0.8050538 0.088989496 0.29755065 -0.035570793 -0.22673433
0.05944125 0.13190883 0.3906184 0.02008584 -0.073234335 0.042282075 0.25938073 0.47659603
-0.62739694 0.48339447 -0.3843433 -0.40943414 0.027104229 -0.014098319 0.04359924 0.7743714
-0.2349578 0.6160936 0.35378653 0.38782686 0.14822324 -0.49416423 0.12241439 0.041915793
0.026173018 0.35881588 -0.06720355 -0.25625 -0.27724692 -0.36970338 0.14588207 0.18914248
0.3631143 -0.08230658 -0.10567436 -0.11112337 0.0004641026 0.38557437 0.05237605 0.11417309
0.095332876 -0.0024417196 -0.384251 0.43357292 -0.008848955 -0.2519288 -0.09983288 -0.017147483
-0.38867062 -0.00072585896 -0.14110409 0.37120155 0.35007733 0.114595234 0.21352726 0.1875499
-0.06030039 0.51382285 0.017777517 0.23847458 -0.077005975 0.14018364 -0.10165803 0.3187506
0.053214323 0.14508916 0.3441859 -0.0852725 -0.105419055 0.050977506 -0.056568827 0.33498922
0.24361676 0.5702791 0.4706778 -0.22949857 0.013431038 0.04220508 -0.051627427 0.34501022

layers.6.bias f4 [64]
00000000: ace3 e03d 7884 fbbd 69a7 31be f617 8dbb
00000010: a994 383d 78af eebd 3fa0 bdbd b6db 13be
00000020: d25b f6bd 58d3 cc3d 140e 4bbe 1771 c5bd
00000030: 00d4 07bd d2db ec3c 212a 93bd 9f7a ee3d
00000040: 8ac5 19be ced4 37be 325d e8bd 095f 99bc
00000050: c12b 4ebe 9889 123e c5f4 e5bd a9a5 1d3d
00000060: 4072 03be 5a91 17be 26cd 15be a795 9e3b
00000070: 72e0 5d3e 1924 32be 2c7a 1ebe fb63 38be
00000080: 68bc 05be 1a87 d9bd 0e46 c7bd c4fa 363e
00000090: 55f1 1abd c2a8 183d e8c1 563c 4c7f 14be
000000a0: 6540 7dbe f330 14be c64a 493e 5075 a3bd
000000b0: 9eb3 7b3e cea8 0c3e fd55 2abe e464 12be
000000c0: 5e07 32bd 4094 dbbd 7532 c7bd c706 20bd
000000d0: 2ad3 f5bd c9e5 13be b268 96be 5744 c83b
000000e0: 4776 24bd 938d ce39 688c 3ebe 05e8 f5bc
000000f0: 68bf 76bd 8ec8 85bd 6a77 8cbd 7ea2 37bd
0.10980925 -0.12281126 -0.17349018 -0.004305835 0.04506365 -0.11654562 -0.0925908 -0.14439282
-0.12029232 0.10001248 -0.19829589 -0.09640711 -0.033161163 0.028913412 -0.0718577 0.11644482
-0.15016761 -0.17952272 -0.113459006 -0.018722074 -0.20133878 0.143103 -0.11228327 0.038488064
-0.12836552 -0.14801541 -0.14629039 0.0048396173 0.2166765 -0.17396583 -0.15476292 -0.1800689
-0.13060153 -0.10621472 -0.09730159 0.17869097 -0.03782781 0.037270315 0.013107754 -0.14501685
-0.24731596 -0.14471798 0.1965743 -0.0798136 0.24580237 0.13736269 -0.16634364 -0.14296299
-0.043464057 -0.10721636 -0.09726421 -0.039068963 -0.12003167 -0.14443125 -0.2937675 0.0061116624
-0.04015186 0.00039396863 -0.18608248 -0.030017862 -0.060241133 -0.065323934 -0.06858714 -0.0448327

layers.8.weight f4 [64, 64]
00000000: ad05 5a3e 0d91 e03e 056c e33a b3f3 ccbd
00000010: 3dc0 713d 16ad 993d 1cfd 6cbe 4008 593d
00000020: 614e bb3d e35a 6cbd 590e 6d3d 44af 013d
00000030: b995 8b3d dd56 07bf ef56 92bd 027f ce3d
00000040: 7cf4 9c3c 052b 093d a801 833e 74f3 19be
00000050: 1e86 28bf 9d28 1d3e 5bbd 58bd 142e 203e
00000060: 025a c9bc 6556 15bd bf5a f23c 0a82 943e
00000070: 9aad 25bf 8c49 c83d 6cbf 9dbd 470f 63bc
00000080: aba1 5e3e cfd0 c73d 0906 ebbd 18d5 40bf
00000090: 2039 003d 8816 5cbe 1479 383e 5633 d3bd
000000a0: 06cf 8fbd b221 9ebd 4931 303e ec41 21be
000000b0: d746 40bf f1a5 853e 6776 6b3d e3ae 023e
000000c0: aadc 5c3e 9405 acbc 7c2b 6abd 5b2d 9e3e
000000d0: f4d0 fdbe c6cb a93e 32aa d33c 2df1 f63c
000000e0: 726d 06bd 176c 9abd 5c05 e8bc 5a22 1ebe
000000f0: 4997 18be bbe7 6f3e 3ab6 f8be b1c8 35be
00000100: 4b0d 96be c200 bb3e 07f3 b43e 0260 203e
00000110: b2b7 e9bd 9dd8 b83d 9f3b 853e 377e a1bd
00000120: 8d22 20bb eab5 f2bd b06d a43d 33ae 83bd
00000130: 3444 ca3d 75f3 c33e 50f0 cdbd 2764 39be
00000140: d865 ba3d e684 1fbd 5d64 053e dac0 b6be
00000150: 1a75 8dbd 2f4b e6be 61ed c23c 8f30 11bf
00000160: f28b e7bd 69d6 8cbc 2f2c 84bc 9845 583b
00000170: 6942 7abe 8ffe e4bc 137a 16bd c117 b2bc
00000180: a58a f9be 0d33 ff3c f738 48be 9ecb debe
00000190: 2b50 183e 4af9 793e f5de 143e 47a3 683d
000001a0: d3ef c4be 9abe e73d 3f59 33be 2f42 5c3e
000001b0: fdcc 023e d5f6 aabe 17a8 d2bc cd7d cebd
000001c0: 5138 8abe 8c8a 043d eab6 133e d0d1 00be
000001d0: 5db6 a13e ecde bebe a634 843b 04b7 86be
000001e0: bc9d 423e f619 d33d 9079 943e 0ac2 a93e
000001f0: 19e4 b3bd f0ba 1abe 536c e83e 0d7b 65be
00000200: 342d 2b3b aa6c 9d3e 5c56 c03d c696 fdbb
00000210: 4b1e cdbb 0030 24b9 d58c 5abe 00ec fb3c
00000220: 3101 31bd a3b0 4e3d 237a c63d 43d6 a33d
00000230: 9872 a7bc 4678 84be 8e76 343d bd8e 823e
00000240: 3934 ed3c dcb0 f13d 5bee 473e 2f60 da3d
00000250: 04c4 16bf 0ff7 eabd b6f2 eb3c 7185 743e
00000260: 53d5 0aba 3223 c9bd 3785 50bd e952 de3e
00000270: 18d8 fdbe 4990 8fbd 005d 79bd 898e 003e
00000280: fa83 6d3d aa81 343d 394e 3abe a3d8 50bf
00000290: fb11 2b3d 1538 02be 8594 243e 5544 983d
000002a0: cf57 4fbd 5a89 dd3d dabf 7b3e 9334 e0bd
000002b0: 8430 2bbf b78c fa3e 50b4 bcbd 160a 83bd
000002c0: 738b 833e 7fb2 a3bd c71d 08be cf12 cb3e
000002d0: a4bd 09bf 5b67 a6bc f1e8 dc3d aa5b 143d
000002e0: 5d37 abbd c719 81bd 83e2 59be d302 31be
000002f0: 5d93 c0bc 8800 4d3e 778c 9abe 8a56 b4bd
00000300: 449c 8c3d 3c57 6c3c 8834 8a3c c764 13bc
00000310: c5f9 abbc 306a 743d ee28 5abd be3d c13d
00000320: dcb6 42bd c52a 1dbd c8bf afbc dcc4 84bd
00000330: e1bd c1bd 6817 fdbd 90be 98bd 0700 953d
00000340: 4013 633c c035 ac3d 6004 f7bc 7455 19be
00000350: 7864 023d b06b 7abd e464 ed3d b42e 54bd
00000360: 2248 b9bd 2438 403d 94e3 f9bd b18e 86bd
00000370: 0c1a 003d a498 693d a4d9 383d 501a 4f3c
00000380: b0a4 323c 3070 78bc 75a0 6cbd 0068 9fb9
00000390: b5c1 3e3d 2ed9 9dbd 2d59 803d c886 683d
000003a0: 48f3 8bbd a8f3 e93c 5a86 c9bd 4a92 e0bd
000003b0: 2ebf d2bd 424c 9abb 88e8 c23d 4c25 db3d
000003c0: c5a3 8b3d db66 0ebe c002 6dbd 99b5 993c
000003d0: 342e 28bd 10d4 0cbd d477 5dbd 071d 1abd
000003e0: cfa0 3cbd fc09 bebd de0f dabd 5869 febd
000003f0: 8e44 973d 6fd9 c0bc f46d e63d 6f08 10be
0.21291228 0.43860665 0.0017350918 -0.100074194 0.059021223 0.07503717 -0.23143429 0.052986383
0.09145809 -0.057703864 0.05787501 0.031661287 0.06815667 -0.5286692 -0.071454875 0.100828186
0.019159548 0.033488292 0.255872 -0.15034276 -0.65829647 0.15347524 -0.05291496 0.15642577
-0.024579052 -0.036459345 0.029584287 0.29005462 -0.6471802 0.09779653 -0.077025265 -0.013858623
0.21741359 0.09756624 -0.114757605 -0.75325155 0.03130448 -0.2149297 0.18014938 -0.10312526
-0.070219085 -0.077212706 0.17206301 -0.15747803 -0.75108093 0.26103166 0.057485964 0.12762026
0.21568552 -0.020998754 -0.057170376 0.30893978 -0.4957348 0.3316328 0.025837991 0.030144298
-0.03281922 -0.07540148 -0.028322868 -0.15442792 -0.1490146 0.23428242 -0.48576528 -0.17752339
-0.29307017 0.36524016 0.35341665 0.15661624 -0.1141199 0.09025691 0.2602205 -0.07885402
-0.0024434656 -0.118511036 0.08028734 -0.0642971 0.0987629 0.3827168 -0.100556016 -0.18104611
0.091014564 -0.0389451 0.13026567 -0.3569401 -0.06907101 -0.44979236 0.023794832 -0.5671472
-0.11305989 -0.017192082 -0.01613435 0.0033000465 -0.24439396 -0.027953414 -0.036737513 -0.021739842
-0.4873859 0.031152273 -0.1955298 -0.43514723 0.14874332 0.24411502 0.14538176 0.05679634
-0.3846422 0.11315651 -0.17514513 0.21509622 0.1277351 -0.33391443 -0.025714917 -0.10082588
-0.2699609 0.03235869 0.14425245 -0.12580037 0.31584445 -0.3727945 0.0040345965 -0.26311505
0.19005483 0.10307686 0.28998995 0.33155853 -0.087837406 -0.15110373 0.45395145 -0.22410221
0.0026119472 0.30746967 0.09391472 -0.007738921 -0.0062597147 -0.0001565814 -0.21342786 0.030752182
-0.043214027 0.050461423 0.096912645 0.079998516 -0.020440385 -0.2587301 0.044058375 0.25499526
0.028955566 0.118013114 0.19524519 0.10662877 -0.58892846 -0.11472904 0.028802257 0.23879029
-0.000529607 -0.09821166 -0.050908294 0.4342263 -0.4957893 -0.07009942 -0.060879707 0.12554373
0.05798719 0.04406897 -0.18193902 -0.8158056 0.041765194 -0.12716706 0.1607228 0.07434908
-0.05062085 0.10817213 0.24584904 -0.10947528 -0.66870904 0.48935482 -0.092140794 -0.06398408
0.2569233 -0.0799303 -0.13292609 0.39662787 -0.53804994 -0.020312956 0.107866175 0.03622023
-0.08360169 -0.06303745 -0.21277814 -0.17286234 -0.023507768 0.20019734 -0.3018529 -0.088055685
0.06865743 0.014425095 0.016870752 -0.008996195 -0.020993123 0.05967158 -0.05326169 0.094356045
-0.04753767 -0.038370866 -0.021453753 -0.064828604 -0.09460045 -0.1235798 -0.07458222 0.07275396
0.01385957 0.084086895 -0.030153453 -0.14974004 0.031834096 -0.061137855 0.11591509 -0.051802352
-0.09046961 0.04692854 -0.1220161 -0.06570185 0.03127484 0.057030335 0.045129433 0.012640551
0.010903522 -0.015163466 -0.05777021 -0.0003040433 0.046571452 -0.07707439 0.06267009 0.056769162
-0.068335116 0.028558567 -0.09840079 -0.109654024 -0.10290371 -0.0047087977 0.09517008 0.10700473
0.06818346 -0.13906424 -0.05786395 0.01876335 -0.041059688 -0.034381926 -0.054069355 -0.03762534
-0.046051797 -0.09279248 -0.10647558 -0.124224365 0.07386123 -0.02354118 0.11251441 -0.14065717

layers.8.bias f4 [64]
00000000: 6644 aa3c 9fc4 663c 4fc8 633d a7ce e9bd
00000010: 4f9a 973d 2d91 953c 89fd 28be ae36 74bd
00000020: d757 6bbd bc65 b0bc caa5 7e3a 01b4 f1bd
00000030: a258 bcbd a55a 963d 03a0 0abe 6283 7b3d
00000040: 1683 9dbd a953 a5bc 9b47 9bbd 9d02 94bd
00000050: 87fe 04be 49a3 10be f6ab b4bd 84af a23d
00000060: a5ef af3c b4fd f5bd 49ae dabd afef d63c
00000070: 4ba0 413d 6c8f 20be af8a 4cbd 4aa9 b7bd
00000080: 2263 36bd 47e6 86bb c891 98bd 597e acbd
00000090: fb61 31be 6767 c9bd 6edf 6cbc 804d 4abd
000000a0: d978 f83d 781b 70bd dac9 c1bd ee52 003e
000000b0: f91c 3a3d a12c 5ebd cd94 bfbd 9566 2abe
000000c0: 7ca2 d6bd ba9a d3bd a83c 08be fa70 b63d
000000d0: 6241 2cbe 7536 a3bd dc18 663d ff1a 1b3e
000000e0: 1900 13be d88e bbbd 1afe dfbd 29a3 0fbb
000000f0: afd9 3bbd d15f d8bc e116 453e 9d38 f2bd
0.020784568 0.014084964 0.05561095 -0.11416369 0.07402479 0.018257702 -0.16502966 -0.05962246
-0.057456817 -0.021532886 0.00097140356 -0.11801911 -0.09196593 0.07341508 -0.13537602 0.061404593
-0.07691018 -0.020181494 -0.07582017 -0.07227061 -0.1298772 -0.14124788 -0.088218614 0.07943633
0.021476576 -0.12011281 -0.106777735 0.026237337 0.047272008 -0.15679711 -0.049936946 -0.08967836
-0.044528134 -0.0041168067 -0.074496806 -0.084225364 -0.17322533 -0.098341756 -0.014457567 -0.049390316
0.12132425 -0.058619946 -0.09462328 0.12531635 0.045437787 -0.05424178 -0.09354553 -0.16640694
-0.1048021 -0.10332246 -0.13304389 0.08908267 -0.16821817 -0.07969371 0.05617605 0.15147017
-0.14355506 -0.09158105 -0.10937138 -0.002191732 -0.045861896 -0.026412876 0.19247009 -0.118272044

layers.10.weight f4 [64, 64]
00000000: a37f adbd 2e2f b1bd bd4d dfbc e895 0ebd
00000010: 972f 66be 1512 df3b 26a6 143d 0bc3 2a3d
00000020: 70fe f6bd 0fbc 1fbe 2765 10bd de2e b43d
00000030: 1d06 1bbe 7ba2 15be 361d 73bd a2ea 39be
00000040: 44a7 043e b57d dc3d 2cd6 09be 5c4d f2bd
00000050: b8e0 293d 00b4 bf3d 6880 98bc 48b9 49be
00000060: 8ee6 47be b137 ab3d dd17 ea3d e7ad 36be
00000070: eede 15be ed89 f53d 5b6a c83c 405b ae3d
00000080: 70b1 6fbd 5807 fe3e 9251 e5bd 604c bbbd
00000090: bc54 8a3d fecb 8f3d cb2f 47be b18f d4ba
000000a0: d724 32be 99e0 713e 378d f2bd 6e4d 30bd
000000b0: f164 62bc 9707 913d 0cae 383d bf3e 11bd
000000c0: 8669 5d3d 989d 733e 9045 de3d c76d cbbe
000000d0: cafc b13d 0c20 463e bb34 db3e 6bcf 87be
000000e0: 7fce 8bbd b059 9e3c 1c04 b43d 0759 e73d
000000f0: a5b8 e93d a49c 48bd 810a 5dbe df56 e13c
00000100: 7554 e1bd b385 aabd 3f13 c6bd 86bf eabd
00000110: d2e0 c9bd 8444 af3c 32fa dcbd 7caa 8dbd
00000120: bdac 70bd e12d ac3d d6c5 adbd 5e3e ca3d
00000130: 0a10 55bb 90d4 8d3b 9872 cfbd e440 29bd
00000140: 71c0 07bd 20f2 f3bb 0dcb 503d efd1 853d
00000150: 882b e2bd 54f9 1d3d 30ee cc3c 4c3f a2bd
00000160: a055 3d3d fe5b 943d d46a 9abd 3531 a7bd
00000170: b1ed 4cbd f8fa 233d e7d7 97bc 50d1 a8bc
00000180: 8a9f c3bd 7590 4c3d e84b 3dbd 9406 223d
00000190: e311 91bd e08e 333d 180a e1bc a3c9 d2bd
000001a0: 1393 ef3b a34b 613d 57cc debc 9d39 9bbc
000001b0: 6f4b 513d 7c28 71bd a055 80bb 4e3f d03d
000001c0: 7875 79bd 0d54 803d 50d3 b6bc 7c16 16bb
000001d0: 382b 90bc 06d8 b5bd 4dba a5bd b2b2 553c
000001e0: 30e9 2b3d a814 c6bd 18f8 133d fa46 f53c
000001f0: 0cb9 843d cc3c a8bd 0424 f9bd 52fc aebd
00000200: 6985 88bd 93f5 4cbd ff76 cfbd 1881 273d
00000210: 983d 4cbc 462e 8cbd fa2c b9bd 30d9 033c
00000220: 659b 073d 2282 c2bd 815b f5bd 50b8 d03c
00000230: d8d9 9a3d bfe4 c9bd 00c4 10bd e489 933c
00000240: a28b c7bd 6605 b53d a6ca bebc 12e8 493d
00000250: 388c cebd 2eec f7bd f845 bf3d 0df5 28be
00000260: 353e 3bbd 6caf 553d 5db0 0cbe e94e 8dbd
00000270: 7a72 01bd 88d9 e73c a9a7 703d 5812 d2bd
00000280: 5c2c b63d 5ce3 9abd 4049 383b 22b6 c1bd
00000290: d4f3 0ebd 1c74 70bd 8936 11bd c864 30bc
000002a0: e0fc 363d 1a89 0cbd 5d02 bf3d a0ea 86bd
000002b0: 5ba4 23bd c8b3 973c 20f0 523c e44b d3bd
000002c0: 7e3c 81bd 7f9b 2abe 88c6 b5bd dd71 8ebd
000002d0: 328f c63d f855 c83d c059 0abb 3b2e b83c
000002e0: c859 983d b14c 853d a672 c6bd ddd5 3c3d
000002f0: ccc5 b0bc fbf0 01be 702b 093c 0f9e 813d
00000300: 30e3 a93d 08e8 a4bd ccad 19bc 08e1 e8bc
00000310: 5e52 4c3d f873 00be 1c17 9dbd 8020 b83a
00000320: ab78 203d 626b 48bd 93ec bcbd f073 18bd
00000330: 1474 1a3d 5696 a8bc 945f 97bd 1012 ebbd
00000340: 7f0c 5a3d 26c7 87bd 5e96 d3bd fe54 ccbd
00000350: 3890 d1bc 460f 86bd 2c4d b23d 68e0 153d
00000360: 82dd 143d 0044 86bb 0532 b43d 0541 0c3c
00000370: 367e 9a3d 4612 fd3d 116d cc3d 2053 d33d
00000380: 0407 fd3d 7dc9 463d 7844 fdbc c0c6 463b
00000390: 507c 8dbd c448 b63d ab8b 373c dd04 46bd
000003a0: bbe4 b73b 7664 98bd 2356 e7bc bfbc 98bd
000003b0: 2843 3bbd a85a a3bd 8a6c f03d e051 f23c
000003c0: 6c67 a13d ae35 923d 3c3c 9fbd 7f4b dabd
000003d0: b2b0 cbbd 5388 c8bd 475d 6f3d 74e2 b7bd
000003e0: 4436 be3d 2e70 2b3d fc35 adbd 88e1 573d
000003f0: 30ae 8fbc d18d 87bd 6412 b4bd cec7 d7bd
-0.084716104 -0.08651577 -0.027258748 -0.03481093 -0.22479092 0.0068075755 0.036291264 0.041689914
-0.12060249 -0.15599082 -0.035252716 0.08798002 -0.15139051 -0.14612763 -0.05935403 -0.18155912
0.12954432 0.10766164 -0.13460606 -0.118311614 0.041474074 0.09360504 -0.018615916 -0.19699585
-0.19521543 0.08360232 0.11430333 -0.17839776 -0.14635822 0.11989198 0.024464777 0.08513498
-0.058518827 0.49614978 -0.11197199 -0.09145427 0.06754443 0.0702133 -0.19451825 -0.001621714
-0.17396866 0.23620833 -0.11843341 -0.043042593 -0.013818012 0.07081526 0.04508786 -0.03546023
0.054055713 0.23790586 0.10853112 -0.3973219 0.08690794 0.19348162 0.42813668 -0.26525435
-0.068264954 0.019329876 0.08789846 0.112962775 0.11412171 -0.04897751 -0.21586038 0.027507244
-0.11002437 -0.08326282 -0.0967164 -0.114623114 -0.09857334 0.021394975 -0.107899085 -0.06917283
-0.058758486 0.08407188 -0.08485 0.09875177 -0.003251078 0.004328318 -0.10129279 -0.04132165
-0.03314251 -0.007444635 0.050974894 0.06534182 -0.11043459 0.038567856 0.02501592 -0.07922229
0.046224236 0.072441086 -0.07539907 -0.08163682 -0.050031368 0.040034264 -0.018535567 -0.02060762
-0.09551914 0.049942452 -0.046214968 0.039557055 -0.0708349 0.043837428 -0.027470633 -0.102923654
0.007311234 0.055003773 -0.027197046 -0.01894837 0.05109733 -0.0588765 -0.0039164573 0.101683244
-0.060903043 0.062660314 -0.022317559 -0.0022901585 -0.017598733 -0.08879094 -0.08092175 0.013043093
0.04197043 -0.096719086 0.036125273 0.02994107 0.064806074 -0.08214721 -0.121650726 -0.0854422
-0.06666071 -0.050038885 -0.101301186 0.040894598 -0.012465857 -0.068447635 -0.09041782 0.008047387
0.03310718 -0.09497477 -0.119803436 0.025478512 0.07561082 -0.09858083 -0.03534317 0.018010087
-0.0974343 0.0883892 -0.02328999 0.049293585 -0.10085338 -0.121055946 0.09339517 -0.1649973
-0.045713622 0.05216925 -0.13739152 -0.068998165 -0.031603314 0.02830197 0.058753643 -0.10257405
0.0889518 -0.075628966 0.0028119832 -0.09458567 -0.0349005 -0.05870448 -0.0354524 -0.010766216
0.044674754 -0.034310438 0.09326623 -0.0658772 -0.039951663 0.018518344 0.012874633 -0.10317209
-0.06310366 -0.1666088 -0.088757575 -0.069553114 0.09695281 0.09782022 -0.0021110624 0.022482982
0.074389994 0.06508768 -0.09689836 0.046102393 -0.021578692 -0.12689583 0.008372173 0.063289754
0.08295286 -0.08052069 -0.009379815 -0.028427616 0.04988324 -0.12544239 -0.076704234 0.0014047772
0.039177578 -0.048930533 -0.092248105 -0.03721994 0.037708357 -0.020579498 -0.07391277 -0.114780545
0.053234573 -0.066297814 -0.10331415 -0.099771485 -0.025581464 -0.06545882 0.087061256 0.036590964
0.03634406 -0.0040974617 0.08798603 0.008560424 0.07543604 0.12357001 0.0998174 0.10318589
0.12354854 0.048531998 -0.030916438 0.0030330867 -0.06908476 0.08900598 0.011202733 -0.04834448
0.0056119836 -0.074410364 -0.028239315 -0.074578755 -0.045718342 -0.07976276 0.11739452 0.029580057
0.07881054 0.07139145 -0.07775161 -0.10658931 -0.09945811 -0.09791627 0.058438566 -0.089787394
0.09287694 0.04185503 -0.08457562 0.052705318 -0.017539114 -0.06618846 -0.0879257 -0.105361566

layers.10.bias f4 [64]
00000000: c19d 553e a0b7 9dbd 9a90 4abe fad2 0ebe
00000010: 446a d4bd 34fb e53d a669 12be be36 84bd
00000020: 662b a6bc df6e 17bc bcb0 e4bd 71e8 803e
00000030: 8aa4 0ebd 8882 d13c dcb6 fbbd 457a d0bd
00000040: d2e5 fc3c b7a5 98bd b70d 85bd 9f4c 013c
00000050: 1bfa f2bd ddf5 21be a2bb 0bbe d64f b2bc
00000060: 2312 853e 096c 05be 1fae 9dbd e9ab 923c
00000070: c109 9fbc 6bbf afbc 0ebf 02bd 7e41 43bd
00000080: 4991 b93d 44fa 89be d6a0 ffbd 0e71 713e
00000090: 8ea4 81bd 6a19 23be 1c2e 3ebd ae6c 853e
000000a0: 1ab2 ddbd 3048 7e3d e9f4 10be 55b3 2abe
000000b0: 8496 17bd 8460 0abe 72da 853d 1b3e d7bd
000000c0: 8526 123e 0e86 8f3d 5664 623d dac9 ecbd
000000d0: 1e7e cebd 68c1 89bd 074f b5bd 9b0b d0bd
000000e0: 1bd1 31bd 3bc0 f8bd 8fc5 36bd 70d4 1cbd
000000f0: af25 7abb be50 ecbc 8d27 d7bd 9055 18be
0.2086096 -0.07701039 -0.19781724 -0.13947669 -0.10371831 0.11229554 -0.14298114 -0.06455754
-0.020284366 -0.009242742 -0.11166522 0.2517734 -0.034824885 0.025574937 -0.12290737 -0.10179571
0.030871306 -0.074534826 -0.064967565 0.007891803 -0.1186411 -0.15816446 -0.13645795 -0.021766584
0.259904 -0.13029493 -0.076992266 0.017904239 -0.01941383 -0.02145358 -0.031920485 -0.04766988
0.09060914 -0.2694875 -0.12481849 0.23578283 -0.063302144 -0.15927663 -0.046430692 0.2605948
-0.10824986 0.062080562 -0.14155926 -0.16669972 -0.037008777 -0.1351338 0.06535806 -0.105098926
0.14272507 0.07007991 0.05527147 -0.11561938 -0.10082649 -0.067263424 -0.08852964 -0.101584636
-0.04341231 -0.1214604 -0.044622 -0.038288534 -0.0038169434 -0.028847095 -0.105055906 -0.1487639
