watermarks/aiwei23/model/sub_net.pt (torch, 91378 bytes, 12 tensors)

layers.0.weight f4 [64, 16]
0.08981936 -0.25962397 -0.16270609 0.46820244 0.20781854 -0.10245224 0.16870487 0.23301536
0.111274116 0.1638517 -0.06347054 0.24763499 -0.2608351 0.0044233543 -0.0694373 0.043484177
0.3230292 0.14188495 0.15663134 -0.5029906 -0.013819141 -0.07990213 -0.3665611 -0.34082448
-0.613001 0.09566611 -0.05738481 0.35065606 -0.1140857 -0.063745126 -0.057252564 0.17147315
0.11868933 0.09749301 0.2946717 0.17870265 0.2652392 0.101549104 -0.14146003 -0.30985272
-0.20486237 -0.29166287 0.1017975 -0.32148397 0.132617 0.026559774 0.25046661 0.23082705
-0.093959175 -0.3387114 -0.09496659 -0.4139914 -0.0147079695 0.118634656 0.124453865 -0.02481004
-0.15155686 -0.3559373 0.06163769 0.20047034 0.1152719 -0.18514888 0.35713992 -0.07347411
0.19516012 0.31638926 -0.05640715 -0.34199893 -0.3601069 -0.098126166 0.15280467 -0.121527605
-0.1437994 0.06863586 0.14493681 -0.24965827 -0.83026606 0.09146842 0.1570629 -0.029880838
-0.43919238 -0.29613656 -0.03910028 0.15246823 -0.5369246 0.3575799 -0.42796424 0.116305485
0.078813575 0.086610496 0.3060844 0.025858182 0.12793458 -0.25441614 -0.21486045 0.06474302
0.008173509 -0.2328416 -0.08768892 0.17138234 -0.39199865 0.16041207 -0.07165881 -0.20441073
-0.67772096 -0.316611 -0.1058973 -0.0054099984 0.10619529 0.3410899 -0.021622375 0.388195
0.10177686 -0.44533697 -0.05616533 -0.27218008 0.023362609 0.19920631 -0.073232844 -0.27596155
0.22415994 0.027593702 0.4718017 0.43617105 -0.08085617 -0.4617163 0.23424116 0.032264665
0.33615315 -0.12843704 -0.08913061 0.09033955 0.045479074 0.18464032 0.17850588 0.1604648
-0.17815258 0.30268592 -0.1368334 0.1787964 -0.4345072 0.08388485 -0.032090865 -0.20993456
-0.17100082 0.20529467 -0.022833414 -0.32912904 -0.5156841 -0.034293346 0.08284786 -0.32397184
0.12631679 0.16563821 -0.21129636 -0.108762614 0.33660862 0.20705327 0.12556453 0.22560592
0.15225352 0.13295834 0.037918247 -0.28111124 -0.17224613 -0.35545304 0.08695206 -0.105202734
0.18003586 0.14496873 -0.2878625 -0.29953882 0.30626735 0.2279644 0.22472964 -0.29873815
-0.137465 0.16578498 -0.159867 -0.4004218 0.28209737 -0.017308867 0.23148009 -0.2517873
0.29782072 -0.16758896 0.043955855 -0.0431246 0.029864468 0.2946668 0.10088164 -0.38629434
0.22639835 -0.3793442 -0.2896886 0.13052113 -0.32908532 -0.2243382 -0.40865856 -0.59551466
0.13032268 -0.42475682 -0.33828974 0.10628854 -0.54065996 -0.30207974 0.0022706431 0.10528364
0.07086597 0.24464706 -0.2391222 0.004914052 0.42469144 0.33922344 0.10333545 0.047894213
-0.424088 0.1395417 0.16991292 0.17059256 -0.349168 -0.1427287 -0.0039479854 -0.09495518
0.35886714 -0.17807075 0.2722186 0.24509205 0.27833432 -0.13632105 -0.053017486 -0.27473158
0.18951741 -0.2005778 0.34581396 0.044628505 -0.065444484 -0.15284455 0.07445778 -0.040337462
-0.37424186 -0.2038954 0.04315097 -0.016141463 0.06860443 -0.09278486 -0.16800807 0.12951374
-0.10423894 -0.28493178 0.045517582 -0.25211158 -0.28946906 -0.0537309 0.019302841 0.33484957
00000000: 36f3 b73d 6fed 84be 6d9c 26be 3bb8 ef3e
00000010: 62ce 543e 7bd2 d1bd f8c0 2c3e 949b 6e3e
00000020: afe3 e33d bdc8 273e d8fc 81bd 0794 7d3e
00000030: 2e8c 85be c9f1 903b 2535 8ebd 771c 323d
00000040: 1564 a53e 4a4a 113e f763 203e fec3 00bf
00000050: ae69 62bc baa3 a3bd e6ad bbbe 8c80 aebe
00000060: a2ed 1cbf 98ec c33d 560c 6bbd 3189 b33e
00000070: c3a5 e9bd ce8c 82bd aa81 6abd a896 2f3e
00000080: 6413 f33d 6aaa c73d 36df 963e d4fd 363e
00000090: 6fcd 873e faf8 cf3d e6da 10be 04a5 9ebe
000000a0: 71c7 51be d654 95be 357b d03d 8c99 a4be
000000b0: c0cc 073e e293 d93c 293d 803e ed5d 6c3e
000000c0: ab6d c0bd 956b adbe d87d c2bd aef6 d3be
000000d0: b2f9 70bc baf6 f23d abe1 fe3d 6d3e cbbc
000000e0: b931 1bbe 6a3d b6be cd77 7c3d 1948 4d3e
000000f0: ad13 ec3d ab97 3dbe 0bdb b63e 9879 96bd
00000100: 0ed8 473e c6fd a13e 2f0b 67bd 7c1a afbe
00000110: ee5f b8be 5ff6 c8bd d478 1c3e 77e3 f8bd
00000120: 2640 13be f590 8c3d 516a 143e 6ba6 7fbe
00000130: 518c 54bf cc53 bb3d 19d5 203e a9c8 f4bc
00000140: d3dd e0be 369f 97be 9d27 20bd a220 1c3e
00000150: e473 09bf b614 b73e 211e dbbe 9231 ee3d
00000160: 0369 a13d d860 b13d 18b7 9c3e 8ad4 d33c
00000170: 4801 033e d542 82be 6104 5cbe fd97 843d
00000180: 2eea 053c 076e 6ebe 4096 b3bd da7e 2f3e
00000190: 0cb4 c8be 1043 243e dbc1 92bd 0c51 51be
000001a0: 1f7f 2dbf d61a a2be afe0 d8bd 5b46 b1bb
000001b0: eb7c d93d 56a3 ae3e 6821 b1bc 7fc1 c63e
000001c0: 6370 d03d 3503 e4be 9e0d 66bd 305b 8bbe
000001d0: f162 bf3c bdfc 4b3e 1afb 95bd d54a 8dbe
000001e0: 2f8a 653e 300c e23c fe8f f13e d051 df3e
000001f0: eb97 a5bd 1466 ecbe eadc 6f3e f427 043d
00000200: 441c ac3e 0085 03be 1c8a b6bd f103 b93d
00000210: 4448 3a3d 5a12 3d3e 3fca 363e e250 243e
00000220: a16d 36be a6f9 9a3e 0e1e 0cbe 6716 373e
00000230: ba77 debe d2cb ab3d b671 03bd 16f9 56be
00000240: d71a 2fbe c438 523e 240d bbbc 9a83 a8be
00000250: e003 04bf 2e77 0cbd 24ac a93d a3df a5be
00000260: 3059 013e 109d 293e 135e 58be efbe debd
00000270: f757 ac3e c605 543e fd93 003e 3d05 673e
00000280: 59e8 1b3e 3b26 083e 2a50 1b3d d0ed 8fbe
00000290: 4a61 30be f1fd b5be ec13 b23d 8874 d7bd
000002a0: 525b 383e af72 143e b762 93be 275d 99be
000002b0: 13cf 9c3e 806f 693e 871f 663e 35f4 98be
000002c0: a0c3 0cbe 8ac3 293e 2db4 23be 1604 cdbe
000002d0: 116f 903e 53cb 8dbc 1e09 6d3e 44ea 80be
000002e0: f57b 983e 719c 2bbe 0e0b 343d 6ca3 30bd
000002f0: 54a6 f43c 91de 963e 099b ce3d 5fc8 c5be
00000300: f8d4 673e 6739 c2be 1052 94be 55a7 053e
00000310: df7d a8be eab8 65be b23b d1be a673 18bf
00000320: 4f73 053e ba79 d9be 5034 adbe cead d93d
00000330: b168 0abf 32aa 9abe 12cf 143b f39e d73d
00000340: 2d22 913d c284 7a3e 73dc 74be 0e06 a13b
00000350: 2871 d93e b2ae ad3e 89a1 d33d b92c 443d
00000360: 1022 d9be 05e4 0e3e a7fd 2d3e d1af 2e3e
00000370: 26c6 b2be 7927 12be 1a5e 81bb dd77 c2bd
00000380: 6fbd b73e 2e58 36be 3d60 8b3e 69f9 7a3e
00000390: d681 8e3e bf97 0bbe dd28 59bd 9ea9 8cbe
000003a0: da10 423e 4464 4dbe 870e b13e 61cc 363d
000003b0: c207 86bd 4883 1cbe 527d 983d e538 25bd
000003c0: a19c bfbe f5c9 50be 12bf 303d 1a3b 84bc
000003d0: 7b80 8c3d fd05 bebd 4f0a 2cbe 409f 043e
000003e0: 3a7b d5bd 94e2 91be a570 3a3d c514 81be
000003f0: 4a35 94be ef14 5cbd fe20 9e3c 6771 ab3e

layers.0.bias f4 [64]
-0.23224364 0.020698885 -0.21729803 0.12993972 0.11630798 0.030709904 0.015867034 -0.1826578
-0.2279665 0.05275838 0.21159483 -0.19633082 -0.054255836 -0.2605489 -0.08468244 0.30139166
-0.14462945 -0.25473678 -0.09383437 -0.38111207 -0.15866674 0.23649393 0.096218504 -0.31324315
-0.034186773 -0.18114734 -0.06420121 -0.04123614 -0.19015795 -0.06116104 -0.07790583 -0.21234702
-0.10265613 -0.20392492 -0.16256243 0.18261804 0.07526315 -0.19423506 -0.115850575 -0.15474902
-0.13207014 -0.013431277 -0.21188004 -0.11107622 0.081579335 -0.2070585 -0.16601463 0.1076488
0.069948554 -0.00824365 -0.2560607 0.26636168 -0.12769371 -0.22419398 0.011493094 -0.21102795
0.16974409 -0.23810951 -0.20492737 0.10097059 -0.11298917 0.09491617 -0.23333585 0.025002334
00000000: 47d1 6dbe b590 a93c 6083 5ebe eb0e 053e
00000010: e132 ee3d 5693 fb3c 95fb 813c a50a 3bbe
00000020: 0d70 69be 2c19 583d 51ac 583e f20a 49be
00000030: 5e3b 5ebd aa66 85be fd6d adbd 0250 9a3e
00000040: be19 14be dc6c 82be 3c2c c0bd 1f21 c3be
00000050: 8979 22be 772b 723e 350e c53d 6861 a0be
00000060: 6e07 0cbd b07e 39be ed7b 83bd 3ae7 28bd
00000070: c4b8 42be 0084 7abd 188d 9fbd 7f71 59be
00000080: 613d d2bd b2d1 50be c476 26be 3900 3b3e
00000090: 9123 9a3d 8ee5 46be 1143 edbd 8776 1ebe
000000a0: 653d 07be dc0e 5cbc 15f7 58be ee7b e3bd
000000b0: 1113 a73d 2507 54be bdff 29be f976 dc3d
000000c0: 3041 8f3d 6010 07bc 631a 83be 8f60 883e
000000d0: 24c2 02be 1b93 65be 884d 3c3c b617 58be
000000e0: 65d1 2d3e fbd2 73be 7bd8 51be abc9 ce3d
000000f0: de66 e7bd 6963 c23d 98ef 6ebe b2d1 cc3c

layers.2.weight f4 [64, 64]
-0.29332632 0.38163814 -0.13595599 -0.083310485 -0.0016269353 -0.5729536 -0.27335867 0.06324046
-0.048079282 0.087028824 0.032879878 0.08382766 0.3723566 0.19245356 -0.17744756 0.17797957
0.15380305 -0.12966913 -0.0365853 -0.16904865 -0.5389961 0.1421761 0.019004898 0.12012916
0.20325008 0.057231184 -0.27405834 0.482924 0.21037528 0.036881886 -0.1392827 0.2435799
0.057156444 -0.0011060692 -0.15586185 0.13799912 -0.8090132 -0.08406107 -0.09425699 0.08301011
0.19554843 -0.6510522 0.32714304 0.08332409 0.12049544 -0.35034427 0.013423008 0.08803768
0.14392802 -0.5841815 -0.09541058 -0.084747195 0.069457866 0.16578601 -0.012209804 -0.2710425
-0.18256713 0.27778497 -0.0031597968 0.21808507 -0.37296462 0.4763839 -0.35327893 -0.26523447
0.15356916 0.22198819 0.03159496 0.07820229 -0.39579746 -0.12552424 -0.07250861 -0.040784672
0.13917223 0.039526995 -0.21621111 0.17994675 0.05041096 0.23657775 -0.04189347 -0.085451625
-0.22318296 -0.030509243 0.16665255 0.05202638 -0.017346378 -0.10894163 0.030614758 -0.07199341
0.23897506 -0.38245702 0.23991854 0.48402682 -0.35145423 0.24501462 -0.03738437 -0.19111484
-0.7046915 -0.474735 0.23166972 -0.20765206 -0.18053281 -0.048933893 -0.32844803 -0.120266676
0.14004114 0.34287977 0.005488979 0.07296273 -0.10119003 0.39379168 0.02602398 0.5760172
0.089372694 -0.02575415 -0.11596223 0.1990547 -0.042424362 -0.50338715 0.32053047 0.13538632
-0.14379543 -0.10302545 -0.094566055 -0.20268151 -0.137991 -0.61417264 -0.12541708 -0.18988818
-0.024959939 0.03095051 0.15148388 0.10451366 0.0039657466 0.10697158 -0.33219302 0.37096763
0.14132313 -0.2609031 -0.20338659 -0.1851343 -0.3490276 0.19030742 0.08398609 -0.10667223
-0.10511899 0.12146232 -0.10016268 -0.065841265 -0.23042427 0.1380174 0.041386556 0.23974587
0.0021940188 0.19919181 -0.2366989 -0.53788394 -0.08652954 0.07105276 0.14045405 -0.011391455
-0.26568958 -0.09372073 0.4433531 -0.3121481 0.104805574 0.01670337 0.16878518 0.21531357
-0.394851 0.03876699 -0.40302324 -0.109778404 0.0026560016 -0.21088266 -0.068799965 -0.58260316
-0.43547338 0.3455018 0.16672449 -0.1288135 -0.20427528 0.16298397 0.0030815897 -0.06727499
-0.11591183 0.20414092 -0.022366753 -0.4442568 -0.019815385 -0.18030116 -0.10165543 0.07138307
-0.20147115 -0.044554774 0.09443596 0.307273 0.03672003 0.065062575 -0.027512528 -0.018037189
-0.0787047 0.08979408 -0.09005854 0.20208398 0.10146897 -0.0671701 -0.20514125 -0.07614411
-0.18672158 -0.07832477 0.30250865 0.37614453 -0.25033516 0.29209447 -0.08424596 -0.36485344
0.11185412 -0.22118276 -0.017388288 -0.048871186 0.05551277 -0.047587052 -0.20318882 0.081328064
-0.03606935 0.059123278 -0.2911801 -0.24866997 -0.28616586 0.008877083 -0.6553862 0.35709548
-0.75675833 -0.5265431 -0.14556956 0.027308894 0.069671504 0.12361205 -0.13994052 0.21184026
-0.22043732 -0.28769505 0.26398566 0.048670158 0.2581239 0.18016227 0.069880195 -0.7738838
0.23843846 0.24356095 -0.047536798 -0.21710274 0.047618836 0.088385 -0.016711952 0.08263468
00000000: de2e 96be 1366 c33e 0c38 0bbe b09e aabd
00000010: e43e d5ba 16ad 12bf abf5 8bbe 3784 813d
00000020: c8ee 44bd 2b3c b23d 0dad 063d d6ad ab3d
00000030: 86a5 be3e 8c12 453e d0b4 35be 4740 363e
00000040: 8c7e 1d3e fcc7 04be 78da 15bd 171b 2dbe
00000050: a6fb 09bf 9d96 113e 29b0 9b3c 4706 f63d
00000060: ca20 503e 3f6b 6a3d 6051 8cbe d141 f73e
00000070: 9e6c 573e 7611 173d 20a0 0ebe 026d 793e
00000080: e01c 6a3d 86f9 90ba 409a 1fbe a44f 0d3e
00000090: 7d1b 4fbf 3628 acbd cf09 c1bd 3401 aa3d
000000a0: d93d 483e 5bab 26bf 4b7f a73e d2a5 aa3d
000000b0: 50c6 f63d 5360 b3be 2dec 5b3c 194d b43d
000000c0: de61 133e eb8c 15bf 9f66 c3bd f08f adbd
000000d0: ed3f 8e3d cfc3 293e a10b 48bc 15c6 8abe
000000e0: e1f2 3abe d539 8e3e 9814 4fbb b151 5f3e
000000f0: 38f5 bebe 97e8 f33e fae0 b4be d0cc 87be
00000100: 3c41 1d3e df50 633e b769 013d 8628 a03d
00000110: f7a5 cabe 6d89 00be 657f 94bd d40d 27bd
00000120: 2a83 0e3e 0fe7 213d 7266 5dbe f643 383e
00000130: b97b 4e3d 7041 723e 7d98 2bbd 4301 afbd
00000140: 138a 64be 85ee f9bc f7a6 2a3e 9d19 553d
00000150: fe19 8ebc ca1c dfbd cdcb fa3c 4871 93bd
00000160: e1b5 743e 68d1 c3be 35ad 753e 5dd2 f73e
00000170: cff1 b3be 1de5 7a3e 5a20 19bd 9cb3 43be
00000180: aa66 34bf 7710 f3be d43a 6d3e bea2 54be
00000190: 98dd 38be e86e 48bd 572a a8be 604e f6bd
000001a0: f266 0f3e f08d af3e e5dc b33b 7c6d 953d
000001b0: b83c cfbd 109f c93e 3e30 d53c dd75 133f
000001c0: 0809 b73d 5efa d2bc 9b7d edbd ffd4 4b3e
000001d0: 2bc5 2dbd fbdd 00bf 921c a43e b6a2 0a3e
000001e0: 1c3f 13be 02ff d2bd d9ab c1bd be8b 4fbe
000001f0: 834d 0dbe 6b3a 1dbf 566d 00be 0c72 42be
00000200: c978 ccbc ed8b fd3c 971e 1b3e 420b d63d
00000210: 18f3 813b ea13 db3d 3415 aabe 78ef bd3e
00000220: 03b7 103e 1795 85be 9344 50be d993 3dbe
00000230: bfb3 b2be f3df 423e e600 ac3d f876 dabd
00000240: a048 d7bd 3dc1 f83d 1722 cdbd c9d7 86bd
00000250: 57f4 6bbe 6f54 0d3e f384 293d f17f 753e
00000260: 87c9 0f3b f0f8 4b3e 3261 72be c3b2 09bf
00000270: 6636 b1bd 1c84 913d 30d3 0f3e 3aa3 3abc
00000280: 7708 88be a7f0 bfbd 2dff e23e e0d1 9fbe
00000290: 4ea4 d63d 81d5 883c 06d6 2c3e 297b 5c3e
000002a0: e929 cabe 23ca 1e3d 1059 cebe 80d3 e0bd
000002b0: 5010 2e3b a0f1 57be ffe6 8cbd 7b25 15bf
000002c0: 5ef6 debe 9de5 b03e d3b9 2a3e b0e7 03be
000002d0: 8a2d 51be 45e5 263e 7ff4 493b 78c7 89bd
000002e0: 2e63 edbd 510a 513e 7b3a b7bc a175 e3be
000002f0: e053 a2bc dea0 38be b930 d0bd 4931 923d
00000300: 744e 4ebe 117f 36bd a467 c13d e352 9d3e
00000310: be67 163d 873f 853d f461 e1bc bac2 93bc
00000320: ee2f a1bd f5e5 b73d 9d70 b8bd 1aef 4e3e
00000330: f7ce cf3d 7a90 89bd 8c10 52be 71f1 9bbd
00000340: f133 3fbe bd68 a0bd 6ae2 9a3e 0496 c03e
00000350: ee2b 80be 688d 953e 2589 acbd 12ce babe
00000360: c613 e53d bc7d 62be e271 8ebc 272d 48bd
00000370: 5c61 633d a4ea 42bd bb10 50be 548f a63d
00000380: 74bd 13bd 402b 723d 8f15 95be 57a3 7ebe
00000390: 5584 92be 2f71 113c 64c7 27bf 38d5 b63e
000003a0: eaba 41bf 87cb 06bf 3010 15be e7b6 df3c
000003b0: efaf 8e3d 5128 fd3d 914c 0fbe a7ec 583e
000003c0: 52ba 61be c44c 93be 2129 873e 5c5a 473d
000003d0: d128 843e 757c 383e 591d 8f3d 401d 46bf
000003e0: 3629 743e 0b68 793e f2b5 42bd 2e50 5ebe
000003f0: f80b 433d 3203 b53d 81e7 88bc 5f3c a93d

layers.2.bias f4 [64]
-0.14856954 -0.1712853 -0.0697238 -0.03406046 -0.08897726 -0.14984435 -0.1526863 0.03791253
-0.068752885 0.09162543 -0.14839429 -0.15831637 -0.14750923 0.09132377 -0.12538294 0.017813548
0.045472194 -0.15255219 -0.13437709 0.16005015 0.13507895 -0.017997395 0.1274212 -0.15571246
-0.055588804 -0.12539372 -0.11384925 -0.025609463 -0.029272087 -0.08762223 0.050663427 -0.09194525
-0.07169167 -0.17553009 -0.15443005 0.003221823 -0.05361866 -0.0747557 0.009576696 -0.05997123
-0.12861562 0.094431736 -0.079612456 0.06620017 -0.042674948 0.10534927 0.004529216 -0.032331135
0.03938361 -0.10727662 -0.05043337 -0.09618965 -0.19358447 -0.034357537 0.019217813 -0.09531444
-0.16771312 -0.004069371 -0.0065985783 0.03758557 0.073420025 -0.18319364 -0.089586146 0.045222748
00000000: 9d22 18be 6a65 2fbe 5acb 8ebd fb82 0bbd
00000010: b639 b6bd cc70 19be cc59 1cbe 2b4a 1b3d
00000020: 50ce 8cbd 1da6 bb3d acf4 17be b01d 22be
00000030: a90c 17be f507 bb3d 6364 00be b8ed 913c
00000040: 0d41 3a3d a436 1cbe 269a 09be 30e4 233e
00000050: 2352 0a3e 466f 93bc b47a 023e 1673 1fbe
00000060: 16b1 63bd 3667 00be cc29 e9bd f0ca d1bc
00000070: 04cc efbc 4973 b3bd 7484 4f3d cb4d bcbd
00000080: 15d3 92bd 29be 33be e922 1ebe 3825 533b
00000090: 3d9f 5bbd 8419 99bd 93e7 1c3c 64a4 75bd
000000a0: d0b3 03be 6d65 c13d db0b a3bd f493 873d
000000b0: edcb 2ebd 5cc1 d73d d169 943b a76d 04bd
000000c0: b550 213d d8b3 dbbd 3993 4ebd 14ff c4bd
000000d0: 023b 46be 7dba 0cbd ad6e 9d3c 3834 c3bd
000000e0: fdbc 2bbe 5c58 85bb e338 d8bb 54f3 193d
000000f0: 3d5d 963d 1d97 3bbe f178 b7bd 7d3b 393d

layers.4.weight f4 [64, 64]
-0.035976842 0.047902483 0.011971609 -0.18681209 -0.42173833 -0.030079946 0.08666861 -0.262111
0.25919598 -0.12053345 0.2363639 0.10564511 0.08816133 0.1848779 0.0026713393 0.37443674
-0.07197476 -0.07011224 0.4312674 0.18695582 -0.23747589 0.044298295 0.1512029 0.54149365
-0.08747765 0.09078265 -0.5030282 0.09053002 0.030391488 -0.41281095 -0.1617919 0.2878806
-0.03854572 0.34948313 0.4745893 0.392992 -0.16060461 -0.35561377 -0.38625315 0.19282234
-0.024680234 0.22839084 -0.285407 0.0028326656 0.06339073 -0.18821903 0.16418804 0.41904837
0.015619557 0.14683703 -0.037375264 -0.13807093 0.14609541 0.09831126 0.21641521 -0.46279228
0.3457379 0.18729746 0.17190179 0.2857622 0.28410864 0.021915903 0.04903149 0.15647139
0.48255602 0.16884917 0.013241968 -0.32932028 -0.099115655 -0.02226593 -0.36702657 0.020155713
0.48587778 0.24637693 0.24577793 0.07688366 -0.08947294 0.079363644 -0.012104969 -0.102054074
-0.3470169 -0.09296059 -0.31950727 -0.00024562064 -0.21374764 -0.08051508 -0.2489187 0.03618999
-0.042836435 -0.014936644 -0.21138924 -0.18930192 0.2521442 0.16269119 -0.29487902 -0.37003848
-0.0005655544 0.29661414 -0.009261082 0.24457347 -0.24729687 -0.13063617 0.08093274 0.14351554
-0.0238536 0.0049390243 0.03684439 0.031465273 -0.015677862 -0.3606545 0.08033572 -0.014268288
-0.14320935 -0.007122275 -0.118818946 0.08783806 0.048385803 -0.30467674 0.16771778 0.17676947
-0.3134 -0.21227032 -0.011453303 -0.12250067 0.13473915 0.12067158 -0.20545305 -0.034513794
-0.07175173 -0.32215035 -0.03185967 -0.187192 -0.123099975 -0.027442914 -0.11689032 -0.43460208
-0.049468968 -0.15458119 0.24238163 -0.09852198 -0.059762433 -0.04758736 -0.14102598 -0.011473998
-0.23227005 -0.04003861 0.19096722 -0.31338444 -0.2912794 0.13458803 -0.47211558 0.25115332
-0.30877808 0.121608734 -0.27998546 -0.08319756 -0.10591651 -0.415048 -0.30344814 0.0063144066
-0.014876009 0.3032898 0.25262377 -0.061626155 -0.13010453 -0.21538569 0.029609334 0.07924719
0.009218669 0.47638816 -0.037909802 -0.37904528 0.0069971783 -0.22413029 0.20701092 0.112632506
-0.28322813 -0.00925918 -0.17976683 0.10346769 -0.008745114 -0.07325475 0.4321351 -0.112414315
0.11047256 0.21591671 0.12847555 0.15014748 0.19461831 0.0036305774 -0.3606869 0.1469192
-0.062387295 -0.56064445 -0.15979616 -0.009341501 -0.08689036 -0.20818742 -0.056294244 0.14212959
0.124642715 0.10392574 0.077591375 -0.0055575566 0.048928883 0.2213047 -0.10018212 -0.6980199
-0.16127671 -0.3004165 -0.2380446 0.004278988 0.31711933 -0.18386862 -0.28153867 -0.039582387
0.18603382 -0.005453338 -0.19236821 -0.04634111 0.11268975 0.20636849 0.10816853 0.14141081
-0.5639018 -0.110673316 -0.2672602 -0.25179958 -0.15006928 -0.18173136 -0.16015367 -0.090918034
-0.06491168 0.07843609 -0.039851137 -0.27666485 -0.42652082 0.05738017 0.11219183 -0.38112968
-0.12524821 0.02080926 0.059012596 0.052514747 -0.37612084 0.10150001 -0.25568292 -0.24654931
-0.019112678 0.0949869 -0.32176837 -0.21802464 -0.17629577 -0.12613621 0.10467863 0.1365789
00000000: 745c 13bd 6535 443d 9124 443c ab4b 3fbe
00000010: 16ee d7be 386a f6bc 507f b13d 6a33 86be
00000020: 56b5 843e 3eda f6bd 6109 723e 775c d83d
00000030: ed8d b43d a250 3d3e a311 2f3b 2cb6 bf3e
00000040: 8167 93bd 0297 8fbd 15cf dc3e 5971 3f3e
00000050: e12c 73be 2172 353d efd4 1a3e 549f 0a3f
00000060: 7b27 b3bd 41ec b93d 75c6 00bf ce67 b93d
00000070: 92f7 f83c f55b d3be c7ac 25be 1665 933e
00000080: 1ee2 1dbd 74ef b23e 5efd f23e 3f36 c93e
00000090: 8975 24be 0213 b6be f9c2 c5be 3873 453e
000000a0: 342e cabc 4adf 693e de20 92be 3ea4 393b
000000b0: 00d3 813d 7dbc 40be e920 283e 828d d63e
000000c0: 2ce9 7f3c 725c 163e ce16 19bd 7762 0dbe
000000d0: 099a 153e 6a57 c93d f39b 5d3e 1cf3 ecbe
000000e0: 8f04 b13e e8ca 3f3e 0607 303e 6c4f 923e
000000f0: b076 913e fb88 b33c 3ed5 483d 093a 203e
00000100: 9511 f73e cce6 2c3e d7f4 583c ab9c a8be
00000110: 26fd cabd 0a67 b6bc e8ea bbbe 981d a53c
00000120: f9c4 f83e 3c4a 7c3e 36ad 7b3e 2e75 9d3d
00000130: 973d b7bd 6889 a23d eb53 46bc ba01 d1bd
00000140: 33ac b1be 1f62 bebd 7596 a3be a5c6 80b9
00000150: a9e0 5abe 17e5 a4bd 8be4 7ebe f43b 143d
00000160: 4275 2fbd d3b8 74bc 6c76 58be 5dd8 41be
00000170: 0b19 813e 8598 263e 62fa 96be af75 bdbe
00000180: b741 14ba cfdd 973e cbbb 17bc 7871 7a3e
00000190: 643b 7dbe 7dc5 05be 10c0 a53d bdf5 123e
000001a0: a068 c3bc 8ad7 a13b 25ea 163d bbe1 003d
000001b0: dc6e 80bc b5a7 b8be 0e87 a43d 8ac5 69bc
000001c0: 79a5 12be f961 e9bb 5957 f3bd 71e4 b33d
000001d0: 3130 463d 97fe 9bbe 36be 2b3e 0e03 353e
000001e0: f775 a0be 645d 59be a2a6 3bbc a2e1 fabd
000001f0: 0ff9 093e a922 f73d 4962 52be 565e 0dbd
00000200: 92f2 92bd e4f0 a4be 497f 02bd 42af 3fbe
00000210: d71b fcbd f6cf e0bc 3164 efbd 2a84 debe
00000220: f99f 4abd 884a 1ebe e432 783e e4c5 c9bd
00000230: 74c9 74bd f7ea 42bd 1d69 10be 70fd 3bbc
00000240: 33d8 6dbe 87ff 23bd e98c 433e ed73 a0be
00000250: 9322 95be 72d1 093e 22b9 f1be 2b97 803e
00000260: 2918 9ebe 000e f93d 415a 8fbe 7b63 aabd
00000270: c1ea d8bd 2c81 d4be 8e5d 9bbe 15e9 ce3b
00000280: 81ba 73bc cd48 9b3e e757 813e b56b 7cbd
00000290: 1f3a 05be 118e 5cbe 468f f23c 5a4c a23d
000002a0: e609 173c 26e9 f33e 4f47 1bbd 3912 c2be
000002b0: 9648 e53b 6982 65be acfa 533e dfab e63d
000002c0: 4703 91be d1b3 17bc cc14 38be dee6 d33d
000002d0: ab47 0fbc 9606 96bd d040 dd3e 7a39 e6bd
000002e0: 703f e23d 4519 5d3e 188f 033e 43c0 193e
000002f0: 064a 473e fbee 6d3b f4ab b8be fd71 163e
00000300: d289 7fbd 6586 0fbf 9ba1 23be 180d 19bc
00000310: 93f3 b1bd 152f 55be cb94 66bd 6b8a 113e
00000320: ae44 ff3d 05d7 d43d 3ae8 9e3d 2a1c b6bb
00000330: a769 483d b39d 623e 492c cdbd 6fb1 32bf
00000340: b925 25be 31d0 99be f7c1 73be c136 8c3b
00000350: 775d a23e 0e48 3cbe d625 90be 2421 22bd
00000360: a67f 3e3e eab1 b2bb 2cfc 44be 2dd0 3dbd
00000370: e2c9 e63d 4352 533e 7687 dd3d ffcd 103e
00000380: de5b 10bf b1a8 e2bd 54d6 88be e0eb 80be
00000390: c3ab 19be c917 3abe 53ff 23be 3c33 babd
000003a0: 6af0 84bd 1aa3 a03d f23a 23bd 04a7 8dbe
000003b0: f060 dabe 7807 6b3d d5c4 e53d 6e23 c3be
000003c0: 1141 00be 2e78 aa3c 31b7 713d b419 573d
000003d0: e992 c0be 3ddf cf3d dfe8 82be 6c77 7cbe
000003e0: 3192 9cbc 7e88 c23d d3be a4be da41 5fbe
000003f0: e186 34be da29 01be c061 d63d 57db 0b3e

layers.4.bias f4 [64]
-0.11246061 -0.14533485 0.028415566 0.12953706 -0.05960099 -0.00059931935 0.085582905 -0.15567142
-0.090681046 0.15492685 0.08176854 -0.17468093 0.10674135 0.038978897 -0.09092717 0.19305402
0.14605305 -0.05084705 0.07057519 -0.13280973 0.07898698 -0.08320714 -0.11643784 0.008047435
-0.15454556 -0.10122088 0.08693615 0.08597406 -0.07686028 -0.022747625 -0.19204271 -0.10394287
0.12022599 -0.020446489 -0.10433729 0.021793809 -0.078342184 0.0266824 -0.015101678 0.0062255063
-0.061008226 -0.008908422 0.018606734 -0.16227259 0.07558187 -0.15577677 -0.10179618 -0.13984084
0.10366737 -0.13398664 0.1369409 0.09735604 0.13004275 -0.089074805 -0.05650564 -0.026936742
-0.14414224 -0.11075095 0.14404128 -0.27002463 -0.1391957 -0.1301177 -0.08006196 0.075028524
00000000: c051 e6bd a9d2 14be c3c7 e83c 5da5 043e
00000010: 2b20 74bd a41b 1dba 1746 af3d 5468 1fbe
00000020: fcb6 b9bd 25a5 1e3e 4476 a73d 8fdf 32be
00000030: 359b da3d 56a8 1f3d 0638 babd f4af 453e
00000040: ee8e 153e ff44 50bd ba89 903d 46ff 07be
00000050: edc3 a13d 8168 aabd f676 eebd 64d9 033c
00000060: 3141 1ebe e54c cfbd 950b b23d 2b13 b03d
00000070: ec68 9dbd 3a59 babc d8a6 44be 00e0 d4bd
00000080: 0b39 f63d 657f a7bc caae d5bd ee88 b23c
00000090: de71 a0bd 0c95 da3c 076d 77bc 55ff cb3b
000000a0: c3e3 79bd a1f4 11bc 266d 983c c92a 26be
000000b0: abca 9a3d f283 1fbe 847a d0bd 7032 0fbe
000000c0: 8f4f d43d cb33 09be 3c3a 0c3e 9a62 c73d
000000d0: ed29 053e da6c b6bd 7572 67bd 71aa dcbc
000000e0: 069a 13be 65d1 e2bd 8f7f 133e ab40 8abe
000000f0: 5189 0ebe 933d 05be 86f7 a3bd 8ea8 993d

layers.6.weight f4 [64, 64]
0.09477843 0.32921365 -0.040271893 -0.32423082 -0.09388603 0.043819595 0.20739871 0.00090431643
0.057543524 -0.1377148 -0.18430205 0.009406065 -0.09233157 -0.06034388 -0.018261578 0.1634054
-0.43518698 -0.45962015 -0.06532296 0.15498058 0.38107097 0.05614218 -0.09546325 0.11620967
-0.064160995 0.30802503 0.22389446 -0.08297276 0.07559845 -0.31633237 0.0033897716 -0.01545558
0.23546918 -0.19815312 -0.009583712 0.18314637 0.0015729264 0.20506263 -0.037672605 -0.13640574
-0.20196192 -0.17953688 -0.4561329 -0.010327076 -0.066594385 0.058317613 -0.090528645 0.05318765
0.1990945 0.15063384 -0.30569378 0.17719871 0.08872035 -0.3207953 -0.5165154 -0.52158034
-0.11538316 0.07262917 0.1439617 0.2984325 0.06747927 0.12845968 0.031673178 -0.38470674
-0.051199105 -0.12147312 -0.046635017 -0.048956517 -0.038411334 -0.00780331 0.06517856 0.08175711
0.12166424 -0.14734268 -0.021478403 0.029372439 0.08207078 0.07762373 -0.04515931 0.045215596
-0.08967424 -0.061344475 -0.04677747 0.121726796 -0.10928801 0.08201015 -0.00033448637 -0.060165145
0.042513028 -0.09004468 0.07054655 0.025614092 0.08366093 -0.11327355 0.115665466 0.050461814
0.026024986 0.087762624 0.0058984607 -0.046954025 -0.10596916 -0.02521433 -0.006267296 0.07616615
-0.021482157 -0.12287817 -0.07833432 -0.09139553 0.022166096 -0.11155516 -0.094785556 0.08540337
0.042906467 -0.028128132 0.0140171405 -0.08185029 -0.015174964 -0.06633423 0.06520662 -0.057579294
-0.12212591 -0.01175262 0.1150409 -0.037699863 0.04451731 0.039399892 -0.012757291 -0.09750185
-0.30966863 0.0046195337 -0.24813735 0.5928264 0.5617237 0.3510389 -0.083464906 0.05378285
0.026864896 0.18659003 0.33819252 0.2045773 -0.08345735 0.44564635 0.02256804 0.1366778
0.13289425 -0.03564282 0.18438806 0.006049501 0.15688471 0.12958024 -0.04425796 -0.48352447
0.014753778 -0.11019422 0.0019968369 0.20243524 0.35849932 -0.10239613 -0.059388645 0.0003022783
-0.17090367 0.057433885 0.0028059562 0.20116074 0.34767848 -0.40148932 0.4143923 -0.1203131
0.1182022 -0.073543586 0.31864354 0.1275498 0.11856734 0.09151251 -0.32651135 0.039212793
0.41722873 -0.036445577 0.069255665 0.40681797 0.16949624 0.35774848 0.22958826 0.5459011
0.009227792 -0.075311914 -0.19565 -0.06102789 0.016908465 0.0060635745 -0.055844717 -0.19927362
0.059791397 0.1881519 0.28708705 -0.33519337 -0.43124092 0.13000996 0.12715018 -0.07241396
-0.21088664 -0.22252189 -0.20010412 -0.111524954 0.00711683 -0.28126854 -0.026531855 0.38309133
-0.3871848 -0.30820146 0.054078277 0.10221854 0.31631687 -0.04031698 0.095349774 0.28880885
0.047072567 0.39136666 0.17914529 -0.33491698 -0.09642815 -0.18811189 0.03529252 0.042468876
0.21666473 0.04834049 0.060596243 0.07553347 0.0075713596 0.0655006 0.12181219 -0.4477992
-0.050118968 -0.09731113 -0.22042106 -0.27552983 -0.2302045 0.1108336 0.02836468 -0.058289114
0.06045352 0.023648065 -0.25267017 0.004735823 0.2823398 -0.30436838 -0.444955 -0.50193554
0.08286009 -0.11295634 0.3645667 0.3295936 -0.06955834 0.019923799 0.20232068 -0.0026945143
00000000: 321b c23d b18e a83e 24f4 24bd 9501 a6be
00000010: 5247 c0bd 2d7c 333d 5460 543e a60f 6d3a
00000020: c2b2 6b3d 1c05 0dbe adb9 3cbe e51b 1a3c
00000030: 5618 bdbd 252b 77bd 4e99 95bc bf53 273e
00000040: d4d0 debe 5553 ebbe 0bc8 85bd 3bb3 1e3e
00000050: bc1b c33e 58f5 653d 3d82 c3bd 56ff ed3d
00000060: d766 83bd 75b5 9d3e 9744 653e 9fed a9bd
00000070: 5cd3 9a3d 51f6 a1be ee26 5e3b 6739 7dbc
00000080: d51e 713e a7e8 4abe 0005 1dbc b98a 3b3e
00000090: a72a ce3a f0fb 513e 974e 1abd f2ad 0bbe
000000a0: 1bcf 4ebe 84d8 37be 408a e9be e532 29bc
000000b0: a362 88bd 73de 6e3d 1567 b9bd 4bdb 593d
000000c0: 6edf 4b3e c23f 1a3e e583 9cbe 9473 353e
000000d0: 04b3 b53d 483f a4be 5a3a 04bf 4a86 05bf
000000e0: 024e ecbd 9abe 943d b26a 133e 25cc 983e
000000f0: 9232 8a3d ef8a 033e bcbb 013d 48f8 c4be
00000100: 27b6 51bd e6c6 f8bd 5c04 3fbd a186 48bd
00000110: 3455 1dbd e9b2 ffbb 567c 853d 4670 a73d
00000120: 1a2b f93d 00e1 16be 7af3 afbc 789e f03c
00000130: ba14 a83d 31f9 9e3d f8f8 38bd fd33 393d
00000140: 21a7 b7bd 5844 7bbd bb99 3fbd e64b f93d
00000150: 64d2 dfbd f0f4 a73d 005e afb9 ba6f 76bd
00000160: 2422 2e3d 5869 b8bd b67a 903d a5d4 d13c
00000170: 6c56 ab3d f7fb e7bd 04e2 ec3d 0cb1 4e3d
00000180: 5a32 d53c e4bc b33d e047 c13b dd52 40bd
00000190: 5c06 d9bd 488e cebc e45d cdbb 00fd 9b3d
000001a0: 59fb afbc 8da7 fbbd be6d a0bd 942d bbbd
000001b0: ac95 b53c 0877 e4bd ee1e c2bd f6e7 ae3d
000001c0: b1be 2f3d f86c e6bc 26a8 653c 20a1 a7bd
000001d0: 6aa0 78bc 3eda 87bd 0c8b 853d 44d8 6bbd
000001e0: 261d fabd 108e 40bc 909a eb3d 2c6b 1abd
000001f0: c857 363d c861 213d f503 51bc 0daf c7bd
00000200: e38c 9ebe 755f 973b b817 7ebe 79c3 173f
00000210: 20cd 0f3f 5fbb b33e a6ef aabd 684b 5c3d
00000220: c513 dc3c 7511 3f3e 9227 ad3e b67c 513e
00000230: b0eb aabd c22b e43e 9ce0 b83c 44f5 0b3e
00000240: 6e15 083e 35fe 11bd 39d0 3c3e e43a c63b
00000250: 63a6 203e afb0 043e d647 35bd 8590 f7be
00000260: d5b9 713c 82ad e1bd 5ddd 023b 2f4b 4f3e
00000270: 398d b73e 10b5 d1bd 8241 73bd 1b7b 9e39
00000280: 5f01 2fbe cb3f 6b3d 22e4 373b 15fd 4d3e
00000290: ea02 b23e 0290 cdbe 3a2b d43e b766 f6bd
000002a0: ff13 f23d 059e 96bd 3f25 a33e 6a9c 023e
000002b0: 6fd3 f23d e96a bb3d 7f2c a7be 989d 203d
000002c0: 019f d53e f547 15bd ead5 8d3d 724a d03e
000002d0: 6c90 2d3e cf2a b73e 2f19 6b3e 2dc0 0b3f
000002e0: 2a30 173c 223d 9abd 7958 48be 61f8 79bd
000002f0: 9f83 8a3c f3b0 c63b 6ebd 64bd 620e 4cbe
00000300: d3e7 743d e4aa 403e 13fd 923e 779e abbe
00000310: 9ccb dcbe 5521 053e a833 023e c54d 94bd
00000320: abf2 57be c7dc 63be 18e8 4cbe 3267 e4bd
00000330: 4c34 e93b 6e02 90be 5559 d9bc 8c24 c43e
00000340: 163d c6be 95cc 9dbe 2f81 5d3d f457 d13d
00000350: 49f4 a13e 6b23 25bd be46 c33d c1de 933e
00000360: 2acf 403d 3661 c83e dd71 373e 3d7a abbe
00000370: 1f7c c5bd 67a0 40be e48e 103d d8f3 2d3d
00000380: 5cdd 5d3e ad00 463d c433 783d 4bb1 9a3d
00000390: 2b19 f83b 2e25 863d ab78 f93d f045 e5be
000003a0: 8c49 4dbd 0f4b c7bd 0fb6 61be 3f12 8dbe
000003b0: baba 6bbe bafc e23d 0c5d e83c 91c0 6ebd
000003c0: 1c9e 773d 96b9 c13c fc5d 81be f62e 9b3b
000003d0: d88e 903e 2cd6 9bbe 24d1 e3be d97e 00bf
000003e0: 8db2 a93d a755 e7bd 7da8 ba3e 7ec0 a83e
000003f0: 9a74 8ebd 3c37 a33c 272d 4f3e 7396 30bb

layers.6.bias f4 [64]
0.029906413 -0.091422185 0.092152864 0.009107825 -0.15272911 -0.033352938 0.11684819 -0.15317214
0.055739023 0.1511554 0.13751738 0.107236765 0.08254292 -0.13599049 -0.13124067 -0.066158906
-0.08623621 0.09074258 -0.0959688 0.06975828 -0.17795406 0.009863897 -0.11613493 -0.00015638837
0.10213789 -0.09642891 -0.017040242 -0.14710036 0.042911213 0.119227715 0.013240006 0.06913573
-0.07876365 0.06963997 -0.10051912 0.04648708 -0.098428756 -0.09516833 0.043409225 0.04328909
-0.16433069 0.15230136 -0.13695456 -0.071875624 -0.1211501 -0.16957937 -0.025079604 -0.0070894696
0.08407979 -0.10014335 0.11662365 -0.027045185 -0.09234963 -0.11128006 -0.03113258 -0.14868374
-0.124722846 -0.1092646 0.10511671 -0.108506106 -0.040261373 0.11861566 0.029722422 0.05620979
00000000: 4bfe f43c 8e3b bbbd a4ba bc3d fd38 153c
00000010: 0565 1cbe 179d 08bd 1b4e ef3d 28d9 1cbe
00000020: 9a4e 643d 7bc8 1a3e 5bd1 0c3e f39e db3d
00000030: 430c a93d 1741 0bbe f463 06be 527e 87bd
00000040: 9c9c b0bd 3fd7 b93d 4a8b c4bd 6edd 8e3d
00000050: 9739 36be 2f9c 213c 26d8 edbd 2ffc 23b9
00000060: ac2d d13d 857c c5bd fa97 8bbc 7aa1 16be
00000070: abc3 2f3d a92d f43d 9cec 583c 0997 8d3d
00000080: d64e a1bd 679f 8e3d f8dc cdbd 3d69 3e3d
00000090: 0495 c9bd 9de7 c2bd dfcd 313d e74f 313d
000000a0: 4e46 28be e3f4 1b3e d13d 0cbe 8733 93bd
000000b0: 8b1d f8bd 37a6 2dbe be73 cdbc c84e e8bb
000000c0: 0632 ac3d f517 cdbd 61d8 ee3d dd8d ddbc
000000d0: ce21 bdbd cde6 e3bd c109 ffbc 8d40 18be
000000e0: b16e ffbd 1ec6 dfbd 6e47 d73d 7338 debd
000000f0: 1ce9 24bd c4ec f23d 707c f33c 3d3c 663d

layers.8.weight f4 [64, 64]
0.014866737 -0.0019293576 0.0482596 -0.48300734 0.0064624324 -0.020073835 -0.056648526 0.032607276
-0.27067006 0.89500463 0.5122322 0.2512554 0.062684506 -0.039099414 -0.016926168 -0.10573939
0.055325665 -0.011901852 -0.04818325 -0.26236197 -0.010232489 -0.078198016 -0.03130524 -0.15128785
-0.044701185 0.1115663 -0.46397415 -0.47665247 -0.20211978 0.20849448 0.12947078 -0.14641424
-0.06625819 0.068079256 0.17474346 -0.2600292 0.032498047 -0.71893096 0.013043467 -0.5081473
-0.23263595 0.34209016 -0.05004078 0.067767054 0.32459515 -0.13832352 -0.027837578 0.06717317
-0.00030727359 0.04702636 0.19490305 0.16045368 0.05267505 -0.07238673 -0.20889652 0.16052216
-0.11403073 -0.025771866 -0.43037453 -0.1427789 0.053647984 -0.12393802 -0.17955342 0.09086366
-0.34808454 0.06853751 0.22240502 -0.25993612 0.06304915 -0.0062385006 0.21805242 0.08408073
-0.24308588 -0.23049228 -0.012413879 0.078660265 -0.23214625 -0.07659193 0.0016575602 -0.04119569
-0.12874444 0.035334703 0.114618436 -0.09086711 -0.04674888 -0.0119756 0.05695813 -0.20502768
-0.16589417 0.025871497 -0.021957982 -0.063819274 -0.4008925 0.16511458 -0.13859221 -0.18196295
-0.10152914 0.35091364 -0.21796401 0.05962214 -0.043937184 0.5112788 0.08907581 0.23445635
-0.041441437 -0.03665006 0.0042594713 0.10703242 -0.4034799 -0.015795963 0.0033310791 0.21369883
-0.11524483 0.017300716 0.20120712 -0.01339116 -0.07107225 -0.17856485 0.53729683 -0.02261093
0.0294168 -0.03921297 0.025833227 -0.04822566 -0.031013498 0.14072779 0.17406529 -0.45702383
-0.0438273 0.08727652 -0.15649971 -0.09543728 -0.0074848384 -0.11921352 -0.15603198 0.107103996
0.084797464 0.019442089 -0.06151226 0.073488824 -0.060167696 -0.09981148 0.035140485 -0.112351045
0.09952594 0.070100866 -0.104095 -0.108459175 0.11917518 0.09867554 0.11665408 -0.13691689
0.063567616 -0.021245524 0.042760447 0.06273072 -0.074840404 0.0907104 -0.15809132 -0.03576688
-0.027419701 -0.097103216 -0.09572636 0.044493303 0.085727856 0.117329344 -0.041289963 -0.110263236
-0.114262156 0.00810175 -0.11545238 0.12429397 -0.13477308 -0.0875113 -0.01077269 -0.051134635
-0.043076597 0.07562776 -0.036271058 0.1175454 0.037657093 -0.121865004 -0.13135327 -0.02458556
-0.03066209 0.016494572 -0.06392652 0.09060335 -0.016389541 0.121540695 -0.04667549 0.010759034
0.009352392 0.10668434 -0.11127361 -0.12617241 -0.053066436 -0.10267482 0.052465554 0.026888803
0.053828057 -0.055891205 -0.04206067 0.076385625 0.00092419033 0.06363681 -0.11200846 -0.101632535
0.035691693 -0.0791948 -0.09172243 0.06933828 -0.038851812 -0.012192533 0.050437838 7.3629635e-05
-0.09081147 -0.09471041 0.1212233 -0.08545425 0.0925692 -0.038130753 0.0071411487 0.0022051139
0.050614715 -0.14084351 0.13304687 -0.016173944 0.038775146 -0.088628545 0.07380942 -0.15469083
0.03616567 -0.070843846 0.0063672364 0.060500264 0.08545834 -0.0037388653 0.07364248 -0.11045904
0.083690405 -0.04553047 0.034806702 -0.10599655 -0.04234332 0.0132434815 0.005177175 -0.060116462
0.008224398 0.0049287975 -0.12040307 -0.04967001 -0.13689998 -0.021717636 0.033963446 -0.044429757
00000000: 9d93 733c 80e2 fcba dcab 453d bd4c f7be
00000010: d0c2 d33b e271 a4bc 4908 68bd 358f 053d
00000020: 4495 8abe 061f 653f a621 033f 8ca4 803e
00000030: bc60 803d b526 20bd bfa8 8abc e58d d8bd
00000040: 2a9d 623d fcff 42bc cd5b 45bd 4f54 86be
00000050: 2ba6 27bc 4826 a0bd ec39 00bd 34eb 1abe
00000060: 9718 37bd df7c e43d 058e edbe cb0b f4be
00000070: 7df8 4ebe 947f 553e fd93 043e 9ded 15be
00000080: 60b2 87bd 236d 8b3d f3ef 323e 8c22 85be
00000090: ac1c 053d dc0b 38bf 44b4 553c f115 02bf
000000a0: 1e38 6ebe 7126 af3e 90f7 4cbd 74c9 8a3d
000000b0: 5631 a63e aea4 0dbe a20b e4bc 1692 893d
000000c0: 9019 a1b9 b69e 403d aa94 473e f84d 243e
000000d0: cbc1 573d 7e3f 94bd f8e8 55be ec5f 243e
000000e0: f288 e9bd 851f d3bc 0d5a dcbe a234 12be
000000f0: fdbd 5b3d 37d3 fdbd dadc 37be ba16 ba3d
00000100: 2338 b2be 655d 8c3d 24be 633e 5916 85be
00000110: ea1f 813d 566c ccbb 2249 5f3e 8532 ac3d
00000120: 81eb 78be 2b06 6cbe 9563 4bbc a218 a13d
00000130: bfb7 6dbe 3bdc 9cbd 7e42 d93a d0bc 28bd
00000140: 95d5 03be 1fbb 103d 12bd ea3d 8918 babd
00000150: c17b 3fbd 4f35 44bc ee4c 693d c7f2 51be
00000160: 29e0 29be 76f0 d33c 3ae1 b3bc aeb3 82bd
00000170: c841 cdbe cc13 293e 1eeb 0dbe 7f54 3abe
00000180: 82ee cfbd f4aa b33e f531 5fbe 5836 743d
00000190: 7af7 33bd 2be3 023f 616d b63d 5315 703e
000001a0: 7fbe 29bd 601e 16bd 0993 8b3b d033 db3d
000001b0: eb94 cebe 8966 81bc 3c4e 5a3b ded3 5a3e
000001c0: 7b05 ecbd 3bba 8d3c 3d09 4e3e 9966 5bbc
000001d0: 548e 91bd b4d9 36be 498c 093f 8f3a b9bc
000001e0: 80fb f03c c79d 20bd 34a0 d33c 4588 45bd
000001f0: 0510 febc f21a 103e 2c3e 323e 07ff e9be
00000200: 4184 33bd 08be b23d 7641 20be 9f74 c3bd
00000210: 6043 f5bb 3826 f4bd d9c6 1fbe 5759 db3d
00000220: 4baa ad3d 0445 9f3c 48f4 7bbd 4f81 963d
00000230: 6772 76bd f669 ccbd 78ef 0f3d 4e18 e6bd
00000240: 42d4 cb3d 0b91 8f3d c22f d5bd d81f debd
00000250: 1e12 f43d 6716 ca3d 56e8 ee3d f133 0cbe
00000260: bd2f 823d 180b aebc 9425 2f3d f778 803d
00000270: ed45 99bd 60c6 b93d b1e2 21be 4b80 12bd
00000280: 489f e0bc 0dde c6bd 2f0c c4bd 9c3e 363d
00000290: 1692 af3d 5e4a f03d aa1f 29bd b1d1 e1bd
000002a0: 4702 eabd 34bd 043c 4c72 ecbd d68d fe3d
000002b0: f401 0abe 2039 b3bd f07f 30bc 8d72 51bd
000002c0: 1671 30bd bae2 9a3d f690 14bd a5bb f03d
000002d0: 533e 1a3d 5c94 f9bd 7981 06be a867 c9bc
000002e0: 102f fbbc a01f 873c e8eb 82bd 408e b93d
000002f0: 5c43 86bc 54ea f83d cc2e 3fbd a946 303c
00000300: c63a 193c 527d da3d 6be3 e3bd 5733 01be
00000310: 315c 59bd 2d47 d2bd 1fe6 563d e845 dc3c
00000320: cf7a 5c3d 2dee 64bd cf47 2cbd 1170 9c3d
00000330: 5d45 723a 0454 823d b164 e5bd b824 d0bd
00000340: 7431 123d e230 a2bd f8d8 bbbd 3a01 8e3d
00000350: 1423 1fbd 31c3 47bc e897 4e3d 9c69 9a38
00000360: 5dfb b9bd 88f7 c1bd ec43 f83d a302 afbd
00000370: ec94 bd3d fe2e 1cbd 4c00 ea3b ac83 103b
00000380: 6051 4f3d 4839 10be 703d 083e 387f 84bc
00000390: b0d2 1e3d e282 b5bd 6529 973d 4667 1ebe
000003a0: 7422 143d 9416 91bd 40a4 d03b 20cf 773d
000003b0: c804 af3d c007 75bb ded1 963d 5938 e2bd
000003c0: e065 ab3d 287e 3abd 7991 0e3d b814 d9bd
000003d0: 3070 2dbd 30fb 583c 4ba5 a93b ae3c 76bd
000003e0: a0bf 063c c081 a13b e295 f6bd c872 4bbd
000003f0: 822f 0cbe 2fe9 b1bc 411d 0b3d fafb 35bd

layers.8.bias f4 [64]
0.20636725 0.11291384 -0.08238873 -0.08024293 -0.13736641 0.11779911 0.10036938 -0.07602128
-0.085397236 0.14127709 -0.10822777 0.105978005 -0.08403789 -0.07151619 -0.14036442 0.15567885
-0.003601374 -0.12403234 0.12665732 0.15347512 0.09842076 0.22336634 0.043255724 -0.11921479
-0.028142923 0.07976456 0.08036418 0.03474565 0.08841484 -0.10977747 0.14603095 0.014646143
-0.048497975 0.14656816 -0.06556612 -0.11932373 0.18369141 0.044821333 0.10105949 -0.06077556
-0.031110318 -0.059603907 0.10339455 0.46105334 0.19170454 0.23646641 -0.13490719 -0.08623
-0.11396051 -0.08182482 -0.07002081 0.19675061 -0.14136226 -0.13201235 -0.08620307 0.1699516
-0.12271481 -0.10128154 -0.13655724 -0.051273156 -0.04740667 -0.06384354 -0.11453931 -0.12893614
00000000: f051 533e 5f3f e73d 6cbb a8bd 6856 a4bd
00000010: c8a9 0cbe a940 f13d 768e cd3d 0bb1 9bbd
00000020: bfe4 aebd f1aa 103e 85a6 ddbd ff0a d93d
00000030: 0f1c acbd 1577 92bd b1bb 0fbe 476a 1f3e
00000040: 0805 6cbb ab04 febd 75b2 013e 9528 1d3e
00000050: d390 c93d 25ba 643e ea2c 313d e226 f4bd
00000060: fd8b e6bc 9a5b a33d fa95 a43d 7451 0e3d
00000070: d712 b53d 03d3 e0bd 2389 153e 60f6 6f3c
00000080: d0a5 46bd f715 163e 8847 86bd 0060 f4bd
00000090: 9a19 3c3e 9396 373d 47f8 ce3d cbef 78bd
000000a0: 11db febc 3a23 74bd 86c0 d33d 2f0f ec3e
000000b0: 324e 443e 4024 723e 1c25 0abe 5b99 b0bd
000000c0: 2164 e9bd c593 a7bd 1267 8fbd fe78 493e
000000d0: 45c1 10be 3f2e 07be 3c8b b0bd cb07 2e3e
000000e0: e751 fbbd b26c cfbd a9d5 0bbe cd03 52bd
000000f0: 7f2d 42bd 67c0 82bd 9693 eabd d607 04be

layers.10.weight f4 [64, 64]
0.25703326 0.06953556 0.16953999 -0.00065112906 0.054256257 -0.40758547 0.04753215 -0.08954368
0.014453111 0.048587423 -0.022085596 -0.31783202 0.004781553 0.03908783 0.01151438 -0.44975552
-0.2254692 -0.043450557 -0.38083524 -0.3970876 -0.22205912 -0.24839821 -0.048803907 -0.053645726
0.09185768 -0.3867257 -0.15110068 0.07111988 -0.049444802 0.10466219 0.20731558 -0.078251325
0.069009066 0.030192574 -0.074848205 0.0035332735 0.33170852 0.22170402 -0.08857541 0.07593281
-0.26486304 0.0071972883 -0.3722138 0.06261006 -0.06307968 0.49941215 0.07374261 0.08945251
-0.14626232 0.08821272 -0.15030618 0.23378387 -0.011839745 0.033405244 0.060596175 0.13498347
-0.0737615 0.041789696 -0.07876029 -0.063139886 -0.03299351 0.06571437 -0.03952025 0.054358482
0.060028814 0.23302145 -0.0051364494 -0.0116814375 0.12592421 -0.19095406 0.16050062 -0.027397431
-0.059525926 -0.08374091 0.05449465 -0.10867599 -0.040052023 -0.124724284 -0.06828823 -0.40151533
-0.06897676 0.0884784 -0.19383939 -0.17317264 0.017084332 -0.1787018 0.143906 0.09101981
-0.052204885 -0.06213001 0.18423443 0.2922086 0.16154957 -0.026480742 -0.22172302 -0.037272617
-0.09354573 -0.2836633 0.057858307 0.030232076 0.18245617 0.23612827 0.22964357 0.018245917
-0.053602427 0.011511058 -0.11545434 0.10046478 0.3820834 0.15848906 -0.06151757 -0.074701905
0.018797943 -0.0067867488 -0.05268757 0.51015407 0.02470711 -0.004482579 -0.091626614 0.26242736
-0.054798894 0.11466728 0.034432966 -0.076859735 -0.0734972 -0.07975896 -0.10477781 0.06114978
-0.049208492 0.24916045 -0.05621919 -0.051957637 -0.07168594 -0.19691758 0.2796767 0.10175085
0.104856886 0.09564274 0.09712008 -0.26401976 0.12957507 -0.11307105 0.0659709 -0.21383649
0.07063073 -0.00087276153 -0.16563827 -0.11042821 -0.20306955 0.026036063 0.3891548 -0.059881434
-0.048437074 -0.19043772 0.3310172 0.43685228 0.4548135 -0.035861533 -0.253625 0.17679048
-0.02017242 -0.29411933 0.06623723 0.092779465 0.21887413 0.31410652 0.45699176 -0.1072033
0.058978178 0.06091849 -0.12147106 0.0024827968 0.47016945 0.27605432 -0.032634094 -0.016945824
-0.07904689 0.040640973 0.042791985 0.3220177 0.08851044 0.0028538604 -0.088599384 0.39353395
-0.059196427 -0.000117987394 0.0070265573 -0.029462924 -0.035381913 0.07593332 0.08917856 0.12307865
-0.058842808 0.04072386 0.04326 0.11239379 0.03753143 0.3658579 0.16498516 -0.029749872
0.06392269 0.12279853 -0.0005724861 0.3582935 0.09654476 0.0853607 0.053458944 0.33189613
0.30265236 0.10264096 0.370627 0.32960352 0.26176536 0.21128453 0.16051088 -0.07788955
0.015450619 0.40513748 0.27572286 0.25562477 0.12950283 -0.115109734 -0.2916198 0.16007158
-0.06518216 -0.15466335 -0.0687457 0.08067771 -0.08632858 -0.18772572 0.3305425 0.042867355
0.06257419 -0.034087438 0.20568807 0.038083453 0.25426608 -0.2571381 0.01104246 0.08039979
-0.10459928 -0.1210182 -0.104916245 0.21079844 -0.04184307 -0.096558824 0.0941563 0.29248515
-0.06769759 0.11544585 0.023463309 -0.063275486 0.04282939 0.014234473 -0.02655159 -0.11420764
00000000: dd99 833e a968 8e3d e49b 2d3e 88b0 2aba
00000010: cf3b 5e3d 0baf d0be 12b1 423d ad62 b7bd
00000020: becc 6c3c 9b03 473d daec b4bc e1ba a2be
00000030: 93ae 9c3b 8f1a 203d cfa6 3c3c 5b46 e6be
00000040: 66e1 66be 36f9 31bd d6fc c2be 114f cbbe
00000050: 7763 63be 1a5c 7ebe 9be6 47bd 9fbb 5bbd
00000060: e11f bc3d e900 c6be 23ba 1abe 4da7 913d
00000070: a286 4abd 2159 d63d 894a 543e 3b42 a0bd
00000080: a054 8d3d 6b56 f73c 044a 99bd 7e8e 673b
00000090: b3d5 a93e 6106 633e 0667 b5bd a982 9b3d
000000a0: 219c 87be 3bd7 eb3b cf92 bebe b439 803d
000000b0: eb2f 81bd f3b2 ff3e 5e06 973d e132 b73d
000000c0: cac5 15be dfa8 b43d dde9 19be 0a65 6f3e
000000d0: 7dfb 41bc f0d3 083d b233 783d 1b39 0a3e
000000e0: 4510 97bd ac2b 2b3d 134d a1bd 7c4f 81bd
000000f0: 3424 07bd 4195 863d fcdf 21bd 00a7 5e3d
00000100: c6e0 753d 2d9d 6e3e a94f a8bb 8063 3fbc
00000110: 47f2 003e 7689 43be 465a 243e 9470 e0bc
00000120: 75d1 73bd 5b80 abbd c835 5f3d 8491 debd
00000130: 970d 24bd 726f ffbd b3da 8bbd 6b93 cdbe
00000140: b043 8dbd 2a34 b53d d57d 46be 2b54 31be
00000150: 71f4 8b3c 9bfd 36be 185c 133e 9868 ba3d
00000160: cad4 55bd 0a7c 7ebd f3a7 3c3e 5e9c 953e
00000170: 406d 253e 24ee d8bc 5c0b 63be 2cab 18bd
00000180: e794 bfbd 513c 91be d5fc 6c3d 42a9 f73c
00000190: cad5 3a3e 9ccb 713e af27 6b3e 7678 953c
000001a0: 388e 5bbd e098 3c3c 5373 ecbd 7bc0 cd3d
000001b0: 6fa0 c33e f54a 223e d9f9 7bbd 50fd 98bd
000001c0: 25fe 993c 6063 debb ecce 57bd 7599 023f
000001d0: 9166 ca3c 99e2 92bb bca6 bbbd e15c 863e
000001e0: ce74 60bd aed6 ea3d 9509 0d3d a368 9dbd
000001f0: b385 96bd aa58 a3bd c095 d6bd 3178 7a3d
00000200: d88e 49bd eb23 7f3e 1846 66bd 88d1 54bd
00000210: 14d0 92bd c3a4 49be c931 8f3e c062 d03d
00000220: 35bf d63d 57e0 c33d e4e6 c63d 992d 87be
00000230: 54af 043e cb91 e7bd c01b 873d f4f7 5abe
00000240: d8a6 903d 09ca 64ba 149d 29be 2f28 e2bd
00000250: 77f1 4fbe 9549 d53c 4c3f c73e 3c46 75bd
00000260: f465 46bd 1b02 43be 167b a93e 1aab df3e
00000270: 51dd e83e 8be3 12bd 23db 81be 9008 353e
00000280: a240 a5bc cf96 96be 63a7 873d 2903 be3d
00000290: 8a20 603e 92d2 a03e d3fa e93e 678d dbbd
000002a0: 1a93 713d ab85 793d d2c5 f8bd 6bb6 223b
000002b0: 0dba f03e fe56 8d3e 54ab 05bd f8d1 8abc
000002c0: 56e3 a1bd 2677 263d a646 2f3d 81df a43e
000002d0: f644 b53d d507 3b3b 9873 b5bd 487d c93e
000002e0: f477 72bd 0070 f7b8 093f e63b 3b5c f1bc
000002f0: a0ec 10bd ee82 9b3d 40a3 b63d a910 fc3d
00000300: 2805 71bd 10ce 263d 6631 313d b72e e63d
00000310: 8fba 193d ba51 bb3e dff1 283e 01b6 f3bc
00000320: e6e9 823d cc7d fb3d e412 16ba 3f72 b73e
00000330: 42b9 c53d 97d1 ae3d c4f7 5a3d 4aee a93e
00000340: 40f5 9a3e 6c35 d23d d2c2 bd3e cbc1 a83e
00000350: 1c06 863e f95a 583e f75c 243e 8e84 9fbd
00000360: 9824 7d3c 2e6e cf3e 8c2b 8d3e 40e1 823e
00000370: 649c 043e a7be ebbd 314f 95be cee9 233e
00000380: 397e 85bd 1260 1ebe 8cca 8cbd 5b3a a53d
00000390: 0acd b0bd 2c3b 40be de3c a93e ae95 2f3d
000003a0: e626 803d 459f 0bbd e59f 523e 65fd 1b3d
000003b0: 2a2f 823e 9ba7 83be 6feb 343c a5a8 a43d
000003c0: 2638 d6bd 64d8 f7bd 54de d6bd 8cdb 573e
000003d0: a463 2bbd a2c0 c5bd 05d5 c03d 9dc0 953e
000003e0: 09a5 8abd e06e ec3d 2036 c03c 9496 81bd
000003f0: df6d 2f3d b537 693c b882 d9bc b2e5 e9bd

layers.10.bias f4 [64]
-0.21276411 0.072866194 0.19872451 0.33416605 -0.048621073 -0.16288586 0.006340231 -0.02995308
-0.25368384 -0.10348104 0.011059836 0.19136205 -0.16246179 0.06149878 -0.35427523 0.08657101
-0.12411306 -0.32795173 0.10871264 -0.23882999 0.20130485 0.32846597 -0.17257564 -0.012840997
-0.34142864 -0.35905823 -0.030472143 0.014077377 0.15449251 0.23681097 0.067664 0.17469522
0.06552871 0.22599547 -0.0064601833 0.036182113 0.25162283 0.23642299 0.098131165 -0.0512886
0.19786157 0.37306446 -0.31150562 0.101709895 -0.12215212 -0.11556107 -0.04995593 0.37513363
-0.049084082 0.08755957 0.30726975 -0.07891123 -0.075913504 -0.084335335 -0.04233467 0.30546066
0.047246374 -0.26898828 0.2157763 0.18236187 0.09896242 -0.14095 0.31537372 -0.08152391
00000000: d6de 59be df3a 953d 707e 4b3e d017 ab3e
00000010: e426 47bd 8dcb 26be b6c1 cf3b 2960 f5bc
00000020: d9e2 81be deed d3bd 5034 353c 6af4 433e
00000030: 625c 26be 25e6 7b3d 9063 b5be 244c b13d
00000040: fd2e febd 4ae9 a7be bca4 de3d d98f 74be
00000050: dc22 4e3e b12c a83e abb7 30be 0c63 52bc
00000060: bccf aebe 7bd6 b7be b7a0 f9bc cca4 663c
00000070: 4933 1e3e 937e 723e 6c93 8a3d 4ee3 323e
00000080: eb33 863d 5b6b 673e f2af d3bb b233 143d
00000090: b5d4 803e de18 723e fef8 c83d ff13 52bd
000000a0: 399c 4a3e 4e02 bf3e aa7d 9fbe 474d d03d
000000b0: e42a fabd 48ab ecbd 979e 4cbd 8411 c03e
000000c0: 640c 49bd 6f52 b33d 7652 9d3e 369c a1bd
000000d0: 8a78 9bbd 01b8 acbd 1e67 2dbd 5765 9c3e
000000e0: 6a85 413d d5b8 89be 76f4 5c3e 12bd 3a3e
000000f0: cfac ca3d 3255 10be aa78 a13e 02f6 a6bd
